checkpoint_critic_2.pth (torch, 591698 bytes, 9 tensors)

fcs1.weight f4 [512, 24]
0	0x3cec372f	0.028834907
1	0x3dae0253	0.08496537
2	0x3cbbb5df	0.022913871
3	0x3ab08f76	0.0013470489
4	0xbd8b7765	-0.06809882
5	0x396b0b68	0.00022415596
6	0xbc96acce	-0.018392947
7	0xbcaefe7a	-0.021361578
8	0xbcf623bb	-0.030046334
9	0x3d665a76	0.056238614
10	0xbbbda42c	-0.005787393
11	0xbc27f76a	-0.010251859
12	0xbdce1f99	-0.100646205
13	0x3df36916	0.11885278
14	0x3c804bd8	0.015661165
15	0x3d125870	0.03572887
16	0xbd660104	-0.056153312
17	0x3d2cadf7	0.042158093
18	0xbce150c3	-0.02750433
19	0xbd3d0e7e	-0.0461564
20	0xbe0b0628	-0.13576567
21	0xbd53bb5a	-0.051692344
22	0xbc1af9a0	-0.009458929
23	0x3c25f588	0.01012934
24	0xbd432369	-0.04764119
25	0x3df9391c	0.12169096
26	0xbd1a226c	-0.037630484
27	0x3c54fd1a	0.012999797
28	0x3b9a1400	0.004702091
29	0xbd992bcc	-0.07479057
30	0x3d1d2851	0.038368527
31	0xbd2be13a	-0.04196284
32	0xbd86d2e8	-0.06583196
33	0x3ddb433c	0.10706183
34	0xbd058682	-0.03259898
35	0x3ca31375	0.019906739
36	0x3d3742e0	0.04474151
37	0xbde8d094	-0.11367908
38	0x3cd4c288	0.025971666
39	0xbca6bcbd	-0.02035367
40	0xbc092552	-0.008370714
41	0x3e0ae402	0.1356354
42	0xbae8612e	-0.0017729157
43	0x3d68d306	0.056841873
44	0x3d69759d	0.05699693
45	0xbe2c3b38	-0.16819465
46	0xbbed634c	-0.007244503
47	0xbc8e8867	-0.017399026
48	0x3bfb3ca6	0.007667142
49	0xbbf5c5cb	-0.0075003854
50	0x3d0c3acc	0.03423576
51	0x3caa1530	0.020762056
52	0xbe10dc7b	-0.14146607
53	0xbcb3f370	-0.021966666
54	0x3cbabb4d	0.02279439
55	0x3cbb8654	0.022891201
56	0x3d8e40cb	0.06945952
57	0x3d94c73b	0.07264563
58	0xbd22e77f	-0.039771553
59	0x3d2913f1	0.041278783
60	0xbd558675	-0.05213018
61	0x3c31a506	0.010842567
62	0x3d0ab240	0.0338614
63	0x3d320973	0.043466043
64	0x3d6a1108	0.05714515
65	0x3bccc6dc	0.006249292
66	0x3c82cf7b	0.015968075
67	0xbd569707	-0.052390125
68	0xbc0d3810	-0.008619323
69	0x3da10e10	0.0786401
70	0xbcbb956e	-0.022898402
71	0xbd63733a	-0.05552981
72	0xbbb87aeb	-0.0056298873
73	0x3daceddb	0.08443805
74	0x3b6f7ac1	0.0036541673
75	0xbca9149c	-0.02063971
76	0xbcff2f21	-0.031150403
77	0x3d551df5	0.052030522
78	0x3b77c96c	0.0037809266
79	0x3c094a68	0.008379556
80	0x3b798240	0.003807202
81	0x3d88f71e	0.06687759
82	0x3d8893e5	0.06668834
83	0xbcfbc77e	-0.030734774
84	0x3bd509a7	0.006501395
85	0x3d374770	0.044745862
86	0x3d1841d6	0.03717216
87	0xbc79760e	-0.0152259
88	0x3d728b2c	0.059214756
89	0xbc95c3dd	-0.018281871
90	0xbd10cc5d	-0.035351146
91	0xbd207cf1	-0.039181653
92	0xbdb5e854	-0.08882204
93	0xbd650499	-0.055912588
94	0xbd2cb25d	-0.042162288
95	0xbc6cd732	-0.014455603
96	0xbc0818ed	-0.008306724
97	0x3da66b80	0.08125973
98	0x3d0d4824	0.034492627
99	0xbd6d5ade	-0.057947986
100	0xbc1d9cd6	-0.009619912
101	0xba34f019	-0.00069022324
102	0xbc1c3797	-0.009534738
103	0xbb85aba5	-0.0040792995
104	0x3cedf189	0.029045837
105	0x3d899593	0.06717982
106	0x3c274302	0.010208847
107	0xbd1f5ddf	-0.03890788
108	0x3d91ae22	0.07113291
109	0x3dbc1f89	0.09185702
110	0xbb455658	-0.003011128
111	0xbcfb569b	-0.030680945
112	0x3d66b926	0.056328915
113	0x3db8fff7	0.090331964
114	0xbcf99b3d	-0.030469531
115	0x3d450809	0.048103366
116	0xbce6b516	-0.02816252
117	0x3e11f7fd	0.14254756
118	0xbcf88a6f	-0.030339448
119	0x3ce04c8e	0.027380254
120	0xbd1a3c39	-0.03765509
121	0x3d0d7342	0.034533747
122	0x3cf9a598	0.030474469
123	0x3da11fc2	0.078673854
124	0x3d01c988	0.031686336
125	0x3d9c31d5	0.07626692
126	0x3cd2032b	0.025636276
127	0x3d96b846	0.07359366
128	0x3d026315	0.031832773
129	0x3c67989e	0.014135508
130	0xbd0aea89	-0.033915076
131	0xbb99c08d	-0.0046921433
132	0x3d1a542a	0.03767792
133	0x3db54d53	0.08852639
134	0xbca779a8	-0.020443752
135	0xbc103d97	-0.008803747
136	0xbd5cce48	-0.053907663
137	0x3d1713c3	0.03688408
138	0xbd3119be	-0.04323744
139	0x3da27cc3	0.07933953
140	0x3d5c09f5	0.053720433
141	0x3d9cb524	0.07651737
142	0xbd230415	-0.039798815
143	0x3d364700	0.044501305
144	0xbcb02508	-0.021502033
145	0x3ce6d892	0.02817944
146	0xbb9f4496	-0.004860471
147	0xbc96303e	-0.01833355
148	0xbe162b08	-0.14664853
149	0xbcb8d434	-0.022562124
150	0x3bbe9ad9	0.005816799
151	0x3cbd6021	0.023117127
152	0x3c9387f4	0.018009163
153	0xbc0b5f57	-0.0085066175
154	0xbd1839a2	-0.037164338
155	0xbb5cf989	-0.003371807
156	0x3f081934	0.53163457
157	0xbd03cd26	-0.032178067
158	0x3d0def33	0.034651946
159	0x3ced7588	0.028986707
160	0xbb1ae182	-0.0023632948
161	0xbc6fe404	-0.0146417655
162	0xbc75c880	-0.015001416
163	0xbbfc35f4	-0.0076968614
164	0x3d03c30d	0.032168437
165	0x3d55624a	0.05209569
166	0x3c7dd262	0.015492054
167	0xbd13fbaf	-0.036128696
168	0x3d0c331d	0.034228433
169	0x3cc8badd	0.024503166
170	0xbbf44fb0	-0.0074557886
171	0xbcd078ec	-0.025448285
172	0x3c89ebe2	0.01683611
173	0x3d996ba8	0.07491237
174	0xbcce133a	-0.025155652
175	0xbc4b48e0	-0.0124075115
176	0x3d4670ca	0.048447408
177	0xbd0f9471	-0.035053674
178	0xbd9192ec	-0.07108101
179	0xbd4163fd	-0.047214497
180	0xbc6a7520	-0.014310151
181	0x3d3820a9	0.044953022
182	0xbd35857c	-0.044316754
183	0x3cc40014	0.023925819
184	0x3cde949f	0.027170477
185	0xbd2f575a	-0.042807914
186	0xbd71aee2	-0.059004672
187	0xbda2b57b	-0.07944771
188	0x3dc841ed	0.09778199
189	0xbcfd5efb	-0.03092908
190	0x3961378d	0.00021478366
191	0xbd13e7c0	-0.036109686
192	0x3d1f7d85	0.038938064
193	0xbbc42098	-0.005985331
194	0xbba310d8	-0.004976373
195	0xbc48c2ce	-0.012253476
196	0x3d603472	0.054737516
197	0x3d25f338	0.040515155
198	0x3ced6924	0.028980799
199	0xbc6b5f9f	-0.01436606
200	0xbd47992b	-0.048730057
201	0xbcddd44b	-0.027078768
202	0x3c39c156	0.011337599
203	0x3db32af7	0.08748429
204	0x3c83597c	0.01603388
205	0x3d9c0586	0.07618241
206	0xbcc3eb33	-0.023915863
207	0x3bc70c0e	0.006074435
208	0x3d001c34	0.031276897
209	0xbbca7b13	-0.0061792224
210	0x3d92bd57	0.0716502
211	0xbc0635b0	-0.008191511
212	0x3c65ea3c	0.014032897
213	0x3d2921d0	0.04129201
214	0x3d813fd1	0.06311
215	0x3b313c85	0.002704413
216	0x3c8c9ea4	0.01716549
217	0xbdcbe153	-0.099550866
218	0x3d4d52ed	0.050127912
219	0xbda3de19	-0.08001346
220	0x3c8545eb	0.016268691
221	0x3d8c8104	0.06860545
222	0x3b34651f	0.0027526093
223	0xbd7aa233	-0.06118984
224	0xbc16f33f	-0.009213268
225	0xbd6dc566	-0.058049582
226	0x3bf3133c	0.0074180644
227	0x3caf05d7	0.02136509
228	0x3d0fca75	0.035105187
229	0x3d2141e3	0.039369475
230	0xbc85dd9e	-0.016341027
231	0xbd09f7bd	-0.033683527
232	0xbd1eeb3d	-0.03879856
233	0xbe2b8f13	-0.16753797
234	0x3d6f75e8	0.058462054
235	0xbb1ba95b	-0.0023752067
236	0x3d9ea8e4	0.07747057
237	0x3c9a2c57	0.018819971
238	0x3d2cd49e	0.042194955
239	0x3c0ccd61	0.008593888
240	0xbd904c42	-0.07045795
241	0x3d98fffa	0.07470699
242	0x3c843886	0.016140234
243	0xbb61993e	-0.0034423615
244	0xbd2d9484	-0.042377964
245	0x3dace079	0.08441252
246	0xbd54e1b3	-0.051973056
247	0xbd573f3d	-0.052550543
248	0xbd4dba0d	-0.05022626
249	0x3dff4394	0.124640614
250	0xbd00bf9d	-0.031432737
251	0xbd3452cb	-0.04402427
252	0xbcf8aaa9	-0.030354815
253	0x3c34a638	0.011025958
254	0x3c0d5b82	0.008627774
255	0xbdadfbb1	-0.08495272

fcs1.bias f4 [512]
0	0x3d22fd99	0.03979263
1	0x3d3992e0	0.045306087
2	0xbc8a20cc	-0.016861342
3	0xbe49eba7	-0.197188
4	0xbdb5c61f	-0.08875679
5	0x3dc697e7	0.09696942
6	0xbe2c9eb4	-0.16857415
7	0x3e3dfd8f	0.18553756
8	0xbb8bd118	-0.0042668693
9	0xbd23cf58	-0.03999266
10	0xbe3c76d0	-0.18404698
11	0x3da3732d	0.079809524
12	0x3e1ef8c2	0.15524581
13	0x3e42bd3f	0.19017504
14	0xbe3e6261	-0.18592216
15	0xbd9c415e	-0.07629655
16	0xbdbd75f0	-0.092510104
17	0xbe04c800	-0.12966919
18	0xbe4b8d6a	-0.19878164
19	0x3e4f24b4	0.20228845
20	0x3e16d322	0.14728978
21	0xbd847d91	-0.064692624
22	0x3e157ab8	0.14597595
23	0xbe42a056	-0.19006476
24	0x3e460dad	0.19341154
25	0x3b40dcd7	0.0029428506
26	0x3e02221a	0.12708321
27	0xbc41f66b	-0.011838536
28	0xbdfc6c70	-0.1232537
29	0xbe6034e7	-0.2189518
30	0xbe6984c0	-0.22804546
31	0x3e26fe13	0.16307859
32	0x3e27c7d4	0.16384822
33	0x3e2ef46e	0.1708543
34	0x3e140c65	0.14457853
35	0xbe591814	-0.21200591
36	0xbe9da53e	-0.30790132
37	0xbd81289c	-0.06306574
38	0xbe46bfb3	-0.19409065
39	0xbdf65b7b	-0.12029167
40	0xbca11865	-0.019664953
41	0xbd96e024	-0.0736697
42	0xbd1e8d7d	-0.038709152
43	0x3d25fa6d	0.040522028
44	0xbd2f4eb6	-0.042799674
45	0x3d83f7a8	0.06443721
46	0xbd342377	-0.043979134
47	0xbe68de80	-0.22741127
48	0x3e479b55	0.19492848
49	0x3e228d71	0.15874268
50	0xbe24c545	-0.16090877
51	0x3c866b4c	0.016408585
52	0xbd93f035	-0.0722355
53	0xbd191dec	-0.03738205
54	0xbd997297	-0.074925594
55	0xbcb8c708	-0.022555843
56	0xbd6efbb4	-0.05834551
57	0x3b06ecdc	0.0020587957
58	0x3d9f0f19	0.077665515
59	0xbd18ea29	-0.037332688
60	0x3d9f4597	0.07776945
61	0xbd47aad9	-0.048746917
62	0xbdd3f616	-0.103496715
63	0xbd207703	-0.039176
64	0x3e45a2e1	0.19300415
65	0xbd4128f6	-0.047158204
66	0xbe1a6a7e	-0.15079686
67	0x3db6ed93	0.089320324
68	0xbe6939bc	-0.2277593
69	0x3da5f915	0.08104149
70	0x3e3e8b2d	0.18607779
71	0xbe14c55b	-0.1452841
72	0x39e0c0f9	0.00042868385
73	0x3e36455a	0.17799893
74	0x3d868dd5	0.06570021
75	0x3e42e8a0	0.19034052
76	0xbd929cdb	-0.07158824
77	0xbc959ee4	-0.018264242
78	0xbde939fb	-0.11388012
79	0xbe05e58e	-0.1307585
80	0x3d028f79	0.031875107
81	0x3e32514a	0.17413822
82	0x3e41bb88	0.18919194
83	0xbdc8be86	-0.098019645
84	0x3e127c2f	0.14305185
85	0xbde4a45c	-0.111641616
86	0xbea8795a	-0.32905084
87	0x3c11ca21	0.008898289
88	0x3e23e31b	0.16004603
89	0x3dcfc8e7	0.10145741
90	0xbe1349db	-0.14383642
91	0xbe1ecc8f	-0.1550772
92	0x3e00b3e1	0.12568618
93	0x3d881f25	0.06646565
94	0x3d3b2345	0.045687933
95	0xbdc3eab3	-0.0956625
96	0x3dfe7707	0.124250464
97	0xbbeb859a	-0.0071875574
98	0x3dd03901	0.10167123
99	0x3da28399	0.079352565
100	0xbde51628	-0.111858666
101	0xbe3766af	-0.17910264
102	0x3dc689c5	0.09694246
103	0x3d3e15f3	0.04640765
104	0x3c26dbac	0.01018421
105	0x3d128f04	0.03578092
106	0xbdab9dc9	-0.083797045
107	0xbdbb1c5b	-0.09136268
108	0x3e0aa953	0.13541155
109	0xbd159565	-0.036519427
110	0xbe281ffa	-0.16418448
111	0xbd1044e3	-0.035221945
112	0x3a89358c	0.0010468229
113	0xbe3809e6	-0.17972526
114	0xbe31ec8c	-0.17375392
115	0xbdfd2a0d	-0.12361536
116	0xbe2bdc89	-0.16783346
117	0x3dc58f3c	0.096464604
118	0xbe2edbaf	-0.1707599
119	0xbdd39550	-0.103312135
120	0xbe4501a6	-0.1923891
121	0xbd8373bc	-0.06418559
122	0xbe1b2366	-0.15150222
123	0xbd91f511	-0.07126821
124	0xbdf9695b	-0.12178298
125	0x3dad59e9	0.084644146
126	0xbe349e38	-0.1763848
127	0x3e6c3f24	0.23070961
128	0x3e364cef	0.17802785
129	0x3d0b903e	0.034073107
130	0xba3f56dd	-0.00072990154
131	0xbe059807	-0.13046275
132	0xbdf98488	-0.121834815
133	0xbe17bbf5	-0.14817794
134	0x3c9b8948	0.01898636
135	0x3e6378ac	0.22214001
136	0xba5ed820	-0.0008500833
137	0xbdf99a0d	-0.12187586
138	0x3cc44f93	0.023963725
139	0xbe51a2e0	-0.20472288
140	0xbd602175	-0.054719407
141	0xbe3033ac	-0.17207211
142	0xbe542f74	-0.20721227
143	0xbdcba765	-0.09944037
144	0x3e32d7c9	0.17465128
145	0x3dcfeff7	0.101531915
146	0x3dd6c02d	0.10485873
147	0x3e29d6fa	0.16585913
148	0x3c612ea6	0.013744032
149	0xbd8f3a9b	-0.069936
150	0x3d58f4f1	0.05296797
151	0xbdd02105	-0.10162548
152	0x3d9f4ac1	0.0777793
153	0x3d5a1d71	0.053250734
154	0x3d673398	0.056445688
155	0xbe691289	-0.22760977
156	0xbcf4bd47	-0.02987541
157	0x3dc80885	0.0976725
158	0x3d0334d8	0.032032818
159	0x3d69ea6a	0.05710832
160	0xbdecee3d	-0.11568878
161	0x3d96ff60	0.07372928
162	0xbe074b12	-0.13212231
163	0xbdddc9a6	-0.10829477
164	0xbe035474	-0.12825185
165	0xbcf9873a	-0.030459989
166	0xbe82c9dc	-0.2554463
167	0x3dc79e39	0.097469755
168	0x3b9be1c3	0.0047571375
169	0xbe14d352	-0.14533737
170	0x3e3e7204	0.18598181
171	0xbd2dd894	-0.042442873
172	0x3c551fbe	0.013008056
173	0x3ddaa88a	0.106766775
174	0x3d72c6dd	0.059271682
175	0xbd5f881e	-0.05457317
176	0x3e5ef6bc	0.21773809
177	0xbe48ee18	-0.19622076
178	0x3c250bcf	0.010073616
179	0x3e06caae	0.13163254
180	0x3c6510bf	0.013981043
181	0x3cc7f330	0.024407953
182	0x3d1ab0a8	0.03776613
183	0xbe0087e4	-0.12551838
184	0xbe29b837	-0.16574179
185	0xbe0bbce9	-0.13646282
186	0x3e050d9c	0.12993473
187	0x3e1ac488	0.15114033
188	0xbd2490bd	-0.040177096
189	0x3dc47392	0.09592356
190	0x3ce2a8a5	0.027668307
191	0x3e25dc0f	0.16197227
192	0x3c52d3f1	0.012867914
193	0x3e359f03	0.1773644
194	0xbda21c6f	-0.079155795
195	0x3c9fdaab	0.019513449
196	0xbe053b24	-0.13010842
197	0xbe1d1c8a	-0.15342918
198	0xbcb4f6f3	-0.02209041
199	0xbe11e6d3	-0.14248209
200	0x3d030fa1	0.031997327
201	0x3de8c77f	0.11366176
202	0x3d5d1545	0.053975362
203	0xbe49be1b	-0.19701426
204	0x3d271639	0.040792678
205	0x3defb61a	0.11704655
206	0x3af534cb	0.001870775
207	0xbe7134ee	-0.23555347
208	0xbd84d621	-0.06486154
209	0x3d4f75b1	0.05064935
210	0xbe09b960	-0.13449621
211	0xbe452c80	-0.19255257
212	0x3e3b0440	0.1826334
213	0x3e0a5a0f	0.13510917
214	0x3caf5d40	0.02140677
215	0x3e52cd15	0.20586045
216	0xbe3ec0f2	-0.1862829
217	0x3d2e8a25	0.042612214
218	0xbe2e7645	-0.17037304
219	0xbcf2d0d3	-0.02964059
220	0x3e06dbd1	0.13169791
221	0xbe1568e8	-0.145908
222	0xbe42f915	-0.1904033
223	0x3c8ad6d4	0.016948141
224	0x3e3f3b3c	0.1867494
225	0xbda9875d	-0.082777716
226	0xbe69daee	-0.22837421
227	0x3e2f9dec	0.17150086
228	0x3e1a58c7	0.15072928
229	0xbde054b8	-0.10953659
230	0xbd8e70a8	-0.06955081
231	0x3cd30b94	0.025762357
232	0x3cbcf515	0.023066083
233	0xbe333430	-0.17500377
234	0xbd876fa7	-0.06613093
235	0x3dade2d8	0.08490533
236	0xbd23f300	-0.040026665
237	0x3e41adbe	0.18913934
238	0x3e038487	0.12843524
239	0x3c2e45ed	0.010636789
240	0x3d896f68	0.06710702
241	0xbe7bcffd	-0.2459106
242	0x3d791186	0.060807727
243	0xbbb8ab10	-0.0056356266
244	0xbe57896b	-0.21048515
245	0x3c4d083e	0.012514172
246	0xbd9ce216	-0.0766031
247	0xbe4dcdd2	-0.20098045
248	0xbbd5b960	-0.0065223426
249	0x3e6ef10f	0.23334144
250	0xbdf737b8	-0.120711744
251	0xbd8fda44	-0.07024053
252	0x3b943c4f	0.004523791
253	0xbdfa8026	-0.122314736
254	0x3da34cb7	0.079736166
255	0xbe54936e	-0.20759365

bn1.weight f4 [512]
0	0x3f5fbfe7	0.87402195
1	0x3f86c392	1.0528433
2	0x3f589109	0.84596306
3	0x3f5635f2	0.83676064
4	0x3f5a74ff	0.8533477
5	0x3f588534	0.8457825
6	0x3f8b509f	1.0883979
7	0x3f484bd5	0.7824071
8	0x3f5bd2c3	0.8586847
9	0x3f5b3e04	0.85641503
10	0x3f5d6246	0.8647808
11	0x3f59d049	0.8508344
12	0x3f62e4c9	0.8863035
13	0x3f892844	1.0715413
14	0x3f703247	0.9382672
15	0x3f5a652f	0.85310644
16	0x3f5c2a43	0.86001986
17	0x3f68a4d7	0.90876526
18	0x3f611c93	0.87934226
19	0x3f5ee3a6	0.87066114
20	0x3f5ec5e5	0.87020713
21	0x3f59aa64	0.8502562
22	0x3f508401	0.8145142
23	0x3f88af37	1.0678471
24	0x3f55225a	0.8325554
25	0x3f531396	0.8245176
26	0x3f579e25	0.84225684
27	0x3f605495	0.8762906
28	0x3f589e1a	0.84616244
29	0x3f5a19f2	0.8519584
30	0x3f667188	0.90016985
31	0x3f489f17	0.7836775
32	0x3f917c1e	1.1366003
33	0x3f528568	0.8223481
34	0x3f4be10d	0.79640275
35	0x3f4efc03	0.8085329
36	0x3f94b4e7	1.1617707
37	0x3f8a4030	1.0800838
38	0x3f5c4ae5	0.8605178
39	0x3f90e8be	1.1321027
40	0x3f8c3c69	1.0955936
41	0x3f494bc6	0.78631246
42	0x3f66577f	0.8997726
43	0x3f67d0c2	0.90552914
44	0x3f67c417	0.90533584
45	0x3f5ec107	0.87013286
46	0x3f8e9d74	1.1141801
47	0x3f572f98	0.84057
48	0x3f59b643	0.85043734
49	0x3f5b21dc	0.8559854
50	0x3f44303f	0.7663612
51	0x3f594785	0.84874755
52	0x3f775c51	0.9662524
53	0x3f596b10	0.8492899
54	0x3f54ea9a	0.83170474
55	0x3f658729	0.89659363
56	0x3f9fb63f	1.2477492
57	0x3f672341	0.9028817
58	0x3f60d696	0.8782743
59	0x3f925975	1.143355
60	0x3f86513f	1.0493544
61	0x3f5fb85c	0.87390685
62	0x3f78e2fd	0.97221357
63	0x3f88ba21	1.0681802
64	0x3f6d6c81	0.9274369
65	0x3f5a3fb0	0.8525343
66	0x3f5b0fa4	0.8557074
67	0x3f53ec9c	0.8278291
68	0x3f5b5ea2	0.85691273
69	0x3f4e664b	0.80624837
70	0x3f500d56	0.8127035
71	0x3f67e373	0.90581435
72	0x3f626e45	0.8844951
73	0x3f5e3d5f	0.86812395
74	0x3f737027	0.95093006
75	0x3f620b66	0.8829864
76	0x3f555f04	0.8334811
77	0x3f644c5a	0.89179003
78	0x3f4c2b47	0.79753536
79	0x3f617e59	0.88083416
80	0x3f612e00	0.87960815
81	0x3f658baf	0.89666265
82	0x3f5b6a1d	0.8570879
83	0x3f7ad62b	0.97983044
84	0x3f5c029f	0.859415
85	0x3f64d1b8	0.89382505
86	0x3f9228a2	1.141865
87	0x3f688580	0.90828705
88	0x3f546794	0.8297055
89	0x3f66dd31	0.9018126
90	0x3f52cb4e	0.8234147
91	0x3f8cd124	1.1001325
92	0x3f5bdd7f	0.8588485
93	0x3f5d4261	0.8642941
94	0x3f551c29	0.83246094
95	0x3f57afe7	0.8425278
96	0x3f64612d	0.8921078
97	0x3f874902	1.0569155
98	0x3f5c1846	0.8597454
99	0x3f6064bd	0.87653714
100	0x3f4df9a7	0.80459064
101	0x3f5be547	0.85896724
102	0x3f58730d	0.84550554
103	0x3f5bf255	0.85916644
104	0x3f677fd5	0.9042943
105	0x3f7b11f7	0.9807429
106	0x3f628c6c	0.88495517
107	0x3f57d4f4	0.84309316
108	0x3f70644c	0.9390304
109	0x3f4d9a6a	0.8031374
110	0x3f657aef	0.89640707
111	0x3f534002	0.82519543
112	0x3f581b10	0.84416294
113	0x3f5efc8d	0.8710411
114	0x3f51d4f3	0.8196556
115	0x3f5c5719	0.860704
116	0x3f58f72b	0.8475215
117	0x3f59c691	0.85068613
118	0x3f52d5dc	0.82357574
119	0x3f893534	1.0719361
120	0x3f559f76	0.83446443
121	0x3f50f04e	0.81616676
122	0x3f83ce78	1.0297384
123	0x3f5a89f4	0.8536675
124	0x3f5573c8	0.83379793
125	0x3f78e491	0.97223765
126	0x3f54aaf1	0.83073336
127	0x3f584447	0.8447918
128	0x3f71879a	0.94347537
129	0x3f688c8c	0.9083946
130	0x3f5bfb7f	0.8593063
131	0x3f552a1f	0.83267397
132	0x3f5b0d75	0.8556741
133	0x3f6dee12	0.9294139
134	0x3f636fe7	0.88842624
135	0x3f553804	0.832886
136	0x3f4ed38a	0.80791533
137	0x3f65896d	0.8966282
138	0x3f549ffa	0.83056605
139	0x3f6ae3da	0.91753924
140	0x3f531796	0.82457864
141	0x3f7a0e26	0.9767784
142	0x3f5f0614	0.8711865
143	0x3f614d20	0.8800831
144	0x3f67de19	0.9057327
145	0x3f50e726	0.81602705
146	0x3f5f2ed1	0.8718081
147	0x3f5e40da	0.86817706
148	0x3f922451	1.1417333
149	0x3f68ada1	0.90889937
150	0x3f5f1747	0.87144893
151	0x3f8cfb30	1.1014156
152	0x3f53651c	0.82576156
153	0x3f5c52e0	0.8606396
154	0x3f6172b4	0.8806565
155	0x3f65a4a2	0.89704335
156	0x3f791306	0.9729465
157	0x3f7b43be	0.9815024
158	0x3f5b4bb0	0.85662365
159	0x3f4b354a	0.7937819
160	0x3f697c32	0.9120513
161	0x3f844149	1.0332423
162	0x3f8178d4	1.0114999
163	0x3f702d0b	0.9381873
164	0x3f5c98bd	0.8617056
165	0x3f495170	0.7863989
166	0x3f81317c	1.0093226
167	0x3f692b68	0.9108186
168	0x3f69d447	0.91339535
169	0x3f85b09b	1.0444521
170	0x3f5a0673	0.8516609
171	0x3f55af7b	0.83470887
172	0x3f551f75	0.83251125
173	0x3f4706f3	0.7774498
174	0x3f82b53e	1.0211561
175	0x3f538ed3	0.8263981
176	0x3f580106	0.8437656
177	0x3f5b08a5	0.85560066
178	0x3f7773af	0.96660894
179	0x3f5e6242	0.8686868
180	0x3f8c5255	1.0962626
181	0x3f4ffc94	0.8124478
182	0x3f62622e	0.8843106
183	0x3f573305	0.84062225
184	0x3f53b7b3	0.8270218
185	0x3f5e5677	0.86850685
186	0x3f5e130c	0.86747813
187	0x3f52260c	0.82089305
188	0x3f5ae235	0.85501415
189	0x3f8a83ee	1.0821512
190	0x3f625201	0.8840638
191	0x3f62e41a	0.88629305
192	0x3f5d4dee	0.86447036
193	0x3f5543dc	0.8330667
194	0x3f5aa2de	0.85404766
195	0x3f5e7c03	0.86907977
196	0x3f5e4e23	0.8683798
197	0x3f80b6fd	1.0055844
198	0x3f51adcf	0.81905836
199	0x3f65eee7	0.8981766
200	0x3f5893c1	0.84600455
201	0x3f56b5b5	0.8387101
202	0x3f5b80cc	0.85743403
203	0x3f5bdf22	0.8588735
204	0x3f721e2a	0.94577277
205	0x3f603a73	0.87589186
206	0x3f594d75	0.84883815
207	0x3f595a16	0.84903085
208	0x3f565494	0.83722806
209	0x3f903ab7	1.1267918
210	0x3f66f62a	0.90219367
211	0x3f4e42fd	0.80570966
212	0x3f53ff8c	0.8281181
213	0x3f5c6008	0.8608403
214	0x3f602303	0.87553424
215	0x3f895207	1.0728158
216	0x3f59ba4c	0.8504989
217	0x3f8bd4de	1.0924337
218	0x3f58e09e	0.8471774
219	0x3f8253d2	1.018183
220	0x3f65408d	0.8955162
221	0x3f5e1394	0.86748624
222	0x3f4ed76a	0.80797446
223	0x3f561392	0.8362361
224	0x3f6a0d41	0.91426474
225	0x3f5b1899	0.8558441
226	0x3f539525	0.8264945
227	0x3f5a9e9b	0.8539826
228	0x3f553b62	0.83293736
229	0x3f4fd4da	0.8118416
230	0x3f53a994	0.8268063
231	0x3f5763e9	0.84136826
232	0x3f5baf47	0.85814327
233	0x3f6015d8	0.8753333
234	0x3f618780	0.8809738
235	0x3f58c728	0.8467889
236	0x3f604d58	0.8761802
237	0x3f6099c4	0.8773463
238	0x3f5783a8	0.84185266
239	0x3f5031fa	0.8132626
240	0x3f85000f	1.0390643
241	0x3f9d753b	1.2301401
242	0x3f6c15be	0.92220676
243	0x3f773c40	0.9657631
244	0x3f5fb552	0.8738605
245	0x3fb182e3	1.3868068
246	0x3f5a5b07	0.85295147
247	0x3f580a47	0.8439068
248	0x3f5686a9	0.83799225
249	0x3f5e96e8	0.86949015
250	0x3f5c9652	0.8616687
251	0x3f5758af	0.84119695
252	0x3f61cfea	0.88207877
253	0x3f69b93f	0.9129829
254	0x3f5b40c1	0.8564568
255	0x3f583c9d	0.8446749

bn1.bias f4 [512]
0	0x3cb83d4e	0.02249017
1	0x3e60774c	0.21920508
2	0xbd5fc64a	-0.054632463
3	0x3c970aa6	0.018437695
4	0x3e56d50d	0.2097971
5	0xbe277fb7	-0.16357313
6	0x3d4f2d3c	0.05058025
7	0xbd692557	-0.056920376
8	0xbe500cd9	-0.20317401
9	0xbdba8ddc	-0.09109089
10	0xbe0990b4	-0.13434106
11	0x3d2ec491	0.04266793
12	0x3d6ca6b9	0.057776187
13	0x3e226638	0.15859306
14	0x3ec108d4	0.37702048
15	0x3d4d5583	0.05013038
16	0x3daa1d0f	0.08306324
17	0x3e9167f4	0.28399622
18	0xbe86f8bc	-0.26361644
19	0xbe7812fd	-0.24225993
20	0xbe4f0fcc	-0.2022087
21	0xbeb3c061	-0.3510771
22	0xbe10d395	-0.14143212
23	0x3e081ae2	0.13291505
24	0xbd401e9d	-0.046904195
25	0xbefab588	-0.48966622
26	0xbeb6f331	-0.35732415
27	0xbd92d335	-0.07169191
28	0xbdc90f35	-0.09817354
29	0x3e8213d4	0.25405753
30	0x3e19ba2e	0.15012428
31	0xbcc3bf8e	-0.023895051
32	0xbde0466c	-0.10950932
33	0xbd7bbabd	-0.061457384
34	0xbd94b943	-0.07261898
35	0x3e892268	0.26784062
36	0x3e53a12c	0.20666951
37	0xbc769e83	-0.015052441
38	0xbb85a76d	-0.0040787966
39	0xbe081724	-0.13290077
40	0x3dd3c68d	0.10340605
41	0xbe0077ca	-0.12545696
42	0x3e216091	0.15759493
43	0x3ebbb742	0.36663252
44	0x3e147afe	0.14500043
45	0xbe5dab0e	-0.21647283
46	0xbdd46c9f	-0.1037228
47	0x3d9ebe0c	0.07751092
48	0x3e7ddd0c	0.24791354
49	0xbd1087af	-0.035285648
50	0x3d06c01a	0.032898046
51	0xbd05bd1d	-0.032651056
52	0x3d403a8a	0.046930827
53	0x3e9ad012	0.3023687
54	0x3d8d3c86	0.068963096
55	0x3ea73dee	0.32664436
56	0x3e217ad0	0.15769506
57	0x3dd9d355	0.106360115
58	0x3e955543	0.29166612
59	0x3dc3b03e	0.095551
60	0xbdcc7c29	-0.09984619
61	0x3e579cde	0.21055934
62	0x3ea9a3f5	0.33132902
63	0x3eab96ba	0.33513433
64	0xbd991b6f	-0.07475936
65	0x3e6d0f65	0.23150404
66	0xbe058eec	-0.13042802
67	0xbdca9526	-0.09891729
68	0x3dec6a61	0.11543728
69	0x3df183b9	0.11792702
70	0x3d1a26c6	0.037634633
71	0x3da80746	0.08204512
72	0x3dff33d9	0.12461061
73	0x3cc8f9fa	0.02453326
74	0x3e9ca396	0.30593556
75	0xbd1ffa3a	-0.039056994
76	0xbd181292	-0.037127085
77	0x3e8bc216	0.27296513
78	0xbe28f639	-0.16500176
79	0xbddd9a84	-0.10820487
80	0x3e572b02	0.210125
81	0xbdc08712	-0.094007626
82	0xbe086701	-0.13320543
83	0x3ec68247	0.3877127
84	0x3e2cf405	0.16889961
85	0x3bcea257	0.0063059735
86	0x3ddac49f	0.10682034
87	0x3e96f3bb	0.29482827
88	0xbd98bf57	-0.0745837
89	0x3e835201	0.25648502
90	0xbe5c67f0	-0.21524024
91	0x3e55732d	0.20844717
92	0x3e4d75d7	0.20064484
93	0x3da8b270	0.08237159
94	0xbdd97e9f	-0.10619854
95	0xbd9173e4	-0.071021825
96	0x3e33eaf8	0.17570102
97	0x3e809c4f	0.25119254
98	0xbda0d0d9	-0.078523345
99	0x3e313206	0.17304239
100	0xbd461203	-0.04835702
101	0x3ebcb3dc	0.36855972
102	0x3dbe8784	0.09303191
103	0xbe9fbe3e	-0.3119983
104	0xbea17d61	-0.3154097
105	0xbd8e686f	-0.06953513
106	0x3d10b959	0.03533301
107	0xbec59544	-0.38590443
108	0xbd61f1a6	-0.055162095
109	0xbe12b2b6	-0.14325985
110	0xbd2e4865	-0.04254951
111	0xbdc1e130	-0.09466779
112	0xbe54ff03	-0.20800404
113	0x3eac1826	0.33612174
114	0xbe21583e	-0.15756318
115	0x3e89102e	0.26770157
116	0x3d34e901	0.044167522
117	0x3db15f21	0.086607225
118	0x3e4e99da	0.20175877
119	0x3e1bd0f7	0.15216433
120	0xbc890fdb	-0.016731193
121	0xbe5430cd	-0.20721741
122	0x3e1364fb	0.1439399
123	0x3c56e499	0.013116025
124	0xbc302811	-0.01075174
125	0x3e134932	0.1438339
126	0xbe8451a5	-0.2584354
127	0xbce13a40	-0.027493596
128	0x3e63b16c	0.2223565
129	0xbe31f4ba	-0.17378512
130	0xbe4ac5c9	-0.19802012
131	0x3eb5df5f	0.3552198
132	0x3d82626e	0.0636643
133	0x3ec00bcb	0.37508997
134	0xbdde5554	-0.10856119
135	0xbe8a4f5c	-0.2701367
136	0xbebea02f	-0.37231585
137	0x3e44a494	0.19203407
138	0x3d88c7cc	0.06678733
139	0xbdc86139	-0.09784169
140	0x3d9a6542	0.07538845
141	0x3ec1d90f	0.37860915
142	0x3e8f9c41	0.280489
143	0x3b97c6cb	0.0046318523
144	0xbdc05bb0	-0.09392488
145	0xbe72a5cc	-0.23696059
146	0x3dbe4176	0.092898294
147	0x3e980d38	0.29697585
148	0x3db385da	0.087657645
149	0x3e4d9f26	0.20080242
150	0x3e9eac01	0.30990604
151	0x3dcfe69a	0.10151406
152	0x3e1dba29	0.15403046
153	0x3e0b52e6	0.13605842
154	0x3db8704c	0.09005794
155	0xbe7c5996	-0.2464355
156	0x3d7c6084	0.061615482
157	0xbcedda0b	-0.029034635
158	0x3db32c1b	0.08748647
159	0xbdf92d77	-0.12166875
160	0x3e81d45d	0.25357333
161	0xb83a7438	-4.4454093e-05
162	0x3dedaea8	0.11605579
163	0x3e478659	0.19484843
164	0x3dda995c	0.10673782
165	0x3c9b74e0	0.018976629
166	0x3dcf53e0	0.1012342
167	0xbe164247	-0.1467372
168	0x3e30cfd7	0.17266785
169	0x3df59e72	0.11993112
170	0xbe458565	-0.19289167
171	0xbdb6596a	-0.08903773
172	0x3d200d17	0.039074983
173	0x3ed3a90e	0.41339916
174	0x3dcac6a1	0.09901167
175	0x3e2b0e8d	0.1670477
176	0x3e54897d	0.20755573
177	0x3ea5fb8a	0.32418472
178	0x3e4309da	0.19046727
179	0xbe58619b	-0.21130984
180	0x3e2893c8	0.16462624
181	0xbe81744c	-0.2528404
182	0x3d9a0ec0	0.075223446
183	0xbdae092b	-0.084978424
184	0x3c8c839c	0.0171526
185	0x3e36c9ad	0.1785037
186	0x3e9ed067	0.31018373
187	0x3cd6af5a	0.026206661
188	0xbe5d98e6	-0.21640357
189	0x3e5691ea	0.209541
190	0x3d618420	0.055057645
191	0x3e1efe96	0.15526804
192	0x3e9caa40	0.3059864
193	0xbd6bf90d	-0.05761056
194	0x3e1be854	0.15225345
195	0x3e5b3761	0.21407844
196	0x3e2a0366	0.16602859
197	0xbddea17c	-0.108706445
198	0xbafd7dac	-0.0019339821
199	0x3d4f4c5b	0.050609928
200	0xbdf21d60	-0.11822009
201	0xbc4278ad	-0.011869592
202	0xbe85da53	-0.2614313
203	0xbe7539e7	-0.23947869
204	0xbd382963	-0.044961344
205	0xbdde44fa	-0.10853
206	0xbe109cea	-0.14122358
207	0x3cde267a	0.027117956
208	0xbdec7c36	-0.11547129
209	0x3d80ce04	0.06289294
210	0x3e56ceef	0.20977376
211	0x3db55029	0.0885318
212	0xbd01711c	-0.03160201
213	0x3dc7bc26	0.09752683
214	0x3d6b348f	0.05742317
215	0x3dc6c9f4	0.09706488
216	0xbd158e6d	-0.03651278
217	0x3db741e2	0.08948113
218	0x3d2b8ebe	0.041884176
219	0x3d9f0e0d	0.07766352
220	0xbd6db112	-0.058030196
221	0x3e6e3dbc	0.23265737
222	0xbccf9a24	-0.025342055
223	0xbea21534	-0.31656802
224	0x3e0b86fc	0.13625711
225	0xbd86ba65	-0.06578521
226	0xbc0154ef	-0.007893785
227	0x3e3406e1	0.17580749
228	0xbd06017a	-0.032716252
229	0xbd8fe6e8	-0.07026464
230	0xbdbd0ca6	-0.09230928
231	0x3e84e7be	0.25958055
232	0x3e0245ce	0.12721941
233	0xbd3a229c	-0.045443162
234	0x3e0918c3	0.13388352
235	0x3d9ee0e8	0.07757741
236	0x3e8e0166	0.27735442
237	0x3cebcd0b	0.028784296
238	0xbd6eb4da	-0.058277942
239	0xbdb3b35a	-0.08774443
240	0x3a265e4e	0.000634645
241	0x3e17b984	0.14816862
242	0xbe500762	-0.20315316
243	0xbdc91b66	-0.09819679
244	0xbe3a3c21	-0.18187
245	0xbc759abd	-0.014990506
246	0x3ddc1152	0.10745491
247	0xbc54d265	-0.012989615
248	0xbdb3fd9a	-0.08788605
249	0x3e2dee87	0.16985522
250	0xbe246e28	-0.16057646
251	0x3dfe7079	0.12423796
252	0xbeb2d813	-0.34930477
253	0x3d278c16	0.04090508
254	0xb8e17724	-0.00010751028
255	0x3e869dae	0.26292175

bn1.running_mean f4 [512]
0	0x3f979eb2	1.1845305
1	0x3e5341d1	0.20630576
2	0x3ea76d3f	0.32700536
3	0x3f41feb9	0.757793
4	0x3f0bb9d0	0.545804
5	0x3fdee5ea	1.7413914
6	0x3f7afda9	0.98043305
7	0x3f39efcc	0.72631526
8	0x3fab8ee3	1.340298
9	0x3fbf8fb3	1.4965729
10	0x3f914f11	1.1352254
11	0x3f73aa1d	0.9518145
12	0x3fec8566	1.847821
13	0x40094503	2.1448371
14	0x3e66a7e4	0.22524983
15	0x3fb1623d	1.3858105
16	0x3eb4129b	0.35170445
17	0x3f25f9f6	0.64834535
18	0x3e44e95a	0.19229642
19	0x3f1a1462	0.6018735
20	0x3f816cfe	1.0111387
21	0x3e38389b	0.17990343
22	0x4015a854	2.338399
23	0x3fbd025d	1.4766346
24	0x3f91916a	1.1372502
25	0x3f58eb02	0.84733593
26	0x3fa126b7	1.258994
27	0x3ea0c35a	0.3139904
28	0x3f0c1e13	0.5473339
29	0x3ecfa2cd	0.40553895
30	0x3ed9b2b0	0.4251914
31	0x3f80f81d	1.0075718
32	0x4010e533	2.2639892
33	0x40207d21	2.5076373
34	0x3f1af692	0.60532486
35	0x3f79f9f8	0.9764705
36	0x3e529380	0.2056408
37	0x3ff24af2	1.8929121
38	0x3ecd9c63	0.40158376
39	0x3fc3df86	1.5302589
40	0x40132001	2.2988284
41	0x3f0af1d1	0.5427523
42	0x3f842e77	1.032668
43	0x3fb2dfdd	1.3974568
44	0x3e479007	0.19488536
45	0x4027c230	2.6212273
46	0x3f8908dc	1.0705829
47	0x3f443163	0.7663786
48	0x3ea1edb2	0.3162666
49	0x40184454	2.3791704
50	0x3ed34cb6	0.41269463
51	0x400abc5c	2.1677465
52	0x3debe878	0.11518949
53	0x3fd72adc	1.6809955
54	0x3fc7caf1	1.5608808
55	0x3f077a41	0.5292092
56	0x3e0da4aa	0.13832346
57	0x3fa14683	1.2599643
58	0x3fb9b1cb	1.4507383
59	0x3eab5823	0.3346568
60	0x401361fe	2.302856
61	0x3fda7683	1.7067417
62	0x3e1c8268	0.15284121
63	0x3f41a60e	0.75644004
64	0x3fbd6a8c	1.479814
65	0x3ef36e05	0.47544876
66	0x3f88a06f	1.067396
67	0x3f5d7e3f	0.8652076
68	0x3eeb5ad3	0.4596773
69	0x3f83466a	1.0255864
70	0x3fd03da2	1.6268809
71	0x3f5c277d	0.85997754
72	0x3f8564d3	1.0421394
73	0x3f1954ed	0.5989521
74	0x3d9631dc	0.07333729
75	0x3f3b1b29	0.7308832
76	0x3ff8cdf9	1.9437858
77	0x3f4d3318	0.8015609
78	0x3f54615f	0.82961076
79	0x3f6eb9e9	0.93252426
80	0x3d8ee186	0.06976609
81	0x3f0d5621	0.5520955
82	0x3fada4ad	1.356588
83	0x00000004	6e-45
84	0x3f04d83c	0.5189245
85	0x3ebbcb65	0.36678615
86	0x3e44c948	0.19217408
87	0x3e822d05	0.25424972
88	0x3f889a9d	1.0672184
89	0x3f2b07de	0.6680888
90	0x3e7d36cf	0.24727939
91	0x3e52c947	0.20584594
92	0x3ee91ce1	0.45529845
93	0x3f214bb3	0.6300613
94	0x3f99a171	1.2002393
95	0x3f3dd1c2	0.7414819
96	0x3e9212de	0.2853002
97	0x3fa5638f	1.2921008
98	0x3fd8c5bf	1.6935347
99	0x3f0c5419	0.5481582
100	0x3d45c444	0.048282877
101	0x3f11f05b	0.5700738
102	0x3e204518	0.15651357
103	0x3f8050a4	1.002461
104	0x3f1a7087	0.60327953
105	0x3f8d2db3	1.1029571
106	0x3f5ac130	0.8545103
107	0x3f908755	1.12913
108	0x3d922304	0.07135585
109	0x3fdd4bc9	1.7288753
110	0x3ec98774	0.39361155
111	0x3f3d0143	0.7383005
112	0x3fe99623	1.8248943
113	0x3e6041c7	0.21900092
114	0x3f83ef3d	1.0307385
115	0x3f3ccf77	0.73754066
116	0x3f8e7d27	1.1131943
117	0x3f004de6	0.50118864
118	0x3f556476	0.83356416
119	0x3d2f292e	0.04276388
120	0x3f0a687d	0.54065686
121	0x3f9daa47	1.231759
122	0x3e56c4d9	0.20973529
123	0x3f566ad5	0.8375676
124	0x3f23ac75	0.63935024
125	0x3ec039c6	0.37544078
126	0x3f42bd1f	0.76069826
127	0x3e14520f	0.14484428
128	0x3df2a950	0.118487
129	0x3e28ff8e	0.16503736
130	0x3ece98db	0.40350994
131	0x3ec95b28	0.3932736
132	0x3f46daea	0.77677786
133	0x3ee78f06	0.45226306
134	0x3ed8493a	0.42243367
135	0x3fe29bdd	1.7703816
136	0x3fc6f59f	1.5543708
137	0x400934a7	2.1438386
138	0x3f5f1515	0.87141544
139	0x3d8c48f1	0.0684985
140	0x3f907bf1	1.1287824
141	0x00000004	6e-45
142	0x3edf85ac	0.4365667
143	0x3fce82ad	1.6133629
144	0x3e06781a	0.13131753
145	0x3f8f8d9b	1.121509
146	0x3ee489fd	0.44636527
147	0x3f0ebf46	0.5576061
148	0x3e5cc5bd	0.21559806
149	0x3dfa5242	0.12222721
150	0x3f340982	0.7032701
151	0x4007940e	2.1184115
152	0x3f0824f8	0.5318141
153	0x3e54ed2a	0.20793596
154	0x3e462210	0.19348931
155	0x3d874506	0.06604962
156	0x3d2906db	0.041266304
157	0x3f919647	1.1373986
158	0x3eb12ba4	0.34603608
159	0x3fdc6582	1.7218478
160	0x3e5ccce6	0.21562538
161	0x3ed039f9	0.4066923
162	0x3ec4cf1d	0.38439265
163	0x3e03d46b	0.12874
164	0x3f281101	0.65650946
165	0x3f99b820	1.2009315
166	0x3dd957ef	0.10612475
167	0x3fb49f25	1.4111067
168	0x3e8f38a8	0.27972913
169	0x3f9cd302	1.2251894
170	0x3f90ac7f	1.1302642
171	0x3fa56f1d	1.2924534
172	0x3f49f3da	0.7888771
173	0x39b88346	0.0003519302
174	0x3ff552e9	1.9165927
175	0x3f16caaf	0.5890302
176	0x3fc87cae	1.5663049
177	0x3f910a47	1.1331261
178	0x3f52b4be	0.8230704
179	0x3f8ed8ae	1.1159875
180	0x4008415f	2.12899
181	0x3f0211f5	0.5080865
182	0x3f874ba8	1.0569963
183	0x3fe96b88	1.8235941
184	0x3fa62a5c	1.2981677
185	0x3f668a1e	0.900545
186	0x3f84cd1f	1.0375098
187	0x40068abb	2.1022174
188	0x3fc3ac03	1.5286869
189	0x3d2765f2	0.040868707
190	0x3fffa0bd	1.9970928
191	0x3f89b067	1.0756959
192	0x3e94c20a	0.2905429
193	0x3d77e11e	0.060517423
194	0x3eee14b8	0.46500182
195	0x3e0fb2b4	0.14033014
196	0x3f7ca98d	0.98696214
197	0x3fe298d9	1.7702895
198	0x3f637f3f	0.8886604
199	0x3ee15843	0.4401265
200	0x3f5a9c41	0.85394675
201	0x3f56e77f	0.83946985
202	0x3f9a78c5	1.2068106
203	0x3f084523	0.53230494
204	0x3f1e8542	0.61922085
205	0x3f431103	0.7619783
206	0x3e8c2ff3	0.27380332
207	0x3da35391	0.079749234
208	0x3eb0d6f2	0.3453899
209	0x3ee62300	0.44948578
210	0x3f6cacc4	0.9245112
211	0x3f346d69	0.70479447
212	0x3f8bcd23	1.0921978
213	0x3f5b5d3b	0.85689133
214	0x3e8ef3d9	0.27920416
215	0x40063b45	2.0973675
216	0x3fa19cb4	1.2625947
217	0x3ff54d32	1.9164183
218	0x3ee471f7	0.44618198
219	0x3fac071e	1.3439672
220	0x400a6c07	2.1628435
221	0x3f93e72a	1.1554921
222	0x3f0ab956	0.5418905
223	0x3dc1eb2c	0.094686836
224	0x3e92ae30	0.2864852
225	0x3f82b078	1.0210104
226	0x3f4128f5	0.7545312
227	0x3fd98d5b	1.6996263
228	0x3f984b4a	1.1897976
229	0x3f638c2c	0.8888576
230	0x3f460d28	0.77363825
231	0x3f346857	0.7047171
232	0x3f7211bc	0.9455831
233	0x3f4d2fe3	0.80151194
234	0x3f51cb34	0.8195069
235	0x3f87a5bc	1.0597453
236	0x3f182786	0.5943531
237	0x3f303b9b	0.6884095
238	0x3f0f5706	0.5599216
239	0x3f1447fc	0.5792234
240	0x3d4806a9	0.048834477
241	0x3bb49d76	0.005511935
242	0x3fd8b311	1.6929647
243	0x3de0cf6a	0.10977061
244	0x3edc12e9	0.42983177
245	0x3e071efe	0.13195416
246	0x3f49bc72	0.7880317
247	0x3ec53bcb	0.3852218
248	0x3ee8858c	0.45414388
249	0x3e81a377	0.25320026
250	0x3f6d8747	0.9278454
251	0x3eebab13	0.46028957
252	0x3f4b811d	0.79493886
253	0x3dd37881	0.10325719
254	0x3ec9566e	0.39323753
255	0x3fd02a89	1.6262981

bn1.running_var f4 [512]
0	0x3fd8601b	1.6904329
1	0x3e3d22f4	0.18470365
2	0x3f0096e8	0.50230265
3	0x40254484	2.5823069
4	0x3f4d0be2	0.80096257
5	0x406fbaa4	3.7457666
6	0x3fc214dc	1.5162616
7	0x3ff4754c	1.9098296
8	0x404f57bc	3.23973
9	0x403a99bc	2.9156332
10	0x3f974fb5	1.18212
11	0x3f3d28ca	0.73890364
12	0x3fbb2ed3	1.4623665
13	0x40d9d946	6.8077726
14	0x3e638a61	0.22220756
15	0x3faa2503	1.3292545
16	0x3f01df74	0.5073159
17	0x3fd47f30	1.6601315
18	0x3e7378d7	0.23776565
19	0x3fc49493	1.5357841
20	0x3f1a3dc0	0.60250473
21	0x3e76fdda	0.24120274
22	0x40bc7282	5.888978
23	0x40761e0c	3.845584
24	0x40543439	3.3156874
25	0x40292a53	2.6432083
26	0x401154de	2.270805
27	0x3f192336	0.5981935
28	0x3fb8c454	1.4434915
29	0x3f3be650	0.73398304
30	0x3f5adf80	0.85497284
31	0x3fc4fd10	1.5389729
32	0x410815ed	8.505353
33	0x4030fce5	2.7654355
34	0x3f8c5d7c	1.0966029
35	0x3fae34c2	1.360985
36	0x3ddaa4a0	0.10675931
37	0x40c309f0	6.094963
38	0x3f372989	0.7154775
39	0x40680ac6	3.6256576
40	0x4103b940	8.232727
41	0x3f54b6ea	0.83091605
42	0x3fc51732	1.5397704
43	0x4086c29f	4.2112575
44	0x3e96843d	0.29397765
45	0x4039af0e	2.9013095
46	0x3ffff953	1.9997963
47	0x3f84e451	1.0382177
48	0x3eb7af29	0.35875824
49	0x401b44e0	2.4260788
50	0x3f2edc40	0.68304825
51	0x40c63f31	6.195214
52	0x3e32f3ac	0.17475766
53	0x40b5e6f2	5.6844416
54	0x406a823e	3.6641994
55	0x3f597d7f	0.84957117
56	0x3dd90bb5	0.10597936
57	0x3f8ac459	1.084117
58	0x3fe5a8e2	1.7942164
59	0x3e26ef86	0.16302308
60	0x410a5e75	8.648061
61	0x40275888	2.6147785
62	0x3e7273d0	0.23676991
63	0x3df91c30	0.121635795
64	0x3fdf0736	1.7424076
65	0x3f736faa	0.9509226
66	0x40105863	2.2553947
67	0x3ffbb8e6	1.9665802
68	0x3f39cac0	0.72574997
69	0x4001d86e	2.0288348
70	0x40267a1f	2.6012037
71	0x3f646b04	0.8922579
72	0x404bf9a5	3.187112
73	0x3f7bbfba	0.98339427
74	0x3d6e4bef	0.058177885
75	0x3fab0008	1.3359385
76	0x404e9417	3.2277887
77	0x3f98fa28	1.1951342
78	0x3ffe123a	1.9849312
79	0x3fde3dde	1.736263
80	0x3d9d0ac1	0.07668067
81	0x3f86f979	1.0544883
82	0x401ae164	2.4200068
83	0x00000004	6e-45
84	0x3f8bdd45	1.0926901
85	0x3efe2b36	0.49642342
86	0x3d88fc2e	0.066887245
87	0x3e7551ba	0.23956957
88	0x400ba220	2.1817703
89	0x3f8519ef	1.0398539
90	0x3eb52b94	0.3538481
91	0x3e0b90b6	0.13629422
92	0x3f576975	0.8414529
93	0x3ff7cf8a	1.9360211
94	0x4035172d	2.8295395
95	0x3f9fd062	1.2485468
96	0x3f1b0803	0.605591
97	0x4039c485	2.9026196
98	0x401bce43	2.4344642
99	0x3f6a9e9b	0.9164826
100	0x3d55839d	0.05212747
101	0x3f867a07	1.050599
102	0x3e5bd03a	0.21466151
103	0x3f149ec5	0.58054763
104	0x3f6bd0d8	0.92115545
105	0x3ff26a68	1.8938723
106	0x3fd9dcf7	1.7020558
107	0x409ffe8d	4.999823
108	0x3d8d0970	0.06886566
109	0x3ff22325	1.8916975
110	0x3f15115e	0.58229625
111	0x3fc2ed5b	1.5228685
112	0x407a73f1	3.9133265
113	0x3e7a2156	0.24426779
114	0x3fee8eb4	1.86373
115	0x3fe293d8	1.7701368
116	0x3fe35d52	1.7762854
117	0x3fb7d1c0	1.4360886
118	0x3f85a5a0	1.044117
119	0x3ce2f154	0.027702965
120	0x3f65b6db	0.8973214
121	0x3fa63635	1.2985293
122	0x3ea0cc56	0.31405896
123	0x40020dbd	2.0320885
124	0x3f3a0594	0.7266476
125	0x3f2671e7	0.6501755
126	0x3fe30ee3	1.7738918
127	0x3e16eab6	0.14737973
128	0x3dbd3a01	0.09239579
129	0x3dc20bb1	0.09474886
130	0x3f48443d	0.78229123
131	0x3f4ae32a	0.79252875
132	0x40241993	2.564061
133	0x3f176f63	0.5915434
134	0x3f3cd499	0.737619
135	0x3ffe1d0b	1.9852613
136	0x402e615e	2.7246928
137	0x3fd00cd5	1.6253916
138	0x3fc7001a	1.5546906
139	0x3d1e6273	0.038668107
140	0x40339c91	2.806431
141	0x00000004	6e-45
142	0x3ecd6729	0.40117767
143	0x405e99e8	3.4781437
144	0x3e067b37	0.1313294
145	0x3fdfe752	1.7492468
146	0x3f50f6b1	0.8162642
147	0x3fc10b7c	1.508163
148	0x3d8e2d1a	0.06942196
149	0x3e1ad3d1	0.15119864
150	0x3fa1e38f	1.264757
151	0x40d9eac3	6.8099074
152	0x3f8db6ef	1.1071452
153	0x3e854275	0.26027265
154	0x3e86d517	0.2633445
155	0x3d981f27	0.07427817
156	0x3d054d06	0.03254416
157	0x40059303	2.087098
158	0x3ebc4b30	0.36776114
159	0x408be316	4.3714705
160	0x3ea21b15	0.31661287
161	0x3e5b629b	0.21424334
162	0x3e81b283	0.25331506
163	0x3de16e03	0.11007311
164	0x3f5e1638	0.86752653
165	0x400e662d	2.2249863
166	0x3daed8ea	0.08537467
167	0x3f95f58d	1.1715561
168	0x3ec29ece	0.38011783
169	0x40204660	2.5042953
170	0x408b2a4a	4.3489122
171	0x408f8d97	4.486034
172	0x3fa7e21c	1.3115878
173	0x3926271f	0.00015845567
174	0x3ff36f9c	1.9018435
175	0x3f8224a4	1.0167432
176	0x402a3bae	2.6598926
177	0x4041cae7	3.0280092
178	0x3f4583fa	0.77154505
179	0x403f7b84	2.9919138
180	0x40d6da50	6.7141495
181	0x3f848bce	1.0355165
182	0x3fc1107d	1.5083157
183	0x40725d31	3.786938
184	0x3fb24144	1.3926167
185	0x40199f25	2.4003384
186	0x400f13c3	2.2355812
187	0x4069f99f	3.6558607
188	0x3fd80da3	1.6879162
189	0x3ce76ad3	0.02824918
190	0x3f45a0ca	0.7719847
191	0x3fc8ab32	1.5677245
192	0x3f017a73	0.5057747
193	0x3d9cba82	0.07652761
194	0x3f09e101	0.53858954
195	0x3e83b356	0.2572276
196	0x405b5fbe	3.4277186
197	0x409adec0	4.839691
198	0x403630bc	2.8467245
199	0x3f3ba4d4	0.7329838
200	0x400c68f6	2.1939063
201	0x40097163	2.1475456
202	0x4018310c	2.3779936
203	0x3f858555	1.0431315
204	0x3f216a2f	0.6305265
205	0x3f906ac2	1.128258
206	0x3f0f49f4	0.5597222
207	0x3df7ab7c	0.12093255
208	0x3f49731c	0.7869127
209	0x3e5e6329	0.21717514
210	0x3fb21ff0	1.3915997
211	0x3fdde336	1.7334964
212	0x407440f5	3.8164647
213	0x400add96	2.1697745
214	0x3f1a220d	0.6020821
215	0x40c77ce4	6.2339954
216	0x3fd16f2d	1.6362053
217	0x40b233ce	5.568824
218	0x3f75e81f	0.96057314
219	0x40031d77	2.0486734
220	0x3fbff13c	1.4995494
221	0x3fd1e634	1.6398377
222	0x3f4eb57e	0.80745685
223	0x3d9c4eb1	0.07632197
224	0x3e28a2a6	0.16468295
225	0x3fa5801d	1.2929722
226	0x401c6107	2.443422
227	0x405b87ee	3.4301715
228	0x40173b58	2.362997
229	0x3f3fd5cc	0.74935603
230	0x400ba774	2.1820955
231	0x3f8c07d6	1.0939891
232	0x403f750e	2.9915195
233	0x3f9415d3	1.156916
234	0x402d5a67	2.7086427
235	0x405ae051	3.4199412
236	0x3f1bf1db	0.6091592
237	0x3ffdeaac	1.9837241
238	0x3f6f6db1	0.9352675
239	0x3fc03d46	1.5018699
240	0x3d1a8ca7	0.037731793
241	0x3ba5979c	0.0050534736
242	0x409f77f4	4.9833927
243	0x3de186b0	0.11012018
244	0x3f3daf19	0.740953
245	0x3c5caeb6	0.013469389
246	0x3f3a0c3d	0.72674924
247	0x3f869da5	1.0516859
248	0x3f41b123	0.75660914
249	0x3ec3c1fd	0.3823394
250	0x3f9930b5	1.1967989
251	0x3f7d931b	0.9905259
252	0x3f91ae90	1.1381397
253	0x3dba3288	0.09091669
254	0x3f7d979b	0.99059457
255	0x4084c683	4.1492324

fc2.weight f4 [256, 514]
0	0xbd90684f	-0.07051145
1	0xbd25e30f	-0.040499743
2	0x3db49e88	0.088193
3	0x3d97fba5	0.07421044
4	0xbca0dd9c	-0.019636922
5	0x3d80b6a0	0.06284833
6	0xbd5a249e	-0.053257577
7	0xbc55ebe4	-0.013056729
8	0xbc75996d	-0.014990193
9	0x3d0e5fb7	0.03475925
10	0x3cfe1e6b	0.031020364
11	0x3d5e5645	0.05428149
12	0xbc254b63	-0.010088774
13	0xbce16eae	-0.027518597
14	0xbd0124af	-0.031529125
15	0xbbf5db76	-0.0075029684
16	0xbccd0150	-0.02502504
17	0xbd98a776	-0.07453816
18	0x3cbdf1a1	0.023186507
19	0x3d27aa86	0.04093411
20	0xbd1c4ed9	-0.038161132
21	0x3dc14746	0.094374225
22	0xbb2aac02	-0.0026042466
23	0x3b0e9f40	0.00217624
24	0x3d0b7b51	0.03405315
25	0x3dadd733	0.084883116
26	0xbcd37583	-0.02581287
27	0xbc0c5143	-0.008564296
28	0xbc2129bd	-0.009836611
29	0xbda96a05	-0.08272175
30	0x3cd85157	0.026405973
31	0xbd091f61	-0.03347719
32	0xbcb0e5c3	-0.021593934
33	0x3c9b7c86	0.018980276
34	0x3d5e911c	0.054337606
35	0x3d569dab	0.052396458
36	0x3c7727ba	0.015085155
37	0xbd07bae1	-0.033137206
38	0xbd201400	-0.039081573
39	0x3d012ff6	0.03153988
40	0xbd9012d8	-0.07034844
41	0x3bf2205e	0.0073891124
42	0xbd1cdd19	-0.038296793
43	0xbb8c3b5e	-0.004279538
44	0xbd3b93c8	-0.045795232
45	0x3d968156	0.073488876
46	0x3c46e700	0.012140036
47	0xbc8b00e4	-0.016968198
48	0x3b319776	0.0027098334
49	0xbd6554e6	-0.05598917
50	0x3b2795da	0.0025571496
51	0xbb8fd114	-0.0043889377
52	0x3d3184e4	0.043339625
53	0xbd0a1798	-0.033713907
54	0xbbf87fa0	-0.0075835735
55	0xbe54daed	-0.20786639
56	0x3a9dd57f	0.0012041776
57	0xbd0a4e91	-0.033766333
58	0xbdc0ef28	-0.094206154
59	0x3c554ad9	0.013018333
60	0x3ca7b233	0.020470714
61	0xbdaa8a01	-0.083271034
62	0xbce980d3	-0.028503811
63	0xbd9faa4b	-0.07796153
64	0x3d89433b	0.06702276
65	0xbcc71924	-0.02430398
66	0x3d277a1e	0.040887944
67	0xbc302bd1	-0.010752634
68	0xbd9d5593	-0.076823376
69	0x3c3f059b	0.011659051
70	0x3c327638	0.010892443
71	0x3d3191de	0.043352
72	0xbdff948a	-0.124795035
73	0x3d3204e2	0.043461688
74	0xbd3c1647	-0.045919683
75	0x3c32d7a8	0.010915674
76	0xbca927b6	-0.020648818
77	0x3c63fa6e	0.013914688
78	0xbc76dd60	-0.015067428
79	0xbd37007f	-0.044678207
80	0xbdbb4206	-0.09143452
81	0x3cb1dafd	0.021710867
82	0x3cee2169	0.029068666
83	0xbe55e9f2	-0.20890024
84	0xbdae92b8	-0.08524078
85	0x3c724884	0.014787797
86	0xbd1dfedb	-0.038573127
87	0xbda3178b	-0.07963475
88	0xbd137af7	-0.03600594
89	0xbd1ff717	-0.039054003
90	0x3cab531b	0.020913651
91	0xbda256f7	-0.079267435
92	0xbcb6d179	-0.022316681
93	0x3d1cc9e0	0.03827846
94	0x3bd4e5ba	0.006497112
95	0x3ca30477	0.01989959
96	0x3d81255a	0.06305952
97	0xbd573066	-0.05253639
98	0xbcd075c8	-0.025446787
99	0xbd1540bc	-0.03643869
100	0x3bcf6d0e	0.006330139
101	0xbd3dc09c	-0.046326265
102	0x3d52e2c9	0.05148581
103	0x3d1302ef	0.03589147
104	0xbbf9ac2b	-0.007619401
105	0xbdae1a90	-0.0850116
106	0x397ae49c	0.00023927022
107	0x3cb0268c	0.021502756
108	0x3df78ddb	0.12087604
109	0xbb8e51b4	-0.004343236
110	0xbc81fc30	-0.015867323
111	0x3d936343	0.07196667
112	0xbc4a09d0	-0.012331441
113	0xbd037dbb	-0.032102328
114	0x3cfb5c1a	0.030683566
115	0x3d3476dc	0.044058666
116	0xbd493cb3	-0.049130153
117	0x39df5664	0.0004259824
118	0xbb68c465	-0.003551745
119	0x3c4cd25f	0.012501328
120	0x3cbff466	0.023431968
121	0x3c273821	0.010206253
122	0x3cd4a8ac	0.025959335
123	0xbcc63274	-0.02419398
124	0xbc5860d2	-0.0132066775
125	0x3d3e5797	0.04647025
126	0x3d32baf0	0.04363531
127	0xbb0a1c49	-0.0021073988
128	0x3d03fcbb	0.032223444
129	0x3d2c4728	0.042060047
130	0xbcc02238	-0.023453817
131	0xbca60d18	-0.020269915
132	0xbc9564c0	-0.018236518
133	0x3cad9e98	0.021193787
134	0x3db9f7fa	0.09080501
135	0xbc264749	-0.010148832
136	0x3d216fdc	0.039413318
137	0xbd8fcac1	-0.07021094
138	0x3d56ddb0	0.05245751
139	0x3cd1336a	0.025537211
140	0x3c852a3f	0.016255496
141	0xbe5ca034	-0.21545488
142	0xbb422dfe	-0.0029629464
143	0x3d86878c	0.06568822
144	0x3b37a079	0.0028019233
145	0x3db21248	0.08694893
146	0xbc67589f	-0.01412025
147	0xbc302117	-0.010750077
148	0x3ce0e0ba	0.027450908
149	0x3cc3d1c4	0.023903735
150	0xbc9c1668	-0.019053653
151	0xbbf4559c	-0.0074564945
152	0xbcbb1256	-0.022835892
153	0xbca600ac	-0.020263992
154	0x3cc42dde	0.023947652
155	0x3d1d8d97	0.03846511
156	0xbdafd208	-0.08584982
157	0xbc551640	-0.013005793
158	0xbc779a30	-0.015112445
159	0xb85fde8d	-5.337461e-05
160	0x3cc96aba	0.024587024
161	0x3ccf8e74	0.025336482
162	0x3c8fdf44	0.017562516
163	0x3d43b78a	0.04778246
164	0x3d378655	0.044805843
165	0x3cd811ad	0.026375616
166	0xbc2d3d94	-0.010573763
167	0x3cbdfed9	0.02319281
168	0xbca4f0bd	-0.020134324
169	0xbb506771	-0.0031799937
170	0x3db48728	0.088148415
171	0x3d9761bb	0.073916875
172	0xbc832b84	-0.01601196
173	0xbdbdb916	-0.09263818
174	0x3bd68005	0.006546023
175	0xbcc68fe9	-0.024238544
176	0xbd2df0b6	-0.042465888
177	0xbd2e489a	-0.042549707
178	0xbc3b7b79	-0.011443012
179	0x3d662f63	0.056197535
180	0xbce2a5b5	-0.027666906
181	0xbcad07bc	-0.021121852
182	0x3c4e7e48	0.01260335
183	0x3c9ceb22	0.019155089
184	0xbd78c255	-0.060732204
185	0x3d81a3b9	0.06330056
186	0xbd5a254d	-0.05325823
187	0x3c92321c	0.01784616
188	0x3cd79a22	0.026318613
189	0xbda88bc5	-0.08229784
190	0xbb647e4d	-0.003486532
191	0x3c03e379	0.008049839
192	0xbd64dbd4	-0.055873707
193	0x3d571474	0.05250974
194	0x3d592ab0	0.053019226
195	0x3cab0bbf	0.020879624
196	0xbcf039e1	-0.029324474
197	0x3be293d8	0.006914597
198	0x3cda705f	0.02666491
199	0xbc2adc8b	-0.010428558
200	0x3c0b1f98	0.008491419
201	0x3d1901e0	0.037355304
202	0x3dbe4a27	0.09291487
203	0x3db78b62	0.08962132
204	0x3d558f96	0.052138887
205	0x3d852d1a	0.06502743
206	0xbd85b186	-0.065280005
207	0xbbb1ce40	-0.0054261982
208	0xbd56872f	-0.052375015
209	0xbcdb8079	-0.026794659
210	0xbca3d67c	-0.019999735
211	0xbe01ba56	-0.12668738
212	0x3d8aac51	0.06771148
213	0x3d1a65c4	0.037694708
214	0x3d21f23a	0.039537646
215	0xbd7aa730	-0.0611946
216	0xbd497fde	-0.04919421
217	0x3d0b4183	0.033998024
218	0xbc5e248f	-0.013558521
219	0xbc46ff34	-0.012145806
220	0xbd67356c	-0.05644743
221	0xbcd04070	-0.025421351
222	0xbce79416	-0.028268855
223	0xbd2d19f7	-0.04226109
224	0xbd2c5681	-0.042074684
225	0x3c846558	0.016161606
226	0x3c903d32	0.017607305
227	0xbc915b16	-0.017743628
228	0x3d07bd4a	0.033139504
229	0x3d793095	0.060837347
230	0xbcbc4f5f	-0.022987066
231	0x3ccdf7aa	0.02514251
232	0xbd392cbe	-0.045208685
233	0xbdadeb1d	-0.0849211
234	0xbd993627	-0.07481032
235	0x3d0a90e3	0.03382958
236	0xbc423ffb	-0.011856074
237	0x3cc2f4bc	0.02379834
238	0xbb81e44f	-0.003963984
239	0xbcc63cc9	-0.024198906
240	0xbcba04ee	-0.022707429
241	0xbd6abdc3	-0.057309877
242	0x3d425b81	0.047450546
243	0xba943d1f	-0.0011309719
244	0xbd6ca61a	-0.057775594
245	0x3b949575	0.004534418
246	0xbd0bd5ed	-0.034139562
247	0x3d40f6c6	0.04711034
248	0xbdaf590c	-0.08561906
249	0x3d5dc93d	0.054146994
250	0x3d139f8f	0.03604084
251	0xbbce2367	-0.0062908414
252	0x3da81c3e	0.08208512
253	0x3cedab1c	0.029012255
254	0x3cdede69	0.027205663
255	0x3ca55933	0.020184135
