checkpoint_critic_<ddpg_agent.Agent object at 0x7f5adf152198>.pth (torch, 591698 bytes, 9 tensors)

fcs1.weight f4 [512, 24]
0	0x3dbfff5f	0.0937488
1	0xbb9c0787	-0.0047616395
2	0x3cac8893	0.021061217
3	0x3ca8534a	0.020547528
4	0xbddd0b74	-0.107932
5	0xbcffabda	-0.031209875
6	0xbca5da67	-0.020245744
7	0xbb0da096	-0.002161061
8	0x3d056e45	0.032575864
9	0xbcb42536	-0.0219904
10	0xbc2f2e8f	-0.010692253
11	0x3c991413	0.01868633
12	0xbe046047	-0.12927352
13	0x3d94401d	0.07238791
14	0x3c303b0c	0.010756265
15	0x3d847093	0.06466784
16	0x3c7b0502	0.015321018
17	0xbd47d522	-0.048787244
18	0xbc3d91ea	-0.011570433
19	0x3c7ba779	0.015359753
20	0xbc9e14b4	-0.019296981
21	0x3c7e81be	0.015533863
22	0x3bd42cd5	0.006475071
23	0x3d92baf5	0.071645655
24	0xbc8139ab	-0.015774569
25	0x3c9cf4bb	0.019159665
26	0xbd1b6c25	-0.03794493
27	0x3d228783	0.039680015
28	0xbd95c691	-0.07313264
29	0x3d455165	0.048173327
30	0x3d1bdea0	0.03805411
31	0xbc7a5e8d	-0.015281332
32	0xbce62e9a	-0.028098393
33	0xbc6a1c01	-0.014288903
34	0xbcf401c9	-0.029786007
35	0x3c904b57	0.01761405
36	0x3b062f2a	0.002047489
37	0x3d3dd88c	0.046349093
38	0x3cebcd7a	0.028784502
39	0xbcb98412	-0.022645984
40	0x3d6bd37e	0.05757474
41	0x3ba35c47	0.0049853656
42	0x3a47de93	0.00076244137
43	0x3bfbdc91	0.0076862057
44	0x3e0dad5b	0.13835661
45	0xbdeab67b	-0.11460587
46	0xbb9a4f33	-0.0047091483
47	0xbd884dcf	-0.06655466
48	0xbd43992a	-0.04775349
49	0xbd9c7d7f	-0.07641124
50	0x3b8ceedb	0.0043009347
51	0x3cf55e3f	0.029952167
52	0xbe161ab3	-0.14658622
53	0xbd85f508	-0.065408766
54	0xbbe9fbe6	-0.0071406243
55	0x3d0367c5	0.032081384
56	0x3cddb9b5	0.027066091
57	0x3c5fc544	0.013657872
58	0xbd25aa1f	-0.040445443
59	0x3d9826e7	0.07429295
60	0xbcf0499a	-0.029331971
61	0xbd944a56	-0.07240741
62	0x3d07ef8e	0.03318744
63	0x3d9ca180	0.07647991
64	0x3ce7d117	0.028297944
65	0xbc4805b6	-0.012208393
66	0x3c869f4a	0.016433377
67	0xbd3edc53	-0.046596836
68	0x3d50e301	0.050997738
69	0x3c9f8c79	0.019476162
70	0xbcb7c619	-0.022433328
71	0xbd4bb89d	-0.049736608
72	0xbcb1b0b3	-0.021690702
73	0x3d0898ac	0.033348724
74	0x3ccff447	0.025385035
75	0xbd939b85	-0.07207397
76	0x3d245b63	0.040126216
77	0xbd501d04	-0.05080892
78	0x3cd0fe13	0.025511777
79	0xbd305b51	-0.043055836
80	0xbd4d8fe6	-0.05018606
81	0x3c4000c7	0.011718935
82	0x3cb16629	0.02165516
83	0xbca6ca98	-0.020360276
84	0x3d4c533f	0.049884077
85	0xbbc7f195	-0.006101797
86	0xbc00cde2	-0.007861586
87	0xbb9efa75	-0.004851634
88	0xbc392004	-0.011299137
89	0xbd478189	-0.04870752
90	0xbd2f567b	-0.042807084
91	0x3cab67bb	0.020923486
92	0x3bad0438	0.005280044
93	0xbe44d013	-0.19219999
94	0xbd4b3bbe	-0.04961752
95	0x3d3afb7c	0.04564999
96	0xbc20ff39	-0.009826475
97	0xbaed44fb	-0.0018102223
98	0x3cbbd3ef	0.022928206
99	0xbccce2aa	-0.025010426
100	0xb97d90bc	-0.00024181878
101	0xbcf5eaf5	-0.030019263
102	0xbcacd906	-0.021099579
103	0x3cec6873	0.028858399
104	0x3d2d0ee4	0.04225053
105	0x3ba1a4a0	0.004932955
106	0x3a7b4c56	0.0009586265
107	0x3bee0f73	0.0072650253
108	0x3d6ad4ff	0.057332035
109	0x3d5160ce	0.05111771
110	0xbc48e4fd	-0.012261626
111	0x3c7dd0e0	0.015491694
112	0x3d773e38	0.06036207
113	0x3d15f57d	0.03661107
114	0xbcf3d0e8	-0.0297627
115	0x3d8054bc	0.06266162
116	0xbd51ef1a	-0.051253416
117	0x3e1e5cfe	0.15465161
118	0xbcf2c061	-0.029632749
119	0x3d2bc84d	0.04193907
120	0xbc3fc2f8	-0.011704199
121	0x3c70de24	0.0147014
122	0x3d2bb707	0.041922595
123	0x3d10fd8b	0.035398047
124	0xbd1c3794	-0.03813894
125	0xbaebd128	-0.001799141
126	0x3d17e5a1	0.037084226
127	0x3cf85d15	0.030317822
128	0x3d733c0d	0.05938344
129	0xbc58ab21	-0.013224394
130	0xbcce0102	-0.025146965
131	0x3c820f88	0.015876547
132	0xbc350698	-0.011048935
133	0xbc13f94f	-0.009031608
134	0xbc3f4a9b	-0.011675502
135	0x3c40c277	0.011765114
136	0xbc44f788	-0.012021907
137	0x3b3e1c46	0.0029008552
138	0xbd72e163	-0.059296977
139	0x3c4e0c59	0.012576186
140	0x386ae7d0	5.600584e-05
141	0x3d3c86ab	0.046026867
142	0xbd64cba7	-0.05585828
143	0xbcb65e30	-0.022261709
144	0x3ba3176a	0.0049771564
145	0xbd51fd09	-0.051266704
146	0x3c758e2d	0.014987511
147	0xbd48ec2d	-0.04905336
148	0x3dbcfa34	0.0922741
149	0xbd8f8e4f	-0.07009565
150	0x3cd23e71	0.02566454
151	0xbbf92131	-0.0076028337
152	0x3ca66e71	0.020316334
153	0xbd31b1a8	-0.043382317
154	0xbd28cddb	-0.041211944
155	0x3c893de1	0.016753139
156	0x3dcf08d0	0.10109103
157	0xbce703da	-0.028200079
158	0x3cfab5bd	0.030604238
159	0x3d492961	0.049111728
160	0x3bb223bf	0.00543639
161	0xbd224431	-0.039615814
162	0x3a9dcb4e	0.0012038739
163	0xbcdc5843	-0.026897555
164	0x3d6933cf	0.056934174
165	0x3ce4c85d	0.027927572
166	0x3d01d59d	0.031697858
167	0xbd62a13f	-0.055329558
168	0xbcab16a0	-0.020884812
169	0x3cffbad9	0.031217026
170	0x3c0142e1	0.00788948
171	0xbbee0130	-0.007263325
172	0xbe4f4bbb	-0.20243733
173	0xbcf22706	-0.029559623
174	0xbc20bb03	-0.009810212
175	0x3bbd5428	0.0057778545
176	0x3ce50ddc	0.02796071
177	0xbc33a250	-0.010963991
178	0xbc8902d5	-0.016724983
179	0xbcb0989d	-0.021557147
180	0xbe6cbc6e	-0.23118755
181	0xbc013d43	-0.007888141
182	0x3c247ca6	0.010039484
183	0x3d4b1863	0.049583804
184	0x3d6a161a	0.057149984
185	0x3beb51d9	0.007181388
186	0xbd0167c3	-0.031593096
187	0xbd28a304	-0.04117109
188	0x3c252778	0.010080211
189	0x3db303fa	0.08740993
190	0x3ce2517d	0.027626747
191	0x3b0e0cdd	0.0021675148
192	0x3d5cbe26	0.053892277
193	0x3cf2cdae	0.029639091
194	0x3ba2538e	0.004953808
195	0xbcce70f1	-0.025200339
196	0x3c17358f	0.009229078
197	0x3d93d22e	0.07217823
198	0x3d1f6139	0.038911078
199	0xbcdfbf5c	-0.027312927
200	0xbd05b910	-0.032647192
201	0x3ca2d84b	0.019878527
202	0x3d432463	0.047642123
203	0x3d080252	0.033205338
204	0xbc4d3ecd	-0.01252718
205	0x3d9326a6	0.07185106
206	0x3c4afae9	0.012388923
207	0xbd45711e	-0.04820358
208	0x3d85e625	0.06538037
209	0x3d223b1b	0.03960715
210	0x3cd4fa4d	0.025998259
211	0xbd39aa91	-0.04532868
212	0x3d109ec2	0.035307653
213	0x3d9902b5	0.074712195
214	0x3c8f0381	0.017457725
215	0xbd0d0930	-0.03443259
216	0x3cde514b	0.027138373
217	0xbd8ae4a7	-0.06781893
218	0x3ca4f01b	0.020134022
219	0xbd838b09	-0.06423003
220	0xbcf90912	-0.030399833
221	0x3ddb0c3d	0.10695694
222	0xbcdf282a	-0.027240831
223	0xbd39fb88	-0.045405895
224	0xbc4a2496	-0.012337824
225	0xbca8f5f2	-0.020625088
226	0x3cbaf3e2	0.02282137
227	0x3cfdf7c8	0.03100194
228	0xbcf098ae	-0.029369678
229	0x3d6a0274	0.057131246
230	0xba75d3aa	-0.00093775487
231	0xbcc4fe15	-0.024046937
232	0xbd4dde41	-0.050260786
233	0xbdbffe3a	-0.09374662
234	0x3d26cd6e	0.040723257
235	0xbd718200	-0.05896187
236	0x3d968e38	0.07351345
237	0xbd9cbf21	-0.076536424
238	0x3cc85974	0.024456717
239	0xbd449456	-0.047993027
240	0x3aa3835a	0.0012475059
241	0xbd437b27	-0.04772487
242	0x3d03d8cb	0.03218917
243	0x3cea19db	0.028576782
244	0x3cb2ffb7	0.02185045
245	0xbcc6103f	-0.024177669
246	0xbd132571	-0.03592438
247	0xbca8312d	-0.020531261
248	0x3c78d684	0.015187863
249	0xbcc0b27a	-0.023522604
250	0xbcba0d64	-0.022711463
251	0x3d0e9c81	0.034817223
252	0xbdb927f9	-0.09040827
253	0xbd5919ff	-0.053003307
254	0x3c8e1fe8	0.017349198
255	0xbbc843ae	-0.0061115837

fcs1.bias f4 [512]
0	0xbdab79a1	-0.08372808
1	0xbd09f838	-0.033683985
2	0xbd95719f	-0.07297062
3	0xbe2edbff	-0.1707611
4	0xbdbdc0dc	-0.09265301
5	0x3d0c9836	0.034324847
6	0xbd8c34d5	-0.068460144
7	0x3e215894	0.15756446
8	0xbc9e48e7	-0.019321872
9	0xbcf16df2	-0.029471371
10	0xbe17101a	-0.14752236
11	0x3d5e8e7c	0.054335102
12	0x3e0ff55e	0.14058444
13	0x3e1b48a1	0.15164424
14	0xbe2f3cde	-0.17113063
15	0xbd49783f	-0.04918694
16	0x3d136b5a	0.03599105
17	0xbda394ca	-0.07987364
18	0xbe4588f7	-0.19290529
19	0x3e43561b	0.19075815
20	0x3e7619bc	0.24033254
21	0xbe2e476e	-0.17019436
22	0x3dcdb3a6	0.10044031
23	0xbd92b976	-0.0716428
24	0x3e327e92	0.17431095
25	0xbca5fd29	-0.020262318
26	0x3de802bd	0.11328647
27	0xbd4cc22d	-0.049989868
28	0xbd8b369f	-0.067975275
29	0xbe81b3a6	-0.25332373
30	0xbe3c17db	-0.18368475
31	0x3e461e29	0.19347443
32	0x3e4fb92b	0.2028548
33	0x3e388986	0.18021211
34	0x3e2578de	0.16159388
35	0xbe7811fe	-0.24225613
36	0xbe696e58	-0.22795999
37	0x3d769f12	0.060210295
38	0xbe46eb50	-0.19425702
39	0xb8659424	-5.473582e-05
40	0x3cc56f70	0.02410099
41	0xbd999f2b	-0.07501062
42	0xbbe05e24	-0.00684716
43	0x3cc00793	0.023441112
44	0xbde5fc99	-0.1122982
45	0x3d40b4d2	0.047047444
46	0x3cf3b858	0.029750988
47	0xbe24889f	-0.16067742
48	0x3e65c211	0.22437312
49	0x3e57459d	0.21022649
50	0xbdf519d3	-0.11967816
51	0xbd47bb5f	-0.048762675
52	0x3c035d5f	0.008017867
53	0xbcc8abe8	-0.024496034
54	0xbd911300	-0.07083702
55	0xbcb69792	-0.022289071
56	0xbc683e62	-0.0141750295
57	0x3db0cb0e	0.086324796
58	0x3db0d5ea	0.08634551
59	0x3c81af43	0.015830642
60	0x3dba52b1	0.090978034
61	0xbd450829	-0.048103485
62	0xbdaf8046	-0.08569388
63	0x3e09cabf	0.13456248
64	0x3e25f6d3	0.16207437
65	0xbd0643a4	-0.03277935
66	0xbe3a2fd1	-0.18182303
67	0x3d69c0d7	0.057068672
68	0xbe1b6660	-0.15175772
69	0x3da543f5	0.080696024
70	0x3e6fb05b	0.23407118
71	0xbe219989	-0.15781225
72	0xbc571675	-0.013127913
73	0x3e846793	0.2586027
74	0x3d048048	0.0323489
75	0x3e3108d9	0.17288531
76	0xbdb22b06	-0.08699612
77	0xbcd89f41	-0.026443126
78	0xbe0910c8	-0.13385308
79	0xbe065991	-0.13120104
80	0xba4dd042	-0.0007851162
81	0x3e2e7085	0.1703511
82	0x3e5c8d3b	0.2153825
83	0xbdbf0062	-0.09326245
84	0x3e3c9071	0.18414475
85	0xbe2484ab	-0.16066234
86	0xbe804209	-0.2505038
87	0x3c8d0cb0	0.017217964
88	0x3e1fcdd6	0.15605864
89	0x3e44325a	0.19159833
90	0xbde676db	-0.11253139
91	0xbddd69be	-0.10811184
92	0x3e27a20d	0.16370411
93	0x3dbdf1b4	0.09274617
94	0xbcac89b8	-0.021061763
95	0xbdb3c829	-0.08778412
96	0x3e057776	0.13033852
97	0x3e34c8b3	0.17654686
98	0x3e047d67	0.12938462
99	0x3db3c655	0.08778063
100	0xbce93de2	-0.02847189
101	0xbe61366c	-0.21993417
102	0x3e64a30a	0.2232782
103	0x3d2bfb25	0.041987557
104	0x3d89bcad	0.0672544
105	0x3d4ad9bf	0.049524065
106	0xbe284f23	-0.16436438
107	0xbe22623d	-0.15857787
108	0x3d4258d7	0.047448006
109	0x3c362f5b	0.011119689
110	0xbe2a8ecb	-0.16656034
111	0xbd1b2d46	-0.037884973
112	0xbb1d184c	-0.002397078
113	0xbe514c71	-0.20439316
114	0xbe602ef0	-0.21892905
115	0xbc35689d	-0.011072305
116	0xbe19901f	-0.14996384
117	0x3dd7666c	0.10517582
118	0xbe5e0347	-0.21680938
119	0xbd9bd8d7	-0.07609718
120	0xbe3c1ca6	-0.18370304
121	0xbd839ba4	-0.064261705
122	0xbe60ec64	-0.21965176
123	0xbd61f725	-0.055167336
124	0xbe30e1be	-0.17273614
125	0x3dfa9021	0.12234522
126	0xbe1bc7ff	-0.15213011
127	0x3e2f3f1a	0.17113915
128	0x3e349a0d	0.1763689
129	0x3c2f519e	0.010700611
130	0xbd2a3c65	-0.041561503
131	0xbe0ea500	-0.1393013
132	0xbe3c181a	-0.18368569
133	0xbe320880	-0.17386055
134	0x3a93149f	0.0011221356
135	0x3e3e9811	0.18612696
136	0xbda01116	-0.07815759
137	0xbdf89638	-0.12138027
138	0x3c78d8db	0.015188421
139	0xbe360271	-0.17774369
140	0xbdabf22e	-0.083958015
141	0xbe4fd82b	-0.20297305
142	0xbe3fd5bb	-0.18733875
143	0xbdef56a3	-0.116864465
144	0x3df9c513	0.12195792
145	0x3db76dc1	0.08956481
146	0x3dc49327	0.095983796
147	0x3decbe77	0.11559766
148	0x3d33a62f	0.043859657
149	0xbd1e1841	-0.03859735
150	0x3cac00e4	0.020996518
151	0xbd5d9200	-0.054094315
152	0x3d5a0323	0.053225648
153	0x3d8ac5e4	0.06776026
154	0x3cd37add	0.025815422
155	0xbe570d2b	-0.21001117
156	0xbc10d5ef	-0.008840068
157	0x3d846a25	0.06465558
158	0x3dd03e1c	0.101680964
159	0x3d2d694e	0.042336755
160	0xbd84cebe	-0.064847454
161	0x3dea5e60	0.11443782
162	0xbd590f5f	-0.052993175
163	0xbdc1f42a	-0.09470399
164	0xbe6ce96d	-0.2313592
165	0x3b881be0	0.0041537136
166	0xbe21415a	-0.15747586
167	0x3df69a12	0.12041105
168	0x3d264d9c	0.040601358
169	0xbdba17aa	-0.09086545
170	0x3e2f5bb0	0.1712482
171	0xbc9e6b5b	-0.0193383
172	0x3ccc7433	0.024957752
173	0x3e190aac	0.14945477
174	0x3b27a6d1	0.0025581608
175	0xbcd8aaca	-0.026448626
176	0x3e49e586	0.19716462
177	0xbe5e6b5c	-0.21720642
178	0x3dd898d1	0.105760224
179	0x3d731447	0.05934551
180	0xbc8f0487	-0.017458213
181	0x3e01f372	0.12690523
182	0x3d0653d1	0.032794777
183	0xbdb893bc	-0.09012553
184	0xbe2b3b4f	-0.16721843
185	0xbdfefaee	-0.12450205
186	0x3e2c0b14	0.16801101
187	0x3de9d756	0.11418025
188	0x3c11ca41	0.008898319
189	0x3e11d3bd	0.14240928
190	0x3e186079	0.14880551
191	0x3dd797dc	0.10527012
192	0x3d605f94	0.05477865
193	0x3e54e0d5	0.20788892
194	0xbba4eae7	-0.0050328854
195	0xbcf4059d	-0.029787833
196	0xbe33a5e5	-0.17543752
197	0xbe7e5e25	-0.24840601
198	0xbd43ed06	-0.047833465
199	0xbe4300da	-0.19043294
200	0x3dbb2f32	0.09139861
201	0x3e09d819	0.13461341
202	0x3d33fec3	0.04394413
203	0xbe67e9c0	-0.22647762
204	0x3d8d9d26	0.06914739
205	0x3e1d28d7	0.1534761
206	0x3d19b572	0.037526555
207	0xbe105023	-0.1409307
208	0xbd1cd5d9	-0.03828988
209	0x3e25797e	0.16159627
210	0xbe10f52b	-0.14156024
211	0xbe5e294e	-0.21695444
212	0x3e274427	0.16334592
213	0x3e28be22	0.1647878
214	0xbcfedf57	-0.031112356
215	0x3e3bf735	0.18356021
216	0xbe411aae	-0.18857834
217	0x3e17ba0f	0.1481707
218	0xbe5e8fce	-0.21734545
219	0xbd2c3d98	-0.042050928
220	0x3e2d192c	0.16904134
221	0xbdea0b58	-0.11427945
222	0xbe16f619	-0.14742316
223	0x3d35eaf4	0.044413522
224	0x3e2fbe50	0.17162442
225	0xbdd07a72	-0.101796046
226	0xbe5995b4	-0.21248513
227	0x3dd5472f	0.10413968
228	0x3e1dd247	0.15412246
229	0xbde4b445	-0.11167196
230	0xbe18bc49	-0.14915575
231	0x3d972774	0.07380572
232	0x3dbb73fa	0.0915298
233	0xbe1f62c4	-0.1556502
234	0xbd210530	-0.039311588
235	0x3d0ced08	0.034405738
236	0xbd7c8478	-0.06164977
237	0x3e313c83	0.1730824
238	0x3ddb08d0	0.1069504
239	0x3cb67a89	0.022275226
240	0x3da2658c	0.07929525
241	0xbe5fe636	-0.21865162
242	0x3cf5f3fc	0.030023567
243	0x3d38ae45	0.04508807
244	0xbe33ca90	-0.1755774
245	0xbdcfd02c	-0.101471275
246	0xbd1dbf65	-0.038512606
247	0xbe2bef50	-0.16790509
248	0xbd1e83af	-0.038699802
249	0x3e498724	0.19680458
250	0xbe29d5cd	-0.16585465
251	0xbd272a79	-0.04081199
252	0xbd92f8be	-0.0717635
253	0xbdede9ea	-0.11616881
254	0x3dad2406	0.084541366
255	0xbe2b3dee	-0.16722843

bn1.weight f4 [512]
0	0x3f76161f	0.96127504
1	0x3f8bbec5	1.0917593
2	0x3f8446ec	1.0334144
3	0x3f5eb6cb	0.8699767
4	0x3f65db12	0.897874
5	0x3f685f38	0.9077029
6	0x3f6b9330	0.92021465
7	0x3f8ac228	1.0840502
8	0x3f613056	0.8796438
9	0x3f61fe19	0.8827835
10	0x3f839b17	1.0281705
11	0x3f5d662c	0.86484027
12	0x3f831eee	1.0243814
13	0x3f854bd0	1.0413761
14	0x3f65fa04	0.8983462
15	0x3f87d26c	1.0611091
16	0x3f5aff40	0.8554573
17	0x3f686051	0.9077197
18	0x3f748886	0.9552082
19	0x3f610e0f	0.87912077
20	0x3f648c3f	0.892765
21	0x3f5b1555	0.85579425
22	0x3f5ba5b6	0.8579973
23	0x3f70d811	0.9407969
24	0x3f599b14	0.85002255
25	0x3f61a737	0.88145775
26	0x3f6ac1c7	0.9170193
27	0x3f6a0b23	0.91423243
28	0x3f5d0ed7	0.8635077
29	0x3f714abd	0.94254667
30	0x3f7505fe	0.9571227
31	0x3f61cf65	0.88207084
32	0x3f6a09d4	0.91421247
33	0x3f5d1192	0.86354935
34	0x3f5fab4f	0.8737077
35	0x3f726daa	0.94698584
36	0x3f6acaa2	0.91715443
37	0x3f599a53	0.85001105
38	0x3f6fd079	0.9367748
39	0x3f6e2467	0.93024296
40	0x3f7508c6	0.9571651
41	0x3f5c3799	0.86022335
42	0x3f799e12	0.9750682
43	0x3f6751dc	0.9035928
44	0x3f76c49b	0.96393746
45	0x3f67f6ab	0.9061076
46	0x3f6899f2	0.908599
47	0x3f6be798	0.9215026
48	0x3f69a362	0.9126493
49	0x3f6b03d9	0.91802746
50	0x3f5f0c91	0.8712855
51	0x3f643acc	0.89152217
52	0x3f75d9c1	0.9603539
53	0x3f5e27a0	0.8677921
54	0x3f630c32	0.88690484
55	0x3f68c4a4	0.9092505
56	0x3f9ec75b	1.2404588
57	0x3f5fc955	0.87416583
58	0x3f6a9f8d	0.91649705
59	0x3f82abb9	1.0208656
60	0x3f6770e1	0.90406615
61	0x3f617383	0.8806688
62	0x3f76840d	0.96295244
63	0x3f60d574	0.87825704
64	0x3f6f2eed	0.9343098
65	0x3f6f0a99	0.93375546
66	0x3f66e7aa	0.9019724
67	0x3f5aeed9	0.855207
68	0x3f6c7077	0.9235911
69	0x3f59ff14	0.85154843
70	0x3f5d4778	0.8643718
71	0x3f660503	0.898514
72	0x3f7241de	0.94631755
73	0x3f5cce18	0.86251974
74	0x3f6f69d4	0.93520856
75	0x3f64d0fe	0.89381397
76	0x3f6d9fe1	0.9282208
77	0x3f6398ca	0.8890501
78	0x3f656284	0.8960345
79	0x3f64a768	0.8931794
80	0x3f64cb9e	0.89373195
81	0x3f6bc8fb	0.92103547
82	0x3f5b1cf9	0.85591084
83	0x3f7c7f52	0.98631775
84	0x3f5e4685	0.86826354
85	0x3f68d284	0.9094622
86	0x3f87ec9d	1.0619084
87	0x3f74b2dc	0.9558542
88	0x3f6a1a09	0.91445976
89	0x3f67b379	0.9050823
90	0x3f54b58b	0.8308951
91	0x3f60cb7f	0.8781051
92	0x3f80f0df	1.0073508
93	0x3f71d352	0.94463074
94	0x3f6b02f5	0.9180139
95	0x3f5fec90	0.8747034
96	0x3f64a77c	0.8931806
97	0x3f67a51e	0.90486324
98	0x3f64dc15	0.8939832
99	0x3f6c0d59	0.92207867
100	0x3f5d94ba	0.86555064
101	0x3f69f17e	0.9138411
102	0x3f5b301e	0.85620296
103	0x3f6d167c	0.92612433
104	0x3f5f2d75	0.87178737
105	0x3f648452	0.89264405
106	0x3f799557	0.974935
107	0x3f5bbc8b	0.8583457
108	0x3f998aeb	1.1995519
109	0x3f6329b1	0.8873549
110	0x3f72426d	0.9463261
111	0x3f62b819	0.8856216
112	0x3f5914cf	0.84797376
113	0x3f6a55ae	0.91536987
114	0x3f6e7daf	0.9316053
115	0x3f634358	0.88774633
116	0x3f5ff2e1	0.8747998
117	0x3f6927a1	0.91076094
118	0x3f6df2dd	0.92948705
119	0x3f9f46a1	1.2443429
120	0x3f76d6c9	0.96421486
121	0x3f69c06f	0.91309255
122	0x3f5f9eed	0.87351876
123	0x3f639482	0.8889848
124	0x3f970091	1.1797048
125	0x3f7129bb	0.942043
126	0x3f5a359f	0.8523807
127	0x3f709163	0.9397184
128	0x3f66da3b	0.90176743
129	0x3f6eb397	0.9324278
130	0x3f66f3e2	0.90215886
131	0x3f658240	0.8965187
132	0x3f64e964	0.89418626
133	0x3f8699e0	1.0515709
134	0x3f7adc37	0.9799227
135	0x3f7aa2d3	0.979047
136	0x3f5ab9e3	0.8543989
137	0x3f678edb	0.90452355
138	0x3f603469	0.8757997
139	0x3f5e38a1	0.8680516
140	0x3f69791c	0.91200423
141	0x3f76d334	0.9641602
142	0x3f6966f0	0.91172695
143	0x3f68f58a	0.9099966
144	0x3f61ab65	0.8815215
145	0x3f613ef0	0.8798666
146	0x3f629978	0.88515425
147	0x3f6018c6	0.875378
148	0x3f7e69fe	0.9938048
149	0x3f67efb9	0.9060016
150	0x3f653614	0.8953564
151	0x3f9043ad	1.1270653
152	0x3f6267b7	0.88439506
153	0x3f6995db	0.91244286
154	0x3f741ca6	0.95356214
155	0x3f70584e	0.9388474
156	0x3f5e8d7b	0.8693463
157	0x3f87f141	1.06205
158	0x3f5e798d	0.8690422
159	0x3f601e6c	0.8754642
160	0x3f803a2f	1.0017756
161	0x3f5cc850	0.8624315
162	0x3f727724	0.94713044
163	0x3f6a4fe2	0.9152814
164	0x3f7774e7	0.96662754
165	0x3f5a63e4	0.8530867
166	0x3f5dd304	0.8665011
167	0x3f84485e	1.0334585
168	0x3f6bc87b	0.92102784
169	0x3f75644f	0.95856184
170	0x3f639539	0.8889957
171	0x3f642668	0.89121103
172	0x3f76286a	0.96155417
173	0x3f640630	0.8907194
174	0x3f8d4c7b	1.1038965
175	0x3f81fce8	1.0155306
176	0x3f61ff6d	0.88280374
177	0x3f6dea64	0.92935777
178	0x3f659af5	0.8968957
179	0x3f670574	0.90242696
180	0x3f8ac019	1.0839874
181	0x3f63a057	0.88916534
182	0x3f8342a5	1.0254713
183	0x3f5833a9	0.8445383
184	0x3f4e51da	0.80593646
185	0x3f5a09c6	0.85171163
186	0x3f616279	0.8804088
187	0x3f60e687	0.87851757
188	0x3f67c106	0.90528905
189	0x3f62148e	0.88312614
190	0x3f5dc4aa	0.8662821
191	0x3f725054	0.9465382
192	0x3f5c8fd9	0.86156994
193	0x3f62ea5a	0.8863884
194	0x3f66e885	0.90198547
195	0x3f8345ad	1.0255638
196	0x3f63dcd3	0.89008826
197	0x3f6a4524	0.9151175
198	0x3f657e78	0.896461
199	0x3f67ee33	0.9059784
200	0x3f66f186	0.90212286
201	0x3f69f473	0.91388625
202	0x3f708a45	0.9396098
203	0x3f6449b8	0.89174986
204	0x3f66dae8	0.90177774
205	0x3f596bdb	0.849302
206	0x3f5e39d0	0.86806965
207	0x3f5ab5ff	0.85433954
208	0x3f624ca5	0.883982
209	0x3f77a985	0.9674304
210	0x3f689b1d	0.90861684
211	0x3f6ac7aa	0.91710913
212	0x3f68179f	0.9066104
213	0x3f6d7c81	0.927681
214	0x3f5d8e6c	0.86545444
215	0x3f89fee5	1.0780913
216	0x3f61cc3d	0.8820227
217	0x3f65f790	0.89830875
218	0x3f5ce85b	0.86292046
219	0x3f8657d6	1.0495555
220	0x3f5d1f64	0.86376023
221	0x3f5a8607	0.8536076
222	0x3f621e37	0.88327354
223	0x3f5ec55c	0.87019897
224	0x3f6cf9d9	0.9256874
225	0x3f67b850	0.90515614
226	0x3f627f55	0.88475543
227	0x3f5b467c	0.85654426
228	0x3f6726cb	0.9029357
229	0x3f66320e	0.8992013
230	0x3f565e4f	0.83737653
231	0x3f6038ce	0.8758668
232	0x3f645d0e	0.8920449
233	0x3f62c946	0.8858837
234	0x3f6d02f1	0.92582613
235	0x3f78078c	0.96886516
236	0x3f81cdab	1.014089
237	0x3f700170	0.93752193
238	0x3f54511b	0.8293626
239	0x3f66a4fe	0.9009551
240	0x3f6bea8f	0.92154783
241	0x3f892522	1.0714457
242	0x3f7434d0	0.95393085
243	0x3f543e30	0.8290739
244	0x3f63c66c	0.8897464
245	0x3f974923	1.1819195
246	0x3f60722c	0.8767421
247	0x3f629bbb	0.88518876
248	0x3f5cdcab	0.8627421
249	0x3f6b6d7d	0.9196394
250	0x3f730c79	0.94940907
251	0x3f641e55	0.89108783
252	0x3f635ac3	0.88810366
253	0x3f682d50	0.9069414
254	0x3f5882ca	0.8457457
255	0x3f63961a	0.8890091

bn1.bias f4 [512]
0	0x3e2ed878	0.17074764
1	0x3e40c8ee	0.18826649
2	0x3d06ab7a	0.032878377
3	0x3c9c3c9f	0.019071875
4	0x3d1aa244	0.037752405
5	0xbcdcc4d8	-0.026949331
6	0xba60063b	-0.000854585
7	0xbd98f066	-0.07467727
8	0xbe2380bd	-0.15967079
9	0xbcc10374	-0.023561217
10	0xbe237e4c	-0.15966147
11	0xbbc8b32a	-0.0061248736
12	0xbd99779c	-0.07493517
13	0x3e25da19	0.16196479
14	0x3e455cd6	0.19273695
15	0xbd7c1b4f	-0.06154948
16	0x3dcb8880	0.09938145
17	0x3ea57537	0.3231599
18	0xbdb1edad	-0.08687911
19	0xbe435bf9	-0.19078054
20	0xbeabeb32	-0.33577877
21	0xbe53a9ee	-0.20670292
22	0xbd6b8d6b	-0.057507914
23	0xbd5b2416	-0.05350121
24	0x3ea1be04	0.31590283
25	0xbec45b13	-0.38350734
26	0xbe814e7d	-0.25255194
27	0x3def40b8	0.11682266
28	0xbe899649	-0.2687247
29	0xbdf3d8d6	-0.119065925
30	0x3dbf9604	0.09354785
31	0x3dc7a047	0.09747367
32	0xbd84444e	-0.064583406
33	0xbdc93c4e	-0.09825955
34	0xbd1868ee	-0.037209444
35	0x3ddbfce2	0.10741593
36	0x3de25eee	0.11053263
37	0xbebf707a	-0.373905
38	0x3e1eef61	0.15521003
39	0x3da8f73b	0.082502805
40	0x3ea52440	0.3225422
41	0x3e2059b1	0.15659215
42	0xbcaca416	-0.021074336
43	0x3e667c5a	0.22508374
44	0x3dd0753d	0.101786114
45	0xbe01ada9	-0.12663902
46	0xbc397ad8	-0.011320792
47	0xbe2c7ba1	-0.16844036
48	0x3e5826fe	0.21108624
49	0xbdc387cc	-0.095473856
50	0xbd749e3b	-0.059721213
51	0x3dc38aff	0.09547996
52	0xbe591577	-0.21199594
53	0x3e24e9f8	0.16104877
54	0xbdec8cd0	-0.11550295
55	0x3e021548	0.1270343
56	0x3e4d2c90	0.2003653
57	0xbd90721c	-0.07053015
58	0x3eabea1e	0.33577055
59	0x3e497132	0.19672087
60	0xbe3a6eca	-0.18206325
61	0x3e5af91e	0.21384093
62	0x3e84e35e	0.25954717
63	0xbddfcfb7	-0.1092829
64	0x3e7a3230	0.24433208
65	0x3e6546bf	0.22390269
66	0x3e0496a1	0.12948085
67	0xbe35ef2c	-0.17767018
68	0x3da87163	0.08224752
69	0xbd9b5566	-0.07584648
70	0xbddd9159	-0.108187385
71	0xbe1d9be5	-0.153915
72	0x3db93575	0.09043399
73	0x3e1f5db2	0.15563086
74	0x3de625d7	0.11237686
75	0xbe24fed9	-0.16112842
76	0xbe055cbe	-0.1302366
77	0x3e55f054	0.20892459
78	0x3d6cd172	0.05781693
79	0x3e4b621d	0.19861646
80	0x3e5efe68	0.21776736
81	0x3db5f9c2	0.08885528
82	0xbd3ab6e7	-0.045584586
83	0x3ea19548	0.31559205
84	0xbd18d8b6	-0.037316047
85	0x3e1086f3	0.14113979
86	0x3dd41017	0.103546314
87	0x3e29e145	0.1658984
88	0x3d2098a5	0.039208073
89	0x3d487635	0.048940856
90	0xbdd44c67	-0.10366135
91	0x3d4b1815	0.049583513
92	0x3e9b473e	0.3032779
93	0xbe1beceb	-0.15227096
94	0x3e39344d	0.18086357
95	0xbdd994a4	-0.10624054
96	0xbd7bc1fc	-0.061464295
97	0x3e840e3b	0.25792107
98	0xbcf71f52	-0.030166302
99	0x3e2b1ee0	0.16710997
100	0xbdec17db	-0.115279876
101	0x3e2cad39	0.16862954
102	0xbda9e295	-0.0829517
103	0xbe65e052	-0.22448853
104	0xbd11d232	-0.03560085
105	0x3ddc1b85	0.107474364
106	0x3e0b05e0	0.1357646
107	0xbe89842f	-0.2685866
108	0x3d580673	0.052740525
109	0xbe8b11b5	-0.27161947
110	0xbc656a3a	-0.014002377
111	0x3bb98fdb	0.005662901
112	0xbc58f10a	-0.013241062
113	0x3e466004	0.19372565
114	0xbc519eed	-0.0127942385
115	0x3e218edf	0.15777157
116	0x3e052be6	0.13005027
117	0x3e04a6e7	0.12954293
118	0x3e03d092	0.12872532
119	0x3d1eb3f6	0.038745843
120	0x3de5755c	0.11204025
121	0xbe2f14b7	-0.17097746
122	0x3dec1bd7	0.115287475
123	0x3ec15025	0.37756458
124	0x3de034ad	0.10947547
125	0x3e0bbe52	0.1364682
126	0x3dcaeee9	0.0990885
127	0xbdd94488	-0.106087744
128	0xbd4c851d	-0.049931634
129	0xbea47d02	-0.32126623
130	0x3cc4d214	0.024025954
131	0x3e93c1ef	0.28858897
132	0x3da65080	0.08120823
133	0x3e87cefa	0.26525098
134	0xbe15ee9f	-0.14641808
135	0xbe216e86	-0.15764818
136	0xbe52d5b1	-0.2058933
137	0x3dab6719	0.08369274
138	0xbc8fb164	-0.017540641
139	0xbb88d39c	-0.0041756164
140	0x3e8712a3	0.26381406
141	0x3e6a69f9	0.22891988
142	0x3e096ca8	0.13420355
143	0x3e101cc0	0.14073467
144	0x3dce5ecd	0.100766756
145	0x3dca12af	0.09866845
146	0x3e149aca	0.14512172
147	0x3e9f5d76	0.31125993
148	0x3a7ce184	0.00096466416
149	0x3e69d5a8	0.2283541
150	0x3ec0a211	0.37623647
151	0x3de06798	0.10957259
152	0xbcedd409	-0.02903177
153	0x3e1bb362	0.15205148
154	0x3e966675	0.29375044
155	0x3dec6dc7	0.11544376
156	0xbe840038	-0.25781417
157	0x3e6978b4	0.22799951
158	0x3dc0a3f1	0.09406269
159	0xbdd4da21	-0.10393167
160	0x3e4f47ff	0.20242308
161	0x3dc693fc	0.096961945
162	0xbbf42824	-0.007451074
163	0x3c70a714	0.014688272
164	0x3e87109b	0.26379856
165	0xbd10f7db	-0.035392623
166	0xbe2165f4	-0.15761548
167	0x3b151ba2	0.0022752066
168	0x3e0d156b	0.13777702
169	0x3e89d1cb	0.26917872
170	0xbe2f43b3	-0.17115669
171	0x3dae50fa	0.08511539
172	0xbd70337b	-0.058642846
173	0x3e3fcef3	0.18731289
174	0x3de51c7e	0.11187075
175	0x3d5aaaa5	0.053385396
176	0x3e9045dc	0.28178298
177	0x3ed9a4dd	0.42508593
178	0x3d3a7773	0.045524072
179	0x3dc8458a	0.097788885
180	0x3e54d003	0.20782475
181	0xbe990065	-0.29883114
182	0xbda6d813	-0.08146682
183	0x3d04f88e	0.032463603
184	0xbda5d9f0	-0.08098209
185	0x3c45f00e	0.012081159
186	0x3e750a64	0.23929745
187	0xbd934e7e	-0.071927056
188	0xbe42864d	-0.18996544
189	0xbd4075ea	-0.04698745
190	0xbe65c664	-0.22438961
191	0x3e8b863d	0.27250853
192	0x3e015352	0.1262944
193	0xbe1cb79a	-0.15304413
194	0xbdcd8f19	-0.10037059
195	0x3e0d070d	0.13772221
196	0x3e96afde	0.2943105
197	0x3dab5400	0.08365631
198	0x3e4390be	0.19098184
199	0x3d3bd356	0.045855843
200	0xbd9cbbe0	-0.07653022
201	0xbc3f10f0	-0.011661753
202	0xbe14f590	-0.145468
203	0xbe7f0428	-0.24903929
204	0xbe340f25	-0.17583902
205	0xbe233773	-0.15939121
206	0x3d5e6c0d	0.054302264
207	0x3d15cf21	0.036574487
208	0x3d5cdd51	0.053922
209	0x3dea4de4	0.11440638
210	0x3e7f02fc	0.24903482
211	0x3e070817	0.1318668
212	0xbd72af48	-0.059249192
213	0x3cffbe9d	0.031218821
214	0x3eb52de1	0.35386565
215	0x3d3f38f0	0.04668516
216	0xbd6c4b4f	-0.057689007
217	0x3d175103	0.036942493
218	0x3e743f3b	0.23852246
219	0x3d86eaac	0.06587729
220	0x3e21f074	0.15814382
221	0x3e244556	0.16042075
222	0x3d75474c	0.059882447
223	0xbeb50055	-0.35351816
224	0x3e16ebd4	0.14738399
225	0x3def2f29	0.11678917
226	0x3e25fbf0	0.16209388
227	0x3dda887d	0.10670564
228	0x3dba6f2c	0.091032356
229	0x3dd0ec4d	0.10201321
230	0xbca3159a	-0.019907761
231	0x3e2d3c68	0.16917574
232	0xbe2ce3a7	-0.16883717
233	0x3d37064d	0.044683743
234	0x3de46446	0.11151938
235	0x3e7198d2	0.23593453
236	0x3df14100	0.11779976
237	0x3e738f2d	0.23785086
238	0xbe834d86	-0.25645083
239	0xbcc0efb1	-0.023551794
240	0xbd141426	-0.036152028
241	0x3dd20290	0.10254395
242	0xbe835342	-0.25649458
243	0xbe9ec20d	-0.31007424
244	0x3dd956e3	0.106122755
245	0x3dc03f79	0.093871064
246	0x3da93271	0.08261574
247	0x3be229d9	0.0069019613
248	0xbc46355f	-0.012097686
249	0xbc183120	-0.009289056
250	0xbd9414d7	-0.072305374
251	0x3e092f17	0.1339687
252	0xbe86d676	-0.26335496
253	0x3e9b3b1f	0.30318543
254	0xbd84f16f	-0.06491362
255	0x3e725ebb	0.2366895

bn1.running_mean f4 [512]
0	0x3e97891e	0.295968
1	0x3e1040a4	0.14087158
2	0x3e3ea5c8	0.18617928
3	0x3f393424	0.72345185
4	0x3edb6f7e	0.428585
5	0x3f5bb30b	0.8582007
6	0x3f288691	0.6583033
7	0x3f6b1a51	0.9183703
8	0x3f7a92be	0.9788016
9	0x3f8cdf8a	1.1005719
10	0x3e00e27c	0.12586397
11	0x3fa432bf	1.2827986
12	0x3e5f70c8	0.21820366
13	0x3fe20635	1.7658144
14	0x3e71ea68	0.23624575
15	0x3f9b3159	1.2124435
16	0x3fb3703e	1.4018629
17	0x3f6523ba	0.8950764
18	0x3e7e2de2	0.2482219
19	0x3f9e5bb8	1.237174
20	0x3f7cdfb6	0.98778856
21	0x3f0da34a	0.55327284
22	0x3fd35836	1.6511295
23	0x3f02b482	0.51056683
24	0x3fa234f4	1.267241
25	0x3f8f5341	1.1197282
26	0x3f62193a	0.8831974
27	0x3f173559	0.5906578
28	0x3f60ff76	0.878898
29	0x3eddb7b3	0.43304214
30	0x3f47b178	0.7800517
31	0x4007f104	2.1240854
32	0x3f157820	0.5838642
33	0x3fc48ce5	1.5355498
34	0x3fbd293f	1.4778212
35	0x3f8a8685	1.0822302
36	0x3e873e90	0.2641492
37	0x3f99f410	1.2027607
38	0x3f6d0da0	0.92598915
39	0x3ec7d299	0.3902786
40	0x3fb2503e	1.3930738
41	0x3f3fead0	0.7496767
42	0x3f14b1c4	0.5808375
43	0x3fb8ee04	1.4447637
44	0x3eabedce	0.33579868
45	0x3fc11c2c	1.5086722
46	0x3e5e8a5a	0.21732464
47	0x3f199c6f	0.60004324
48	0x3f966881	1.1750642
49	0x3faa53f5	1.3306872
50	0x3e1f49c4	0.15555483
51	0x3fbc6199	1.4717284
52	0x3f7ffeaf	0.9999799
53	0x3fa5a85d	1.2942005
54	0x3fd4b993	1.6619133
55	0x3f8165d6	1.0109203
56	0x3d310007	0.043212917
57	0x3fdc26cc	1.719934
58	0x3f86d7c7	1.05346
59	0x3f2de3f4	0.67925954
60	0x3f8559e6	1.041806
61	0x3f8f975e	1.1218069
62	0x3dfc96df	0.12333464
63	0x4007f70a	2.124453
64	0x3f7b93a0	0.9827213
65	0x3e93c2c6	0.28859538
66	0x3fbbd076	1.4672992
67	0x3f10f44f	0.56622785
68	0x3fca91cd	1.5825745
69	0x3fb1f7d3	1.3903755
70	0x3f892b67	1.071637
71	0x3ec230db	0.379279
72	0x3eaa4791	0.33257726
73	0x3f916c79	1.1361228
74	0x3f2abf78	0.6669841
75	0x3f447a67	0.7674927
76	0x3fc3cc49	1.5296718
77	0x3f67466f	0.9034185
78	0x3f444c5b	0.7667901
79	0x3f6b5d36	0.91939104
80	0x3f78989c	0.97107863
81	0x3ed6bbab	0.41940054
82	0x3fcfad0e	1.6224687
83	0x00000004	6e-45
84	0x3f980e8d	1.187944
85	0x3f97779c	1.1833377
86	0x3ef8060e	0.4844212
87	0x3e898a66	0.26863402
88	0x3f4ea174	0.8071511
89	0x3f743d25	0.954058
90	0x3fc015d0	1.5006657
91	0x3e01b730	0.12667537
92	0x3e9ebc00	0.31002808
93	0x3f98d8cf	1.1941165
94	0x3f844f96	1.0336788
95	0x3f89a28d	1.0752732
96	0x3f3ef194	0.7458737
97	0x3e51b605	0.20479591
98	0x3fb6d242	1.4282916
99	0x3f33329e	0.6999911
100	0x3f0f7a72	0.5604621
101	0x3ed302bf	0.41213033
102	0x3f46ab04	0.776047
103	0x3f631d96	0.8871702
104	0x3fd5d4dd	1.6705586
105	0x3f373bab	0.7157542
106	0x3ec1e46c	0.37869585
107	0x3f38203f	0.71924204
108	0x3d0b231a	0.033969022
109	0x3fd19f9c	1.6376834
110	0x3dc8a7c8	0.09797627
111	0x3f5ecc61	0.8703061
112	0x3f6df6ce	0.9295472
113	0x3e305936	0.17221531
114	0x3ec3d97c	0.38251865
115	0x3fa860a9	1.3154498
116	0x3f47f225	0.7810386
117	0x3eca2c91	0.39487126
118	0x3f277b3e	0.6542243
119	0x3d9afa93	0.075673245
120	0x3e3641a6	0.1779848
121	0x3f2ab239	0.66678196
122	0x3f059b39	0.52189976
123	0x3f293e4f	0.661107
124	0x3d578d3c	0.052624926
125	0x3e7086b9	0.23488893
126	0x3fa090d4	1.2544198
127	0x3f2bf40c	0.6716926
128	0x3f52bcd6	0.8231939
129	0x3f32a4ba	0.697826
130	0x3f3d779d	0.7401064
131	0x3f7ce8c2	0.9879266
132	0x3ef92a44	0.4866506
133	0x3e73859c	0.23781437
134	0x3e91f26e	0.28505272
135	0x3fd9c223	1.7012371
136	0x3e69543a	0.22786036
137	0x3f979bda	1.1844437
138	0x3f475928	0.77870417
139	0x3f8059e5	1.0027434
140	0x3f499435	0.7874177
141	0x3eb37c9f	0.35056016
142	0x3ec5d468	0.38638616
143	0x3fa4d8d4	1.2878671
144	0x3f8a28b8	1.0793676
145	0x3f3bc037	0.7334017
146	0x3f94f085	1.1635901
147	0x3f53ba74	0.8270638
148	0x3f02f427	0.51153797
149	0x3e145dcd	0.14488907
150	0x3f2a319f	0.66481966
151	0x4003d363	2.059777
152	0x3e955355	0.2916514
153	0x3f592a8a	0.84830534
154	0x3eb72a98	0.35774684
155	0x3e4ebbaa	0.20188776
156	0x3ea28bcb	0.3174728
157	0x3e5ad3cc	0.21369857
158	0x3f60764a	0.87680495
159	0x3ee84600	0.45365906
160	0x3d94feff	0.07275199
161	0x3f823973	1.0173782
162	0x3e378937	0.17923437
163	0x3f4ee86b	0.8082339
164	0x3f888b76	1.066756
165	0x3f9eb9aa	1.240041
166	0x3ee7dfb4	0.4528786
167	0x3fbee447	1.4913415
168	0x3fa49a09	1.2859508
169	0x3f47a2d5	0.77982837
170	0x3fd9639b	1.6983522
171	0x3fb5f105	1.4214178
172	0x3f5a790e	0.85340965
173	0x3dfa3a15	0.122181095
174	0x400d132e	2.2042956
175	0x3d98e0c6	0.07464747
176	0x3fdcd46f	1.725233
177	0x3fbacb4e	1.4593294
178	0x3f86440c	1.0489516
179	0x3db76fa0	0.08956838
180	0x4018a1e3	2.3848808
181	0x40015e01	2.0213625
182	0x3fb208cb	1.3908933
183	0x3fc3700b	1.5268568
184	0x3fa9aa48	1.3255091
185	0x3f87f403	1.0621341
186	0x3f643585	0.89144164
187	0x3fabce87	1.3422402
188	0x3fb03877	1.3767232
189	0x3ea99616	0.3312232
190	0x3fc3a014	1.5283227
191	0x40050831	2.078625
192	0x3e03dadc	0.12876457
193	0x3ec48fce	0.38390964
194	0x3efd695b	0.49494442
195	0x3fb8e1ab	1.4443868
196	0x3f57c254	0.84280896
197	0x3e8b3d18	0.27195048
198	0x3f18451a	0.5948044
199	0x3f000997	0.5001463
200	0x3faad3ca	1.3345883
201	0x3fff9f5e	1.997051
202	0x3f7aee21	0.98019606
203	0x3f336e45	0.7009013
204	0x3ed3e0b3	0.4138237
205	0x3f90b624	1.1305585
206	0x3f4f1949	0.8089796
207	0x3f7dff84	0.9921801
208	0x3fb7ece4	1.4369168
209	0x3d4d35f3	0.050100278
210	0x3f1c8d58	0.61153173
211	0x3f0ce9d0	0.5504427
212	0x3f93b356	1.1539104
213	0x3f5951c4	0.8489039
214	0x3f1d1b69	0.6136995
215	0x40292bc9	2.6432974
216	0x3f09fca1	0.53901106
217	0x3ec44101	0.38330844
218	0x3f8f2315	1.1182581
219	0x400c890d	2.195865
220	0x3f95480f	1.1662616
221	0x3f9bb78f	1.2165393
222	0x3f7783c2	0.9668542
223	0x3fa97833	1.3239807
224	0x3f866921	1.0500833
225	0x3ed87f34	0.42284548
226	0x3f3c74cb	0.7361571
227	0x3f9a0285	1.2032019
228	0x3f996507	1.1983956
229	0x3f902672	1.1261733
230	0x3e7fb538	0.24971473
231	0x3f1b7314	0.6072247
232	0x3f1cdbea	0.6127306
233	0x3fa8517f	1.3149871
234	0x3f23e619	0.64022976
235	0x3fab8ab1	1.34017
236	0x3ee4dcc9	0.44699696
237	0x3f5c75ae	0.86117065
238	0x3f4e5a5b	0.8060662
239	0x3f476435	0.7788728
240	0x3eaa0488	0.33206582
241	0x3fe8c329	1.8184558
242	0x3f986016	1.1904323
243	0x3ea29667	0.31755373
244	0x401dcb93	2.4655502
245	0x3d8cfde2	0.06884362
246	0x3fa735a7	1.3063248
247	0x3f0068f3	0.5016014
248	0x3e9f6dbc	0.31138408
249	0x3feba3c8	1.8409357
250	0x3f3b4c91	0.73163706
251	0x3f3984ba	0.7246815
252	0x3ca45489	0.02005984
253	0x3f526162	0.82179844
254	0x3ef96e6b	0.48717055
255	0x3fc15b31	1.5105954

bn1.running_var f4 [512]
0	0x3ea16ef0	0.3152995
1	0x3d5fe965	0.05466594
2	0x3e0af9e7	0.13571893
3	0x3fd11b4b	1.6336454
4	0x3f078132	0.5293151
5	0x403a420e	2.9102817
6	0x3f83eb25	1.0306135
7	0x3fb89a2f	1.4422053
8	0x40104098	2.2539425
9	0x3f9b7ea7	1.2148026
10	0x3da3425b	0.07971641
11	0x3fe4a739	1.7863532
12	0x3db9bc60	0.09069133
13	0x4072348a	3.7844567
14	0x3e67401a	0.22583047
15	0x401fad5f	2.4949567
16	0x4018233f	2.3771513
17	0x40112cbc	2.2683554
18	0x3ea19433	0.3155838
19	0x408a8092	4.3281946
20	0x3ff7a653	1.9347633
21	0x3f9a35a9	1.2047626
22	0x4067ff37	3.624952
23	0x3f4021d8	0.7505164
24	0x40434542	3.0511022
25	0x40488d41	3.1336215
26	0x3ff43775	1.9079424
27	0x3f7445d9	0.9541908
28	0x4015cb46	2.3405318
29	0x3eea6c17	0.4578559
30	0x3f800853	1.000254
31	0x4057dd83	3.372895
32	0x3e0c91c2	0.13727477
33	0x402bba11	2.6832316
34	0x4073d7c3	3.810044
35	0x3ef4ff4f	0.47851035
36	0x3dd2f5e1	0.10300804
37	0x3fe63618	1.7985258
38	0x400c1abe	2.1891322
39	0x3f1d01c4	0.6133082
40	0x403fa0b7	2.9941843
41	0x3fed4c65	1.8538939
42	0x3eeccd39	0.46250322
43	0x406bfb23	3.6872032
44	0x3f214974	0.63002706
45	0x40256d54	2.5847979
46	0x3e2e4f70	0.1702249
47	0x3fa0baf6	1.2557056
48	0x40129102	2.2901006
49	0x40113d67	2.2693727
50	0x3e240b5a	0.16019955
51	0x405e91b3	3.4776428
52	0x3faefe04	1.367127
53	0x405948a6	3.395059
54	0x40a56a2c	5.1692104
55	0x3f9db5d9	1.232112
56	0x3d04f745	0.032462377
57	0x4011a45c	2.2756567
58	0x3fc3c548	1.529458
59	0x3f01fbe9	0.5077501
60	0x401d2596	2.455419
61	0x402dc363	2.7150505
62	0x3d984715	0.07435433
63	0x400ddc0a	2.216555
64	0x3fdc3f4c	1.7206817
65	0x3e6fe3a6	0.23426685
66	0x3fde70f7	1.7378224
67	0x3f9d8158	1.2305098
68	0x40492479	3.142851
69	0x400aee0c	2.1707792
70	0x3fe8c955	1.8186442
71	0x3ec3e614	0.38261473
72	0x3ef64366	0.48098296
73	0x400468a1	2.068886
74	0x3f5a02ed	0.85160714
75	0x3fca9f66	1.5829895
76	0x40926690	4.57502
77	0x3fb0ed1d	1.3822361
78	0x3fdb4e7d	1.7133328
79	0x40250391	2.5783427
80	0x401e0bc6	2.4694686
81	0x3f6e85be	0.93172824
82	0x40773bf8	3.8630352
83	0x00000004	6e-45
84	0x40344749	2.816851
85	0x3ff8925a	1.9419663
86	0x3e74cc49	0.23906054
87	0x3eb21561	0.34781936
88	0x3f8ebb28	1.1150866
89	0x3fb5430a	1.4161084
90	0x403a6372	2.9123197
91	0x3e0d5d59	0.1380514
92	0x3ebadb80	0.3649559
93	0x4017d3b6	2.3722968
94	0x40174cd1	2.3640635
95	0x4027ab52	2.6198316
96	0x3fbf50a7	1.4946488
97	0x3ea5a909	0.32355526
98	0x40843128	4.1310005
99	0x3f818ec7	1.0121697
100	0x3f81d026	1.0141647
101	0x3f756972	0.9586402
102	0x3f95940e	1.1685808
103	0x3f8becd3	1.0931648
104	0x409ea2c6	4.95737
105	0x3f6bb861	0.92078215
106	0x3ee67aa9	0.45015457
107	0x3fe97af1	1.8240644
108	0x3ccf6375	0.02531598
109	0x3fcced1a	1.6009858
110	0x3dc62668	0.09675294
111	0x4002fd50	2.046711
112	0x3ffb221f	1.9619788
113	0x3dca28a7	0.09871035
114	0x3eae96ba	0.3409937
115	0x4032db90	2.794651
116	0x3f938da9	1.1527606
117	0x3f3ebf31	0.74510485
118	0x3fb8f342	1.4449236
119	0x3be2c3fd	0.0069203363
120	0x3e82843e	0.25491518
121	0x3fb8476a	1.4396794
122	0x3f87a635	1.0597597
123	0x3fd115b1	1.6334745
124	0x3cfc5ec0	0.0308069
125	0x3e943996	0.28950185
126	0x40055c6b	2.0837657
127	0x3f70524d	0.9387558
128	0x3fa59de3	1.2938808
129	0x3eb11d64	0.34592736
130	0x3fed84f1	1.8556195
131	0x40370923	2.8599327
132	0x3f6cc03a	0.92480814
133	0x3e1e1d43	0.1544085
134	0x3e637a24	0.22214562
135	0x4097b6cc	4.741064
136	0x3ec9d923	0.39423475
137	0x3f72db6a	0.9486605
138	0x3fa3e552	1.2804358
139	0x4016d658	2.3568325
140	0x400b1bb2	2.1735654
141	0x3e68a4d2	0.22719124
142	0x3edb7e0b	0.428696
143	0x407382ed	3.804866
144	0x405c1eda	3.439383
145	0x3fc7e504	1.5616765
146	0x408e6c94	4.450754
147	0x400c12d6	2.1886497
148	0x3e979b83	0.29610834
149	0x3dcc2624	0.09968212
150	0x3fba81a5	1.4570814
151	0x40ccb168	6.396656
152	0x3e865fbd	0.26244918
153	0x3ff81cd1	1.9383794
154	0x3f1a1b43	0.6019785
155	0x3e6730b6	0.22577175
156	0x3f0fd006	0.56176794
157	0x3e06dbc0	0.13169765
158	0x3ff8c2b0	1.9434414
159	0x3f520386	0.82036626
160	0x3da71e80	0.08160114
161	0x3f7e90fb	0.9943997
162	0x3e2e33bc	0.17011923
163	0x3fadfc8c	1.3592696
164	0x3f8c9689	1.098344
165	0x405102c2	3.2657933
166	0x3f37eec7	0.7184872
167	0x40208efc	2.508727
168	0x4087865e	4.2351522
169	0x3ead1c4c	0.3381065
170	0x406e4910	3.7232094
171	0x40873bd7	4.2260547
172	0x3f91c5f4	1.1388535
173	0x3ddc1a2d	0.1074718
174	0x40d32c4e	6.5991583
175	0x3d7dfa43	0.062006246
176	0x403ab649	2.9173758
177	0x407613ef	3.8449667
178	0x3f1ecffd	0.62036115
179	0x3df2a863	0.118485235
180	0x40e8738d	7.2641053
181	0x4060d86d	3.5132096
182	0x4028b5d0	2.636097
183	0x40879a04	4.2375507
184	0x4066b4ad	3.6047776
185	0x4035ebd0	2.8425179
186	0x40173216	2.362432
187	0x4003d6b4	2.0599794
188	0x40253a9b	2.581702
189	0x3f13b3a6	0.57695997
190	0x40108782	2.2582707
191	0x3fd8777f	1.6911467
192	0x3e197bf8	0.14988697
193	0x3f1d1b21	0.6136952
194	0x3f591a2e	0.8480557
195	0x406787c5	3.6176617
196	0x403a3fb6	2.9101386
197	0x3e1342eb	0.14380996
198	0x3f9162a3	1.1358227
199	0x3f7dd784	0.99156976
200	0x40073829	2.1128027
201	0x407f3a3a	3.9879289
202	0x3fb93f30	1.4472408
203	0x400b3872	2.1753201
204	0x3f5f3853	0.8719532
205	0x403b842f	2.9299428
206	0x3faf2263	1.3682369
207	0x3fa07311	1.2535115
208	0x406482a0	3.5704727
209	0x3cc39b87	0.023877872
210	0x3f69a08e	0.9126061
211	0x3f8f97d5	1.121821
212	0x404410af	3.0635183
213	0x3fcda3d7	1.6065625
214	0x3f8b304f	1.0874118
215	0x410dfb58	8.873863
216	0x3f42c6dd	0.7608469
217	0x3ebd1b57	0.3693492
218	0x40179575	2.3684971
219	0x40c844f5	6.2584176
220	0x401d5c74	2.458768
221	0x4049b73d	3.151809
222	0x3f9d640f	1.229616
223	0x3ff8f5a8	1.9449968
224	0x3fbefed5	1.4921519
225	0x3f014030	0.5048857
226	0x3f96d6f4	1.1784348
227	0x4061bbef	3.5270956
228	0x40682481	3.627228
229	0x402538e3	2.581597
230	0x3efb4f14	0.4908377
231	0x3f08a4eb	0.53376645
232	0x3fc581e6	1.5430267
233	0x40834fbb	4.1034827
234	0x40008356	2.008016
235	0x402b668d	2.6781342
236	0x3ebbf0e4	0.36707222
237	0x40329c3c	2.7907858
238	0x3fe266e4	1.768765
239	0x3fe836b7	1.8141698
240	0x3f213011	0.6296397
241	0x40af4f88	5.4784584
242	0x401b7d1b	2.4295108
243	0x3f0bd272	0.5461799
244	0x40227c22	2.5388265
245	0x3c1d3208	0.009594448
246	0x401c152f	2.438793
247	0x3f74338f	0.9539117
248	0x3eff7cdd	0.4989995
249	0x40c7471e	6.2274313
250	0x3f5201b9	0.8203388
251	0x4001cf40	2.0282745
252	0x3c18087f	0.009279369
253	0x40155735	2.3334477
254	0x3f887496	1.0660579
255	0x400f24a5	2.2366116

fc2.weight f4 [256, 514]
0	0x3c7dcdd9	0.015490972
1	0xbbfacf5a	-0.0076541128
2	0x3d7533bb	0.059863787
3	0x3d370c0f	0.044689234
4	0xbc1ae661	-0.009454341
5	0x3d1bb0ee	0.03801053
6	0xbd419d4a	-0.047269143
7	0x3d2a1ed3	0.041533303
8	0xbbc6cec8	-0.0060671307
9	0x3cf2744d	0.029596472
10	0x3d9db3ee	0.077003345
11	0x3ce0fce2	0.027464334
12	0x3c5f9250	0.013645723
13	0xbd34f825	-0.04418196
14	0xbd2b1834	-0.04177113
15	0x3de95501	0.11393166
16	0xbc55add6	-0.013041934
17	0xbcdbfbfa	-0.02685355
18	0x3c187e89	0.009307512
19	0x3cde4b9d	0.027135665
20	0xbced6a37	-0.028981311
21	0x3d9950df	0.07486128
22	0xbd102608	-0.03519252
23	0x3d90ee2e	0.07076679
24	0x3c8ad751	0.016948374
25	0x3cd7d210	0.026345283
26	0x3aca9ebf	0.0015458687
27	0xbd7cbbab	-0.06170241
28	0xbcee47ec	-0.02908703
29	0x3c217534	0.009854604
30	0xbd7e7a1b	-0.062128168
31	0xbcfd3d75	-0.030913094
32	0xbcd32b3d	-0.025777454
33	0x3c86a2d9	0.016435074
34	0x3d456bed	0.04819863
35	0x3d0ede74	0.034880117
36	0x3d609d43	0.054837476
37	0xbca7befb	-0.020476809
38	0xbd8e7d64	-0.0695751
39	0xbd8104e2	-0.062997594
40	0xbd1b2518	-0.037877172
41	0x3c8c500b	0.017128011
42	0x3b9bc2e1	0.004753456
43	0x3c67519e	0.01411858
44	0xbd4107a7	-0.04712644
45	0x3cc6ab26	0.024251532
46	0xbcc44d69	-0.023962693
47	0xbd7213a7	-0.059100773
48	0x3c3a76a5	0.011380826
49	0xbcb4df61	-0.022079172
50	0x3ce324e2	0.027727548
51	0x3c382618	0.011239551
52	0x3d82ad88	0.06380755
53	0xbc4b7cfc	-0.012419935
54	0x3abb748e	0.0014301704
55	0xbd5edd93	-0.05441053
56	0xbe06d8bc	-0.13168615
57	0xbc020dba	-0.007937843
58	0xbd71c668	-0.059027106
59	0x3d19551e	0.03743469
60	0x3d10f705	0.035391826
61	0xbd98c876	-0.0746011
62	0xbc8d4d35	-0.01724873
63	0xbd09b1db	-0.03361688
64	0x3d585b50	0.052821457
65	0x3cbe6c95	0.023245135
66	0x3c78f055	0.015194018
67	0xbd38760c	-0.045034453
68	0xba813774	-0.0009858445
69	0x3d3723fe	0.04471206
70	0xbc1ba757	-0.009500346
71	0x3d8b893b	0.06813284
72	0xbd3db0be	-0.046311133
73	0xbb76345d	-0.0037567832
74	0xbd66935f	-0.056292888
75	0xbc9fee32	-0.01952276
76	0xbd255e26	-0.04037299
77	0x3d0023b0	0.031284034
78	0xbbea57b4	-0.0071515683
79	0xbd738a12	-0.059457846
80	0xbc8c89d4	-0.017155565
81	0x3c823065	0.015892217
82	0xbc22acd4	-0.009928901
83	0xbd9cdd2e	-0.07659374
84	0xbcdc863f	-0.026919482
85	0x3cf89826	0.030345988
86	0xbd1b7bee	-0.037959985
87	0xbcd8e9f9	-0.026478754
88	0xbd704fa9	-0.05866972
89	0xbd0e5064	-0.034744635
90	0x3a30b193	0.0006740328
91	0xbd20dfea	-0.03927604
92	0xbd8cb17c	-0.0686979
93	0x3d0e97bc	0.034812674
94	0xbbad8c75	-0.005296285
95	0x3c9409a6	0.018071007
96	0x3d8fdcc3	0.07024529
97	0xbc88dbdf	-0.016706405
98	0xbce2519b	-0.027626803
99	0xbd131165	-0.03590526
100	0xbd5af2f5	-0.053454358
101	0xbc6710b1	-0.014103101
102	0x3d2edab9	0.04268906
103	0x3bddd91f	0.0067702676
104	0xba93f833	-0.0011289179
105	0xbd79b393	-0.06096227
106	0x3ce099f9	0.02741717
107	0xbd0471dd	-0.03233515
108	0x3ce4c47e	0.027925726
109	0xbca362ab	-0.01994451
110	0xbd7a8adb	-0.06116758
111	0x3d4568ae	0.048195533
112	0xbbd55054	-0.00650982
113	0xbd0698fd	-0.032860745
114	0x3d946a6e	0.07246862
115	0x3d4e50c2	0.050369985
116	0xbd194e2e	-0.037428074
117	0xbd4782ea	-0.048708834
118	0x3d1ce900	0.038308144
119	0xbc174583	-0.0092328815
120	0x3cb6df78	0.022323355
121	0xbc79533c	-0.0152175985
122	0x3d1ec398	0.03876075
123	0xbd4054ea	-0.04695598
124	0xbd0b0837	-0.03394338
125	0x3c401809	0.01172448
126	0x3cd930ea	0.026512582
127	0x39c3527c	0.00037254754
128	0x3cfe628a	0.031052846
129	0x3c8db022	0.0172959
130	0xbd122fb3	-0.03569002
131	0xbc46c162	-0.012131067
132	0xbcc63eca	-0.024199862
133	0x3d0ff26f	0.035143312
134	0x3d353d45	0.044247884
135	0x3c0f1ae2	0.008734437
136	0x3c579ed2	0.013160424
137	0xbd6d98dd	-0.05800711
138	0xbb67486a	-0.0035290965
139	0xbd55adaa	-0.052167572
140	0x3cae695b	0.021290472
141	0xbc849f7f	-0.016189335
142	0xbca58334	-0.020204164
143	0x3d12c173	0.03582902
144	0x3d0b0d74	0.033948377
145	0x3d72fd2f	0.059323486
146	0xbc5eb233	-0.013592291
147	0x3bfb1941	0.0076629226
148	0x3cc94695	0.024569789
149	0x3ceb6bac	0.028737865
150	0x3bc1d6da	0.005915505
151	0xbd046864	-0.032326117
152	0x3be17e2c	0.006881496
153	0x3ba40140	0.005005032
154	0x3b923971	0.004462414
155	0xbd42d20e	-0.047563605
156	0xbb5525e6	-0.003252381
157	0xbd918e45	-0.07107214
158	0xbd386c80	-0.04502535
159	0xbca73afa	-0.020413864
160	0xbd794ddc	-0.060865268
161	0xbb8943d5	-0.0041889944
162	0xbb957742	-0.004561336
163	0x3d14d3ed	0.03633492
164	0x3ccab893	0.024746215
165	0x3cfd4601	0.03091717
166	0x3d83147b	0.06400391
167	0xbc6a4935	-0.0142996805
168	0x3c0e905b	0.008701409
169	0x3cf5de50	0.030013233
170	0x3c9bf330	0.01903686
171	0x3d7f5f33	0.06234665
172	0xbc80d4d7	-0.01572649
173	0xbda10cfb	-0.07863804
174	0xbcc190fe	-0.023628708
175	0xbd3e6d28	-0.04649082
176	0xbd3bc3c8	-0.04584101
177	0xbd8bcd54	-0.068262726
178	0x3cc26f35	0.023734668
179	0x3a7baa5b	0.0009600275
180	0xbd99c8da	-0.075090125
181	0xbd21e210	-0.03952223
182	0x3d5aa625	0.053381104
183	0xbc9c2e50	-0.019065052
184	0xbd37c444	-0.044864908
185	0x3d6d47e6	0.057929896
186	0x3c9fd3dd	0.019510204
187	0x3c849445	0.016183982
188	0x3c84ff80	0.016235113
189	0x3a97cbcf	0.0011581125
190	0x3c9624be	0.018328067
191	0x3d94a886	0.07258706
192	0xbd585335	-0.052813727
193	0xbcc125ba	-0.02357756
194	0x3d7b45bc	0.0613458
195	0x3b9465d2	0.0045287395
196	0xbc97b3f4	-0.018518426
197	0xbc0689ed	-0.008211595
198	0x3ce58f34	0.028022386
199	0xbd0c6fd4	-0.034286335
200	0xbc54be7c	-0.012984868
201	0x3d0ad9eb	0.03389923
202	0x3d96e289	0.07367427
203	0x3d9c978f	0.07646095
204	0x3d12cfdd	0.035842765
205	0x3d46a3d0	0.048496068
206	0xbd9b17ed	-0.07572923
207	0x3c522170	0.012825355
208	0xbd7ba767	-0.061438944
209	0xbb7fcbbb	-0.0039031345
210	0xbd290610	-0.041265547
211	0xbc4e2f96	-0.012584588
212	0x3d5da8aa	0.05411593
213	0x3d2878b9	0.041130755
214	0x3caca28f	0.021073608
215	0xbdc0d717	-0.09416025
216	0xbcff9fd2	-0.031204138
217	0x3d0a5d58	0.033780426
218	0x3c19fe0d	0.009398949
219	0xbd029cb7	-0.031887736
220	0xbd6c7b52	-0.057734795
221	0x3c1dd8a5	0.009634172
222	0xbd3bfee1	-0.04589737
223	0xbd35043f	-0.044193503
224	0xbcff81b9	-0.031189786
225	0xbca3ea02	-0.020009045
226	0x3c53eef8	0.012935393
227	0x3d097b4b	0.033564847
228	0x3d2a29a2	0.04154361
229	0x3d1a8507	0.03772452
230	0xbd2c9d15	-0.042141993
231	0x3c9c7155	0.01909701
232	0xbd0a86d2	-0.03381998
233	0xbd618b38	-0.05506441
234	0xbd6a4607	-0.05719569
235	0x3d1fa4ba	0.038975455
236	0xbba38474	-0.004990155
237	0x3c6f72fe	0.014614819
238	0xbc9b38fe	-0.018948074
239	0xbd377a9e	-0.04479467
240	0xbcfaf148	-0.03063263
241	0xbd12ebdb	-0.03586946
242	0x3da815fc	0.08207318
243	0xbbe45bb6	-0.0069689406
244	0xbd7a6cf6	-0.06113907
245	0xbbf14d64	-0.007363962
246	0xbcfaf994	-0.030636586
247	0x3bea2a73	0.0071461736
248	0xbd2434c9	-0.040089402
249	0x3ce5d286	0.028054487
250	0x3d2f609c	0.042816743
251	0xbbeb28c5	-0.007176491
252	0x3da24bec	0.07924637
253	0xbcbb0850	-0.022831112
254	0x3c417abc	0.011809047
255	0x3d05db75	0.032679994
