checkpoint_actor_2.pth (torch, 590674 bytes, 10 tensors)

fc1.weight f4 [512, 24]
0.0022747754 0.017256677 0.0041740728 -0.025335977 -0.1545118 -0.16031216 0.0022516577 0.005686279
0.015858406 0.023121132 -0.012802439 0.07894006 -0.057491474 -0.066771716 0.011542339 0.043969173
0.006233338 0.06641006 0.013050997 -0.0020054062 0.037821367 0.105519585 -0.01180543 -0.030888323
0.104229376 0.10197122 -0.011090722 0.015763909 0.069778495 0.03377256 0.023336833 -0.051275756
0.08705734 0.10900966 -0.0097307805 0.0140353115 0.07273035 -0.032400757 0.009887115 -0.03827975
0.10018575 0.06926755 -0.065478265 0.038249597 0.029804349 0.04674453 -0.004278077 0.097628
0.033908837 0.026029048 0.015095117 -0.026211284 -0.013762544 -0.02513421 -0.02797587 -0.07068836
0.055300925 0.033200346 0.0040412443 -0.052252408 -0.024506329 -0.0420261 0.014510984 -0.04453015
0.033867247 0.02039026 -0.060659353 -0.001663773 0.03172658 -0.17681906 -0.10133196 0.037605934
0.016416017 0.113684654 0.008847181 -0.06767087 -0.07241747 0.039857116 -0.07502048 -0.053121924
0.073410325 0.056166995 0.037591074 -0.111080796 -0.040038828 0.023255173 -0.028121881 -0.10887772
0.01473508 0.07062743 0.0049100355 -0.12344701 -0.016731758 -0.025195256 0.034932658 -0.062488087
0.055905625 0.116615444 0.02579505 0.027109085 -0.01783278 -0.035446845 -0.013523077 0.08314772
0.08000665 0.04614612 0.034016903 -0.023668012 -0.011063463 -0.065139994 0.0073108384 -0.09561687
0.045426436 0.09208778 0.0013225692 -0.08129557 -0.051952906 0.0033342869 -0.014463424 -0.09547253
0.049197882 -0.035927605 0.015301559 0.035736542 -0.12841429 -0.045898207 -0.020042764 -0.003950324
0.08204811 0.0028765118 0.03015772 -0.054917157 -0.032705233 -0.065726854 0.014049931 -0.033031
-0.020657461 -0.049034737 0.036024466 -0.040714145 0.03911715 -0.13904229 0.044011746 -0.03656164
0.02590181 0.08647259 0.031232122 -0.06552335 0.06379176 0.0991606 0.014620124 -0.05492053
0.068829894 0.10407421 -0.006759706 0.07728984 0.053245332 0.07761978 0.0001457143 0.052932862
0.04415899 0.10631989 0.043335147 0.00791326 -0.028230194 0.046891 -0.0005391133 0.027156869
0.0049880412 0.11753666 -0.008035916 -0.001580286 -0.026008327 0.03183199 -0.014927949 0.060962103
-0.0015530412 0.091172695 -0.04537178 -0.06981578 0.040465612 0.11274784 -0.042347558 -0.000886533
0.031314168 0.07439944 0.023472143 -0.0077044265 -0.02248037 0.20732641 0.024452202 0.0032362095
0.026690748 0.076755874 -0.007598865 -0.04851649 -0.14326017 -0.21535455 0.009246847 -0.0042525944
-0.00473611 0.048069943 0.02267853 0.002589998 -0.059716668 -0.13094994 -0.017438393 -0.022140782
0.056567773 0.041389756 0.027091825 0.0057811104 0.0015997485 0.016953176 -0.018216921 0.006177276
0.12261805 0.02179895 -0.0036019008 0.03286066 0.025747772 -0.038331274 -0.0017890194 0.01860265
0.03402473 -0.015229613 0.00067680207 -0.030848296 -0.0077035814 -0.03674492 -0.0091483295 -0.0056218654
0.07023448 0.03673858 0.019015832 0.019062955 -0.048278738 -0.0037955511 -0.024473632 -0.031594716
0.08174778 -0.0009874383 0.039662756 -0.009493822 0.1360871 0.010080499 -0.02116886 -0.010221647
0.080199584 0.009931154 0.014086841 0.018606508 0.05220679 0.05902995 -0.009190794 0.019204253
00000000: 6614 153b e05d 8d3c a9c6 883b 658d cfbc
00000010: 5738 1ebe df28 24be 8c90 133b f753 ba3b
00000020: 7de9 813c 8768 bd3c 52c1 51bc 54ab a13d
00000030: 2e7c 6bbd 9cbf 88bd 141c 3d3c 0519 343d
00000040: 0741 cc3b ff01 883d d9d3 553c 226d 03bb
00000050: 94ea 1a3d a71a d83d 906b 41bc 8209 fdbc
00000060: 3676 d53d 49d6 d03d dcb5 35bc 5023 813c
00000070: 07e8 8e3d 1955 0a3d e32c bf3c 8706 52bd
00000080: 1e4b b23d 7540 df3d da6d 1fbc 5df4 653c
00000090: a6f3 943d a8b6 04bd 91fd 213c 3acb 1cbd
000000a0: 302e cd3d 25dc 8d3d 7819 86bd 9cab 1c3d
000000b0: 4028 f43c 3177 3f3d 1c2f 8cbb 30f1 c73d
000000c0: fee3 0a3d df3a d53c 8251 773c 0cb9 d6bc
000000d0: 4b7c 61bc 42e6 cdbc a72d e5bc 0fc5 90bd
000000e0: 3983 623d 16fd 073d 6a6c 843b 9f06 56bd
000000f0: 7fc1 c8bc 8f23 2cbd 7abf 6d3c 3f65 36bd
00000100: 62b8 0a3d 7909 a73c f175 78bd f512 daba
00000110: bbf3 013d 0e10 35be 2187 cfbd ae08 1a3d
00000120: e27a 863c 80d3 e83d c4f3 103c 0697 8abd
00000130: 9c4f 94bd 3741 233d 56a4 99bd 6096 59bd
00000140: 2758 963d 5d0f 663d 19f9 193d 547e e3bd
00000150: c1ff 23bd a281 be3c dc5f e6bc 48fb debd
00000160: 686b 713c 1da5 903d 5de4 a03b c9d1 fcbd
00000170: 0a11 89bc 4866 cebc 8c15 0f3d 82f3 7fbd
00000180: 4cfd 643d 14d4 ee3d 2450 d33c df13 de3c
00000190: 0d16 92bc b630 11bd e58f 5dbc 5a49 aa3d
000001a0: 87da a33d b703 3d3d 4f55 0b3d 6be3 c1bc
000001b0: 8743 35bc 1e68 85bd c28f ef3b c7d2 c3bd
000001c0: 1211 3a3d 8598 bc3d 0f5a ad3a 4b7e a6bd
000001d0: 92cc 54bd 0d84 5a3b fff7 6cbc 1a87 c3bd
000001e0: b883 493d d328 13bd 64b3 7a3c 7b60 123d
000001f0: 097f 03be c2ff 3bbd b930 a4bc b871 81bb
00000200: d708 a83d dc83 3c3b 530d f73c d0f0 60bd
00000210: ecf5 05bd cd9b 86bd af31 663c 844b 07bd
00000220: d639 a9bc a6d8 48bd 648e 133d e0c3 26bd
00000230: 4e39 203d 1a61 0ebe a945 343d a9c1 15bd
00000240: 0830 d43c 8b18 b13d 82da ff3c 1b31 86bd
00000250: 41a5 823d b614 cb3d 3f89 6f3c 5af4 60bd
00000260: b0f6 8c3d dc24 d53d 8680 ddbb 234a 9e3d
00000270: c717 5a3d 1ff7 9e3d e2ca 1839 21d0 583d
00000280: 0fe0 343d 3ebe d93d 3280 313d 9ea6 013c
00000290: 0243 e7bc c710 403d 4853 0dba 1578 de3c
000002a0: b972 a33b 0fb7 f03d 13a9 03bc 9921 cfba
000002b0: 6a0f d5bc 4362 023d 5b94 74bc 66b3 793d
000002c0: 6a8f cbba c0b8 ba3d c2d7 39bd 93fb 8ebd
000002d0: 45bf 253d 57e8 e63d a274 2dbd 3966 68ba
000002e0: 4943 003d bc5e 983d a748 c03c 6a75 fcbb
000002f0: c128 b8bc 604d 543e fc4f c83c 9616 543b
00000300: 8ea6 da3c 2f32 9d3d e6ff f8bb 3ab9 46bd
00000310: cbb2 12be e785 5cbe 1680 173c 5959 8bbb
00000320: 5f31 9bbb fde4 443d 53c8 b93c f5bc 293b
00000330: 7799 74bd be17 06be f6da 8ebc 9660 b5bc
00000340: 9cb3 673d 4e88 293d adef dd3c 786f bd3b
00000350: a7ae d13a 63e1 8a3c a73b 95bc bf6a ca3b
00000360: 2c1f fb3d b693 b23c de0d 6cbb e698 063d
00000370: feec d23c 4101 1dbd 887d eaba 9664 983c
00000380: 845d 0b3d a085 79bc 6b6b 313a 91b5 fcbc
00000390: 536e fcbb d781 16bd e0e2 15bc a037 b8bb
000003a0: 18d7 8f3d 317b 163d 17c7 9b3c ea29 9c3c
000003b0: edbf 45bd c8be 78bb ed7c c8bc 7669 01bd
000003c0: 616b a73d ee6c 81ba 6a75 223d fa8b 1bbc
000003d0: 6b5a 0b3e ad28 253c 516a adbc b278 27bc
000003e0: ae3f a43d 47b6 223c 7ecc 663c ad6c 983c
000003f0: c9d6 553d 64c9 713d fc94 16bc 3d52 9d3c

fc1.bias f4 [512]
-0.17191452 -0.08943441 -0.05996538 -0.2600611 -0.12350805 -0.010151159 -0.09301025 0.10520662
-0.20352902 -0.120957606 -0.21191382 0.03706029 0.06968521 0.1400788 -0.29199737 -0.06902373
-0.078589626 -0.041576788 -0.12267519 0.19355139 -0.058469538 -0.28538895 0.07254493 -0.07039338
0.09734318 -0.015296336 0.03537289 -0.10821452 -0.13597658 -0.2659686 -0.20553464 0.09633716
0.2280984 0.12924351 0.018737458 -0.19082385 -0.16893564 0.050577354 -0.23373215 0.0061042104
0.054036167 -0.191825 -0.010465079 -0.05456959 -0.1476716 -0.073169835 -0.016888449 -0.19571847
0.14517365 0.10396409 -0.20534585 -0.051242117 -0.054590587 0.004969942 -0.18301332 -0.067393064
0.12969244 -0.009500956 0.059048846 -0.012854829 -0.07152534 -0.1368236 -0.12308896 -0.035786502
0.07707259 -0.087422 -0.21871333 0.17755118 -0.23356299 0.017499814 0.2192689 -0.21150483
-0.072927296 0.12814167 0.066129915 0.120265275 -0.09463777 -0.105726816 -0.19781607 -0.25971702
-0.04983093 0.09796651 0.08526471 -0.14321057 0.02803855 -0.2543234 -0.21891727 -0.14096023
0.14510442 0.019614046 -0.20026062 -0.0024426845 0.14056046 -0.027003441 -0.06959835 -0.1773
0.09896177 0.062542126 0.039417457 0.04926437 -0.08911203 -0.30189857 0.2037594 -0.06663491
-0.025423307 -0.05375902 -0.14143865 -0.2185928 0.04498193 -0.12620266 -0.2483757 -0.036551375
-0.09297311 -0.20603593 -0.16544028 -0.044440262 -0.26639032 -0.047599446 -0.20309678 -0.16721146
-0.21442807 -0.03504092 -0.1784941 -0.15703353 -0.16146807 0.040337622 -0.188096 0.04552751
0.0077814264 -0.10444184 -0.08897492 -0.19120869 -0.15032095 -0.114754386 -0.08445494 0.087837666
-0.10032364 -0.11004518 -0.00092862424 -0.30143094 -0.17690034 -0.18884052 -0.17060447 -0.13146135
0.17487013 -0.020949835 0.07014328 0.07240829 0.11306697 -0.030438628 0.027873855 -0.024960337
0.013333684 -0.020833418 -0.05384709 -0.20945951 -0.10388137 -0.013283095 0.037163183 -0.07330943
-0.111940145 0.0005096439 -0.07317298 -0.208767 -0.24451838 -0.025005803 -0.22088207 -0.0341388
-0.09872334 -0.077522404 0.20563437 -0.13506152 -0.08980329 0.13493355 0.015715655 -0.082750686
0.15838094 -0.22618972 0.04688236 -0.029802797 -0.07467056 -0.06872581 -0.052801818 -0.15361045
-0.080421805 -0.2185606 0.15333594 0.07847167 -0.0077636996 0.069966085 0.0029317383 0.124890275
0.033477575 0.06742238 -0.102820165 0.017269397 -0.23338576 -0.3077194 -0.08907468 -0.21089883
0.10103998 0.060420875 -0.006833592 -0.22496597 0.03292716 0.22160283 -0.0586095 -0.2577828
-0.025985453 0.0693648 -0.22357185 -0.28580382 0.10472707 0.067486696 -0.07039871 0.22996472
-0.28655928 -0.011073805 -0.18940827 -0.08728298 0.197427 -0.06377656 -0.07544831 -0.010725238
0.08836575 -0.17721224 -0.17934152 0.068716906 0.10875037 -0.2642928 -0.13251981 0.068830445
-0.0043658316 -0.1940225 -0.12284037 -0.047537938 0.019024653 0.02694464 0.013603772 0.050452363
0.044254515 -0.17052479 -0.008571764 -0.09991975 -0.17936955 -0.04408762 -0.1634731 -0.26761058
-0.10140362 0.19064665 -0.14507613 -0.0793475 -0.15162323 -0.15558144 0.0011959048 -0.32532212
00000000: 5c0a 30be 6329 b7bd 429e 75bd ba26 85be
00000010: caf1 fcbd 0c51 26bc 287c bebd 9276 d73d
00000020: e969 50be 9fb8 f7bd f0ff 58be 88cc 173d
00000030: 1fb7 8e3d d170 0f3e ae80 95be 505c 8dbd
00000040: 99f3 a0bd 6c4c 2abd 213d fbbd 5632 463e
00000050: c17d 6fbd 801e 92be 7092 943d 682a 90bd
00000060: dc5b c73d 7c9d 7abc 2ae3 103d 939f ddbd
00000070: 723d 0bbe 092d 88be ac77 52be 6b4c c53d
00000080: a192 693e 6958 043e 4c7f 993c 5467 43be
00000090: 77fd 2cbe 332a 4f3d 7b57 6fbe d405 c83b
000000a0: 0755 5d3d c66d 44be b975 2bbc 5d84 5fbd
000000b0: 3937 17be 11da 95bd a559 8abc 6c6a 48be
000000c0: 67a8 143e 20eb d43d 2f46 52be 41e3 51bd
000000d0: 619a 5fbd e5da a23b d867 3bbe 6005 8abd
000000e0: 18ce 043e e6a9 1bbc 34dd 713d 109d 52bc
000000f0: e17b 92bd 7c1b 0cbe 1116 fcbd de94 12bd
00000100: 3cd8 9d3d 4e0a b3bd 63f6 5fbe facf 353e
00000110: 232b 6fbe c55b 8f3c 0788 603e b994 58be
00000120: e85a 95bd 9237 033e 1f6f 873d a44d f63d
00000130: 72d1 c1bd 4d87 d8bd 4c90 4abe a1f9 84be
00000140: 841b 4cbd aaa2 c83d 449f ae3d cba5 12be
00000150: 1ab1 e53c ad36 82be d92b 60be e157 10be
00000160: 4196 143e a3ad a03c 1f11 4dbe 7215 20bb
00000170: 15ef 0f3e 5236 ddbc 9489 8ebd 228e 35be
00000180: 78ac ca3d 1616 803d 3374 213d 70c9 493d
00000190: 5e80 b6bd 7392 9abe 4ea6 503e e277 88bd
000001a0: 8a44 d0bc 6b32 5cbd 4bd5 10be cad6 5fbe
000001b0: f93e 383d 453b 01be 3356 7ebe e5b6 15bd
000001c0: b068 bebd 15fb 52be 2d69 29be fe06 36bd
000001d0: 5064 88be a3f7 42bd 9af8 4fbe 7b39 2bbe
000001e0: 0893 5bbe 1187 0fbd 28c7 36be 66cd 20be
000001f0: e357 25be 1039 253d 3d9c 40be 0e7b 3a3d
00000200: 56fb fe3b 9ae5 d5bd 7c38 b6bd 36cc 43be
00000210: bced 19be 5904 ebbd b6f6 acbd 3ce4 b33d
00000220: 7b76 cdbd 5e5f e1bd eb6e 73ba 2855 9abe
00000230: 5d25 35be 695f 41be f0b2 2ebe ce9d 06be
00000240: 2811 333e fd9e abbc 48a7 8f3d cc4a 943d
00000250: a88f e73d 6e5a f9bc b657 e43c 9f79 ccbc
00000260: 8675 5a3c d8aa aabc c48e 5cbd 8e7c 56be
00000270: c1bf d4bd 57a1 59bc 6c38 183d 4123 96bd
00000280: e040 e5bd a099 053a b7db 95bd 04c7 55be
00000290: 0763 7abe f8d8 ccbc e92e 62be 20d5 0bbd
000002a0: 762f cabd 11c4 9ebd d191 523e 914d 0abe
000002b0: caea b7bd 052c 0a3e 1ebe 803c 3179 a9bd
000002c0: 9d2e 223e 479e 67be b807 403d ff24 f4bc
000002d0: e1ec 98bd 1ec0 8cbd b846 58bd 0f4c 1dbe
000002e0: 30b4 a4bd 5ace 5fbe 1904 1d3e c1b5 a03d
000002f0: a266 febb 614a 8f3d 6822 403b 79c6 ff3d
00000300: c81f 093d bf14 8a3d 6193 d2bd 8d78 8d3c
00000310: adfc 6ebe 668d 9dbe c96c b6bd ddf5 57be
00000320: 0dee ce3d e17b 773d 53ec dfbb 7b5d 66be
00000330: a1de 063d daeb 623e 8410 70bd 1bfc 83be
00000340: 72df d4bc 220f 8e3d 05f0 64be e154 92be
00000350: 257b d63d 7736 8a3d 332d 90bd df7b 6b3e
00000360: e6b7 92be e86e 35bc 3ef4 41be 6bc1 b2bd
00000370: 4e2a 4a3e 499d 82bd a584 9abd e9b8 2fbc
00000380: 1af9 b43d 2077 35be 4ea5 37be 73bb 8c3d
00000390: 84b8 de3d 6351 87be 46b3 07be faf6 8c3d
000003a0: 400f 8fbb d6ad 46be bb93 fbbd 24b7 42bd
000003b0: 97d9 9b3c 01bb dc3c 5be2 5e3c 23a7 4e3d
000003c0: 3944 353d 0d9e 2ebe 9670 0cbc baa2 ccbd
000003d0: a7ac 37be 3895 34bd 7e65 27be 4104 89be
000003e0: b3ac cfbd e038 433e d68e 14be f180 a2bd
000003f0: 1f43 1bbe be50 1fbe e8bf 9c3a 9f90 a6be

bn1.weight f4 [512]
1.2309822 1.0837145 1.0740203 1.0250121 1.1055394 1.062494 1.0554519 0.98389614
1.1786525 1.0951005 1.1141907 1.0648904 1.1217098 1.0144266 1.1565815 1.045864
1.025159 1.0003432 1.0348442 1.0598458 1.2672236 1.0975251 1.0845312 1.0684335
1.0596699 1.1145028 1.032486 1.222114 1.1095554 1.0936661 1.1058061 1.0332502
0.92930436 1.048611 1.0791464 1.0340993 1.1400245 0.99598306 1.014617 1.0485485
1.0780786 1.0655079 1.0573868 1.0756375 1.1114942 1.0775226 1.0478114 1.1197456
0.98826724 1.043538 0.97819287 1.0302138 1.0597425 1.0912534 1.2128347 1.1492898
1.1590947 1.1078485 1.0106094 1.0825545 1.0540931 1.1477768 1.0674537 1.26707
0.98432666 1.0868651 1.1870778 1.0001949 1.023045 1.0952313 1.2672716 1.058005
1.0841458 1.0070838 1.1807033 1.0648497 1.0508238 1.0444199 1.0751119 1.114091
1.172536 1.0130388 1.0795168 1.1468934 1.0799206 1.0660594 1.005609 1.0369519
1.0644294 1.0595726 1.0609711 0.99889535 1.0471483 1.1004292 1.1181701 1.0748295
0.9977708 1.0483892 1.0596517 1.0568595 1.080606 1.1256995 1.0055124 1.0645607
1.0928209 1.2175605 1.1254305 1.1205207 1.0492898 0.99841297 1.1322088 1.0150448
1.1022624 1.008186 1.0624416 1.079738 1.0863136 1.0202318 0.9808499 0.9959289
1.0150491 1.0841533 1.1221056 1.1262691 1.1149527 1.3800377 1.0159873 0.9823368
1.149612 1.0431231 1.066576 1.0374207 1.0495918 1.113896 1.2275686 1.1665851
1.4369375 1.0666019 1.0030408 1.0310467 1.0636308 1.1539348 1.104048 1.0973072
0.9810416 1.0754718 1.0671222 1.1064702 1.0219384 1.0709201 1.0839278 1.0162611
1.0348085 0.973834 1.1045537 1.0605916 1.037305 1.1207874 1.1160893 1.0780109
1.0418433 1.1585515 1.0674843 1.067417 1.0904691 0.98166007 1.0917004 1.1240704
1.1963068 1.0335702 1.0197701 1.0540835 1.0708253 1.0810982 1.0451928 1.0305253
1.0913978 1.0486578 1.0772378 1.0676935 1.0678389 1.0759066 0.9884151 1.047214
0.986753 1.0336615 1.1642132 1.0758593 1.0286007 1.1109163 1.0720993 1.0662521
1.0827472 1.1214124 1.0798008 0.9780007 1.0006708 1.0697218 1.1028726 1.0703837
1.0342251 1.0533643 1.1008735 1.0981742 1.0845081 0.9364612 1.183237 1.0904359
0.920092 1.032888 1.1730732 1.1038135 1.0367727 0.9979632 1.0283263 1.255267
1.138961 1.0850072 1.0376369 1.1887842 1.0224346 0.92495817 1.1067762 1.0929956
1.0621855 1.1001709 0.96959907 1.0941535 1.1233506 1.0545495 1.0668331 1.1026657
1.0367411 1.1031443 1.1201745 1.1189232 1.1047647 1.0832655 1.0751919 1.0312902
1.0156842 1.0450644 1.0772836 1.0865377 1.07327 1.0354881 0.9728114 1.0428607
1.1056334 1.131592 1.0440241 1.0295953 1.0978441 1.0608364 1.0649571 1.1773028
00000000: d390 9d3f 28b7 8a3f 7f79 893f 9933 833f
00000010: 5182 8d3f ceff 873f 0c19 873f 9ee0 7b3f
00000020: 16de 963f 412c 8c3f cd9d 8e3f 544e 883f
00000030: 3094 8f3f bbd8 813f dd0a 943f dfde 853f
00000040: 6938 833f 3f0b 803f c675 843f 07a9 873f
00000050: 6234 a23f b47b 8c3f ebd1 8a3f 6ec2 883f
00000060: 43a3 873f 07a8 8e3f 8028 843f 3b6e 9c3f
00000070: e905 8e3f 40fd 8b3f 0e8b 8d3f 8b41 843f
00000080: e4e6 6d3f e338 863f 7821 8a3f 5e5d 843f
00000090: 53ec 913f bff8 7e3f f8de 813f d636 863f
000000a0: 7bfe 893f 9062 883f 7358 873f 7dae 893f
000000b0: 7145 8e3f 43ec 893f af1e 863f d353 8f3f
000000c0: 15ff 7c3f a792 853f d96a 7a3f 0cde 833f
000000d0: a4a5 873f 31ae 8b3f 2b3e 9b3f ee1b 933f
000000e0: 375d 943f fbcd 8d3f a65b 813f 2591 8a3f
000000f0: 86ec 863f 5aea 923f 53a2 883f 5a2f a23f
00000100: d5fc 7b3f 651e 8b3f 2af2 973f 6306 803f
00000110: 23f3 823f 8a30 8c3f f535 a23f b56c 873f
00000120: 4ac5 8a3f 1fe8 803f 4921 973f ff4c 883f
00000130: 6581 863f 8daf 853f 449d 893f 899a 8e3f
00000140: a915 963f 41ab 813f 9b2d 8a3f 67cd 923f
00000150: d73a 8a3f a274 883f ccb7 803f d7ba 843f
00000160: 393f 883f 13a0 873f e7cd 873f 9bb7 7f3f
00000170: f508 863f ddda 8c3f 3320 8f3f 0394 893f
00000180: e86d 7f3f 9e31 863f aba2 873f 2c47 873f
00000190: 4c51 8a3f ec16 903f a1b4 803f 8643 883f
000001a0: 8ee1 8b3f 06d9 9b3f 1b0e 903f 396d 8f3f
000001b0: 214f 863f fe97 7f3f 38ec 903f fdec 813f
000001c0: ef16 8d3f 3d0c 813f 16fe 873f db34 8a3f
000001d0: 530c 8b3f f596 823f fb18 7b3f 32f5 7e3f
000001e0: 21ed 813f 89c5 8a3f 28a1 8f3f 9629 903f
000001f0: c5b6 8e3f 13a5 b03f df0b 823f 6d7a 7b3f
00000200: 7c26 933f 0f85 853f 9085 883f 34ca 843f
00000210: 0659 863f 2594 8e3f f820 9d3f a952 953f
00000220: 91ed b73f 6986 883f a463 803f 57f9 833f
00000230: 0e25 883f 23b4 933f 7251 8d3f 9074 8c3f
00000240: 8b25 7b3f 0fa9 893f 7697 883f d1a0 8d3f
00000250: e1ce 823f e913 893f 25be 8a3f d814 823f
00000260: 9b74 843f 2f4d 793f 0462 8d3f 77c1 873f
00000270: 69c6 843f f675 8f3f 04dc 8e3f 43fc 893f
00000280: 1f5b 853f 6a4b 943f 53a3 883f 1fa1 883f
00000290: 7e94 8b3f 134e 7b3f d7bc 8b3f 8ae1 8f3f
000002a0: 9520 993f 074c 843f d487 823f 35ec 863f
000002b0: ce10 893f 6d61 8a3f e1c8 853f 41e8 833f
000002c0: ecb2 8b3f 6b3a 863f eee2 893f 2eaa 883f
000002d0: f2ae 883f 4fb7 893f c608 7d3f 1c0b 863f
000002e0: d89b 7c3f 054f 843f f004 953f c2b5 893f
000002f0: 30a9 833f 8132 8e3f 8d3a 893f f37a 883f
00000300: 7697 8a3f 718a 8f3f ea36 8a3f 415e 7a3f
00000310: fb15 803f a5ec 883f ee2a 8d3f 5502 893f
00000320: 7d61 843f a4d4 863f 6ce9 8c3f f990 8c3f
00000330: 29d1 8a3f ecbb 6f3f 4f74 973f 6793 8b3f
00000340: 268b 6b3f ad35 843f 4327 963f c349 8d3f
00000350: f8b4 843f 847a 7f3f 32a0 833f 97ac a03f
00000360: 79c9 913f 84e1 8a3f 49d1 843f 152a 983f
00000370: 23df 823f 0fca 6c3f d8aa 8d3f 48e7 8b3f
00000380: b2f5 873f 66d2 8c3f a537 783f 390d 8c3f
00000390: f4c9 8f3f 7afb 863f fd8d 883f 2624 8d3f
000003a0: efb3 843f d533 8d3f e161 8f3f e038 8f3f
000003b0: ee68 8d3f 72a8 8a3f e39f 893f 5101 843f
000003c0: f101 823f acc4 853f 6ee4 893f ab13 8b3f
000003d0: e960 893f e08a 843f 2b0a 793f 767c 853f
000003e0: 6585 8d3f 02d8 903f 95a2 853f c7c9 833f
000003f0: 2886 8c3f 7dc9 873f 8450 883f dcb1 963f

bn1.bias f4 [512]
0.031808976 -0.026874444 -0.028672019 0.074728 -0.0077920645 0.045947127 0.038000964 0.020722302
0.052134357 -0.054228086 0.025945181 0.036032606 0.047801968 0.013712397 -0.02326361 0.0054334234
-0.085437134 -0.03611687 -0.113694504 0.01121628 -0.048717562 0.011329052 0.009547273 -0.00829353
0.035736095 -0.024577959 0.035101946 0.047181044 0.046044275 0.016799986 0.03882295 0.049506504
-0.07765676 0.031817097 -0.012721504 -0.00807395 0.014991591 0.040837787 0.06195875 -0.008674818
-0.020247908 0.05706744 -0.02722229 0.0452575 0.03855384 0.021191308 0.018191237 -0.015360061
-0.00031202802 0.03586661 0.025265347 0.060538225 -0.0005328143 -0.032187242 0.04138914 -0.033775453
-0.0054671136 -0.029194761 -0.05926431 0.048455726 -0.0760785 0.03199138 0.09242323 -0.011899827
0.08073128 0.09735983 0.017599395 -0.005622563 -0.032652326 -0.0021758345 0.039189946 0.032280788
-0.031764027 0.048758347 -0.026443435 0.0510461 0.052681927 0.009854087 -0.032245565 0.07476337
0.019181494 -0.0036235235 0.010385831 -0.012798736 0.033736795 0.03727235 0.0006568301 0.042641047
-0.060534235 -0.087944604 0.04691631 -0.113345265 -0.07010409 -0.025471168 0.013264079 0.09751465
0.08993275 -0.0050149197 0.039715312 -0.040102717 0.06256043 0.042934358 -0.089083195 0.03452994
-0.0773911 0.05460186 0.033490073 0.07204057 0.013800444 0.17109679 0.0017853176 -0.048809204
0.04192398 -0.059385676 -0.0166788 -0.033796206 -0.01605994 0.08648346 0.00068669155 0.0065913275
-0.010474031 -0.043553032 -0.01954126 -0.012840895 -0.014296475 -0.047644265 0.0009535634 -0.089735985
0.05071253 0.031245332 -0.00030667285 -0.006850154 -0.04317932 -0.06627322 0.00564814 -0.03737944
-0.016124442 0.004748503 0.033186223 -0.02607203 -0.08634157 0.008534179 0.026922796 0.03275549
-0.04287779 0.11386976 -0.009258493 0.050948102 0.049588155 0.050144646 0.11980779 0.027171168
0.059634604 0.022722011 0.052097514 0.039271113 -0.049806215 0.08625916 -0.02005291 -0.065327056
-0.030888714 -0.015759394 -0.06577339 0.0025504495 -0.05465154 -0.12262979 -0.06916932 -0.07867313
-0.0036604025 -0.012108057 -0.012492464 0.019237047 0.07445961 0.012040003 -0.019550292 0.07646715
0.07795608 -0.014557916 -0.04290605 -0.012425244 -0.03401716 -0.014760738 0.006027951 -0.032783303
0.043185104 0.032207824 -0.015118891 0.059202798 0.002313019 0.03343873 0.012490719 -0.08518821
0.0066655716 0.002605473 0.01665113 -0.04510173 -0.0023941763 0.0946407 -0.08701918 -0.0048295246
-0.041560266 -0.06491654 0.005771863 -0.019304406 -0.005214521 -0.06280336 -0.008583134 0.045252047
-0.093698815 0.033561204 0.019801887 0.007334324 -0.018675981 0.021372152 0.0045779618 -0.017236982
0.040533457 -0.041562974 0.019247575 0.03499702 -0.040240783 0.024934059 -0.014169916 0.012615672
-0.024872 0.04131174 -0.072293386 -0.030703586 0.077697344 0.054887258 0.03793904 0.047607742
0.048855748 -0.016723406 0.019701295 0.10480251 0.023329182 0.11674955 0.04774205 0.010113278
-0.02222522 0.012572602 -0.0066076955 -0.02586712 0.00725056 0.07092273 0.10983261 0.052028585
-0.0006516767 0.0036196222 0.04791281 0.03336399 0.028425328 -0.03113425 0.016578695 0.089139365
00000000: 214a 023d cb27 dcbc 95e1 eabc fe0a 993d
00000010: 9354 ffbb 0e33 3c3d e6a6 1b3d d1c1 a93c
00000020: d68a 553d 451e 5ebd fd8a d43c ed96 133d
00000030: ffcb 433d f6a9 603c 5493 bebc dc0a b23b
00000040: aaf9 aebd 48ef 13bd aad8 e8bd 7dc4 373c
00000050: 118c 47bd 7d9d 393c 2a6c 1c3c 96e1 07bc
00000060: 0360 123d b757 c9bc 0fc7 0f3d e940 413d
00000070: ec98 3c3d 20a0 893c d004 1f3d 55c7 4a3d
00000080: 820a 9fbd a552 023d db6d 50bc 9a48 04bc
00000090: 4a9f 753c 8645 273d 75c8 7d3d d320 0ebc
000000a0: f1de a5bc 8cbf 693d 4801 dfbc ee5f 393d
000000b0: a2ea 1d3d 6599 ad3c ca05 953c c4a8 7bbc
000000c0: b197 a3b9 dee8 123d 46f9 ce3c eef6 773d
000000d0: 90ac 0bba c5d6 03bd a987 293d 2158 0abd
000000e0: 7925 b3bb da29 efbc 22bf 72bd 8379 463d
000000f0: 0bcf 9bbd 6509 033d 6448 bd3d 7ef7 42bc
00000100: 7156 a53d 9764 c73d 9b2c 903c 7a3d b8bb
00000110: 72be 05bd 7298 0ebb a385 203d dc38 043d
00000120: ff1a 02bd d5b6 473d e79f d8bc b715 513d
00000130: 01c9 573d 0973 213c ed13 04bd 8a1d 993d
00000140: 8222 9d3c a378 6dbb 5529 2a3c cab1 51bc
00000150: 982f 0a3d e4aa 183d 1f2f 2c3a 61a8 2e3d
00000160: bff2 77bd 4d1c b4bd 512b 403d 9021 e8bd
00000170: bc92 8fbd e9a8 d0bc 9451 593c c3b5 c73d
00000180: a92e b83d 3254 a4bb 86ac 223d bf42 24bd
00000190: af1f 803d f0db 2f3d 4071 b6bd 446f 0d3d
000001a0: 3a7f 9ebd 33a6 5f3d e32c 093d 028a 933d
000001b0: 421b 623c ff33 2f3e 5101 ea3a 29ec 47bd
000001c0: 7bb8 2b3d 653e 73bd fba1 88bc e46d 0abd
000001d0: 2390 83bc 3e1e b13d 1703 343a 10fc d73b
000001e0: 459b 2bbc aa64 32bd fe14 a0bc 9e62 52bc
000001f0: c33b 6abc a226 43bd 8ef8 793a 80c7 b7bd
00000200: f1b7 4f3d 36f6 ff3c efc8 a0b9 4277 e0bb
00000210: ccdc 30bd 41ba 87bd 0814 b93b 2f1b 19bd
00000220: 6817 84bc 5599 9b3b 47ee 073d 0395 d5bc
00000230: d9d3 b0bd f1d2 0b3c 328d dc3c 9f2a 063d
00000240: 9fa0 2fbd 8c34 e93d efb0 17bc f5ae 503d
00000250: f31c 4b3d 7964 4d3d c95d f53d 1296 de3c
00000260: 6a43 743d 8323 ba3c 3464 553d bfda 203d
00000270: 9a01 4cbd a4a8 b03d 0046 a4bc 31ca 85bd
00000280: 540a fdbc d819 81bc 33b4 86bd 7125 273b
00000290: 4bda 5fbd 5425 fbbd a5a8 8dbd 611f a1bd
000002a0: 5de3 6fbb df60 46bc 31ad 4cbc 0397 9d3c
000002b0: 487e 983d 6f43 453c ef27 a0bc cf9a 9c3d
000002c0: 70a7 9f3d 5384 6ebc 41be 2fbd 4093 4bbc
000002d0: 9455 0bbd 06d7 71bc 1e86 c53b c947 06bd
000002e0: dde2 303d 5aec 033d 3ab5 77bc a27e 723d
000002f0: 0596 173b 0df7 083d dfa5 4c3c 2877 aebd
00000300: de6a da3b 95c0 2a3b f367 883c 97bc 38bd
00000310: 9de7 1cbb fcd2 c13d 1d37 b2bd fd40 9ebb
00000320: 193b 2abd f7f2 84bd e521 bd3b 4624 9ebc
00000330: 93de aabb 0c9f 80bd 46a0 0cbc 365a 393d
00000340: 2ae5 bfbd 7977 093d 9137 a23c c554 f03b
00000350: 5ffe 98bc a714 af3c ba02 963b 9234 8dbc
00000360: 6906 263d f03d 2abd 17ad 9d3c 0959 0f3d
00000370: 85d3 24bd 8342 cc3c ef28 68bc f7b1 4e3c
00000380: 5dc0 cbbc 8036 293d 8e0e 94bd 1686 fbbc
00000390: c91f 9f3d 76d1 603d f865 1b3d 5600 433d
000003a0: f71c 483d 86ff 88bc 9c64 a13c b3a2 d63d
000003b0: d71c bf3c 631a ef3d 2b8d 433d 2ab2 253c
000003c0: aa11 b6bc 51fd 4d3c 5e85 d8bb 48e7 d3bc
000003d0: 1b96 ed3b f03f 913d ebef e03d ed1b 553d
000003e0: 48d5 2aba 2f37 6d3b 3940 443d aea8 083d
000003f0: 3cdc e83c 410d ffbc 0bd0 873c b38e b63d

bn1.running_mean f4 [512]
0.13571459 0.12666254 0.5613143 0.47529414 0.11551458 0.37158126 0.3750485 1.3225306
0.052060362 6e-45 0.06525214 2.6175168 0.04976928 0.4770706 0.2092138 0.011396142
3.8734736 1.5661279 3.1883097 0.32989123 0.5193844 0.051244203 6e-45 0.035457484
1.4604267 0.5328234 0.76529795 0.1615609 0.95252615 0.029846258 0.7608531 1.4598259
2.059441 0.30046368 0.048800863 2.4359665 0.22783405 2.0102732 1.8322544 0.6268486
0.82727534 2.8395196e-14 0.47287244 0.14685293 1.2264478 0.30756783 0.36038262 0.07865233
1.5526192 0.059340134 1.1139786 0.4456266 0.121749505 0.38579515 0.07198128 0.56251544
0.255914 0.5176728 0.48475426 0.15096079 0.09095215 0.6631916 0.02545121 0.08984587
0.3364154 0.75843585 0.7240396 3.1860518 0.16826488 0.15305027 0.081448205 0.059115235
1.6897748 1.6323943 0.060789935 1.2044039 0.6306566 0.57441396 0.21603706 0.10033373
0.11206681 0.70969385 0.62934315 0.19828065 0.62006557 0.42186624 0.31214538 0.3261887
0.49527103 6e-45 0.13951015 0.24154083 0.04166168 0.2136723 0.021865973 0.16528487
2.0565147 0.33404 0.17971343 0.5476905 0.55038476 0.2835179 0.9833221 0.43526715
0.07056556 0.18845667 0.55911255 6e-45 0.10767449 1.3168099 0.30013302 0.1339542
0.06651364 1.6954696 0.19078715 0.39211714 0.16421688 0.5636938 1.0276114 0.92983925
0.8999246 0.98773754 0.47388697 0.26088008 0.032223325 0.11557591 2.4213576 0.7195625
0.26485908 0.40911597 0.74567115 0.21593247 0.06780098 0.26467976 0.062040746 0.012954276
0.066537105 0.89935535 0.7544755 0.077927016 6e-45 1.0958507 0.17625092 0.22439076
1.0771201 0.0065769246 0.04757522 0.0012493127 1.6669314 0.13461526 1.2239144 2.0068715
0.12805732 1.1044823 0.017976955 0.1720571 0.20947723 6e-45 0.21470419 0.044417795
0.4481381 0.2328672 6e-45 0.08522817 0.4219891 0.66758686 6e-45 0.34441593
0.9141158 2.495739 1.015356 0.034008674 0.19518639 0.07433656 0.304232 1.4375238
1.001198 0.14747077 0.09093731 0.8736014 1.025506 0.07924311 1.8719047 1.1228752
1.3230432 0.52751493 0.15166523 0.9950912 1.1864309 0.09323791 0.07168049 1.0640591
0.34405568 0.062490992 0.03786168 1.1220309 0.10821868 1.5613276 0.046880618 0.3969085
2.0154989 0.0026385467 0.41364565 0.27859023 0.22275695 1.7531774 0.03517921 0.3873304
1.8687037 0.025152285 0.9182691 0.37579602 0.0922107 0.22600779 0.5754053 0.109656595
0.44854617 0.28703386 0.28076726 0.10633158 0.53592837 2.6047683 4.0456724 1.5545728
0.13079447 0.04563207 1.0125273 0.08209722 0.03687231 0.25437585 0.8974981 0.46286693
0.2999158 0.18887624 0.16105925 1.2638513 1.0777174 0.06423846 0.39982086 0.63796526
0.30297136 0.32482934 0.17535825 0.127983 0.22692968 1.6597433 0.66811293 0.270496
0.216525 0.1306357 0.9252716 0.94540995 0.2197049 0.11934708 0.04539503 0.07641765
00000000: c4f8 0a3e d3b3 013e 4bb2 0f3f c159 f33e
00000010: e892 ec3d e63f be3e 5b06 c03e af48 a93f
00000020: 3f3d 553d 0400 0000 eaa2 853d 6585 2740
00000030: dfda 4b3d 9942 f43e 243c 563e e2b6 3a3c
00000040: fee6 7740 e176 c83f 440d 4c40 81e7 a83e
00000050: 60f6 043f 71e5 513d 0400 0000 de3b 113d
00000060: 43ef ba3f 1d67 083f 91ea 433f 3870 253e
00000070: c1d8 733f 2480 f43c 45c7 423f 93db ba3f
00000080: e2cd 0340 60d6 993e 6ae3 473d e0e6 1b40
00000090: 544d 693e 51a8 0040 5087 ea3f 2679 203f
000000a0: 51c8 533f ddc2 ff28 561c f23e 9d60 163e
000000b0: 3efc 9c3f 8879 9d3e 1284 b83e 7914 a13d
000000c0: 3abc c63f a40e 733d da96 8e3f 2b29 e43e
000000d0: ce57 f93d f186 c53e ec6a 933d 0301 103f
000000e0: 2907 833e 3486 043f b631 f83e 7795 1a3e
000000f0: 1f45 ba3d edc6 293f 0e7f d03c 1d01 b83d
00000100: a43e ac3e da28 423f a95a 393f 46e8 4b40
00000110: a14d 2c3e 36b9 1c3e 51ce a63d d122 723d
00000120: 8a4a d83f 4cf2 d03f defe 783d e829 9a3f
00000130: b672 213f cb0c 133f d238 5d3e c57b cd3d
00000140: 4983 e53d 7fae 353f a21c 213f 150a 4b3e
00000150: 9ebc 1e3f dafe d73e 85d1 9f3e 3502 a73e
00000160: 2a94 fd3e 0400 0000 c0db 0e3e 7b56 773e
00000170: 70a5 2a3d e9cc 5a3e 4520 b33c 7040 293e
00000180: f09d 0340 4a07 ab3e cc06 383e 7235 0c3f
00000190: 04e6 0c3f 4229 913e ffba 7b3f 56db de3e
000001a0: ad84 903d c9fa 403e 0022 0f3f 0400 0000
000001b0: 7184 dc3d 3a8d a83f 09ab 993e 4a2b 093e
000001c0: 4e38 883d 2605 d93f b55d 433e 94c3 c83e
000001d0: 7828 283e 3d4e 103f c588 833f f209 6e3f
000001e0: 7561 663f 5edc 7c3f 50a1 f23e 1392 853e
000001f0: 9bfc 033d 10b3 ec3d 86f7 1a40 3f35 383f
00000200: 9c9b 873e a677 d13e 4ee4 3e3f 671d 5d3e
00000210: 3ddb 8a3d 1b84 873e 701e 7e3d 2c3e 543c
00000220: 9b44 883d 273c 663f 4e25 413f 3398 9f3d
00000230: 0400 0000 d644 8c3f 1f7b 343e b1c6 653e
00000240: 12df 893f 3e83 d73b 3cde 423d fabf a33a
00000250: 025e d53f 95d8 093e 3aa9 9c3f 9570 0040
00000260: 7521 033e ad5f 8d3f 6844 933c bd2f 303e
00000270: 3381 563e 0400 0000 6adb 5b3e 6fef 353d
00000280: 5b72 e53e bd74 6e3e 0400 0000 1b8c ae3d
00000290: f50e d83e f9e6 2a3f 0400 0000 4957 b03e
000002a0: 7e03 6a3f 30ba 1f40 2ff7 813f ae4c 0b3d
000002b0: f1de 473e c43d 983d 4cc4 9b3e c800 b83f
000002c0: 4227 803f 9402 173e 573d ba3d 57a4 5f3f
000002d0: c843 833f 364a a23d 939a ef3f 60ba 8f3f
000002e0: 7b59 a93f 380b 073f 214e 1b3e 4cbe 7e3f
000002f0: f8dc 973f 84f3 be3d 39cd 923d 1733 883f
00000300: 1128 b03e 8ef6 7f3d d914 1b3d b59e 8f3f
00000310: c1a1 dd3d 95d9 c73f e405 403d 9737 cb3e
00000320: effd 0040 78eb 2c3b 5dc9 d33e 61a3 8e3e
00000330: 661a 643e 1e68 e03f 1318 103d 2c50 c63e
00000340: af31 ef3f 2a0c ce3c af13 6b3f 5668 c03e
00000350: f7d8 bc3d 966e 673e c34d 133f a393 e03d
00000360: d8a7 e53e 1af6 923e bac0 8f3e 5fc4 d93d
00000370: 9a32 093f 86b4 2640 2676 8140 3efc c63f
00000380: fcee 053e b2e8 3a3d 7f9a 813f 9622 a83d
00000390: 6b07 173d 8d3d 823e 6fc2 653f e5fc ec3e
000003a0: 908e 993e c668 413e b7ec 243e e1c5 a13f
000003b0: a5f2 893f 748f 833d 52b5 cc3e b151 233f
000003c0: 101f 9b3e 0850 a63e 1d91 333e fa0d 033e
000003d0: 4160 683e 7872 d43f 7309 2b3f 747e 8a3e
000003e0: bbb8 5d3e 5dc5 053e 99de 6c3f 6306 723f
000003f0: 52fa 603e 3e6c f43d 24f0 393d db80 9c3d

bn1.running_var f4 [512]
0.090319164 0.18068974 1.3621111 0.91946423 0.21186616 0.7631146 0.6155233 1.7016509
0.040146787 6e-45 0.06321499 2.1114132 0.05268671 0.8983949 0.31078726 0.010600235
1.8005015 3.1712968 0.8447072 0.20939682 0.23386729 0.06262773 6e-45 0.038806908
2.5659978 0.89925086 0.8684869 0.22598183 1.4834008 0.02785816 0.9215908 1.9348336
3.5531313 0.5638059 0.049822487 2.1295555 0.250212 4.395274 2.3496168 1.3177919
0.78099453 1.4628525e-15 0.5956448 0.3090493 2.5999987 0.55050087 1.0188053 0.09163434
2.5398743 0.06337272 1.9761375 1.2356158 0.19498502 0.23877993 0.028043788 0.81869
0.12907079 1.444917 0.9932981 0.21629523 0.18941957 1.0611086 0.028551597 0.05192995
0.8245841 0.97257847 0.8242955 1.0638511 0.33495057 0.19795828 0.069830425 0.0520619
0.5561159 2.6731484 0.044406418 2.149616 0.45131 0.9865893 0.22387746 0.12058356
0.12609962 1.8303958 0.9732616 0.17055221 1.1445844 0.41652367 0.3513752 0.5340758
0.6560734 6e-45 0.14617251 0.37496528 0.048966642 0.3393185 0.025432998 0.1899632
1.5284941 0.5211539 0.29832375 0.9268444 0.10660668 0.28385144 1.2972919 0.89932525
0.034573376 0.098308615 0.6539619 6e-45 0.117140815 1.7771562 0.34753257 0.30994618
0.06990131 0.95738405 0.34796143 0.7569904 0.24259579 0.8858314 2.5670304 2.167427
1.2833663 1.8691117 0.44413766 0.21593751 0.023910372 0.059606485 4.131503 0.99165076
0.524757 0.682079 2.175917 0.28249088 0.08211446 0.2076191 0.032083556 0.014816802
0.013629411 2.3152995 1.4563513 0.08716063 6e-45 2.3087208 0.14240421 0.30544266
1.7152983 0.004361891 0.053023808 0.0009997413 3.2018855 0.11487182 1.5139536 4.640188
0.14425898 3.979849 0.010944435 0.35307577 0.37072837 6e-45 0.32919383 0.048066802
0.9429523 0.23744096 6e-45 0.12301336 0.8960758 1.0239938 6e-45 0.8735443
0.64323455 1.7554973 1.7955446 0.02983433 0.3140281 0.08405808 0.48034027 2.3783398
1.613581 0.29317763 0.07458284 2.429582 1.9061807 0.08101158 2.0761116 4.0426917
1.7051157 1.1496899 0.1676332 0.7039329 2.7109387 0.07987076 0.08462752 2.1758711
0.78389645 0.059758246 0.04373658 1.9372904 0.17914075 1.9866385 0.063353725 0.7630996
2.2576244 0.0022451896 0.90203637 0.42799658 0.37477732 4.0399346 0.02931256 0.75445765
2.3433673 0.03473559 1.49765 0.8971632 0.118847154 0.46922034 1.2468799 0.07889357
0.77693605 0.6482951 0.34862348 0.1053143 1.0775111 4.9428535 1.3817517 2.2905002
0.18155475 0.03696082 1.6985826 0.09957235 0.021714015 0.34273314 1.6479796 0.5388913
0.55116355 0.16096099 0.18872075 2.311597 1.5073786 0.07963796 0.72097003 1.818807
0.5651362 0.34531558 0.2717383 0.12514989 0.24295984 3.0190735 1.6095752 0.519033
0.25835904 0.10058503 2.4482248 1.4391372 0.48316202 0.21773028 0.048097465 0.041077446
00000000: 41f9 b83d bb06 393e a859 ae3f 0262 6b3f
00000010: 71f3 583e 7a5b 433f ef92 1d3f b2cf d93f
00000020: f570 243d 0400 0000 dc76 813d 6521 0740
00000030: 05ce 573d 35fd 653f 821f 9f3e 9cac 2d3c
00000040: d576 e63f 87f6 4a40 bb3e 583f 1f6c 563e
00000050: e87a 6f3e f842 803d 0400 0000 fef3 1e3d
00000060: 4f39 2440 4e35 663f 2855 5e3f c867 673e
00000070: 14e0 bd3f cc36 e43c 60ed 6b3f a1a8 f73f
00000080: 8166 6340 9555 103f aa12 4c3d a34a 0840
00000090: ca1b 803e 16a6 8c40 1f60 1640 68ad a83f
000000a0: 42ef 473f bbd1 d226 2d7c 183f b63b 9e3e
000000b0: 6166 2640 a0ed 0c3f 3668 823f c9aa bb3d
000000c0: 4d8d 2240 8ec9 813d 13f2 fc3f a928 9e3f
000000d0: 27aa 473e ba82 743e 16bc e53c ab95 513f
000000e0: 222b 043e 0af3 b83f c948 7e3f 7f7c 5d3e
000000f0: 34f7 413e 68d2 873f 0ae5 e93c 80b4 543d
00000100: f217 533f e7fa 783f 0805 533f 462c 883f
00000110: a47e ab3e 93b5 4a3e 4103 8f3d dc3e 553d
00000120: 9d5d 0e3f dd14 2b40 81e3 353d 4f93 0940
00000130: 1b12 e73e 1e91 7c3f 2240 653e 83f4 f63d
00000140: 4220 013e 694a ea3f ac27 793f 3da5 2e3e
00000150: be81 923f 9742 d53e 73e7 b33e 31b9 083f
00000160: 6df4 273f 0400 0000 3fae 153e 73fb bf3e
00000170: 3f91 483d 28bb ad3e dd58 d03c b785 423e
00000180: b2a5 c33f 586a 053f e4bd 983e ad45 6d3f
00000190: 9a54 da3d fa54 913e a90d a63f 2e3a 663f
000001a0: d09c 0d3d 0756 c93d 0c6a 273f 0400 0000
000001b0: 86e7 ef3d db79 e33f caef b13e 44b1 9e3e
000001c0: 6b28 8f3d 1f17 753f 0028 b23e 1fca 413f
000001d0: 086b 783e d9c5 623f 3a4a 2440 20b7 0a40
000001e0: 5945 a43f 0d3f ef3f 0366 e33e b91e 5d3e
000001f0: afdf c33c ee25 743d 4635 8440 d3dc 7d3f
00000200: 7a56 063f bb9c 2e3f 3942 0b40 a5a2 903e
00000210: a02b a83d 1a9a 543e 0c6a 033d 2cc2 723c
00000220: e54d 5f3c de2d 1440 b869 ba3f 4681 b23d
00000230: 0400 0000 15c2 1340 69d2 113e fb62 9c3e
00000240: e58e db3f 32ee 8e3b 7e2f 593d c009 833a
00000250: b1eb 4c40 eb41 eb3d 3bc9 c13f 6c7c 9440
00000260: a0b8 133e d9b5 7e40 4a50 333c 59c6 b43e
00000270: 1cd0 bd3e 0400 0000 188c a83e b2e1 443d
00000280: 5265 713f b923 733e 0400 0000 6eee fb3d
00000290: 3965 653f 3b12 833f 0400 0000 99a0 5f3f
000002a0: 05ab 243f 23b4 e03f 68d4 e53f 2067 f43c
000002b0: 4bc8 a03e a526 ac3d 29ef f53e b836 1840
000002c0: d289 ce3f 611b 963e e3be 983d 467e 1b40
000002d0: bbfd f33f 66e9 a53d 03df 0440 bb5d 8140
000002e0: 3b41 da3f 0a29 933f 0aa8 2b3e f234 343f
000002f0: 0580 2d40 4893 a33d 3151 ad3d 7941 0b40
00000300: 70ad 483f 10c5 743d 2125 333d 22f9 f73f
00000310: ac70 373e 2c4a fe3f 99bf 813d 7f5a 433f
00000320: eb7c 1040 0824 133b dbeb 663f 5e22 db3e
00000330: d0e2 bf3e 2547 8140 e520 f03c 2324 413f
00000340: bbf9 1540 e846 0e3d ffb2 bf3f 7dac 653f
00000350: 2366 f33d a63d f03e c399 9f3f f492 a13d
00000360: 48e5 463f abf6 253f c77e b23e 06af d73d
00000370: e2eb 893f db2b 9e40 3ddd b03f 8e97 1240
00000380: 7de9 393e 3b64 173d 286b d93f 97ec cb3d
00000390: 97e1 b13c b87a af3e fff0 d23f c8f4 093f
000003a0: 0e19 0d3f f5d2 243e 0340 413e 35f1 1340
000003b0: c8f1 c03f 3a19 a33d 7e91 383f abce e83f
000003c0: c4ac 103f 34cd b03e 4821 8b3e 4b27 003e
000003d0: 77ca 783e 8038 4140 8f06 ce3f 59df 043f
000003e0: a347 843e 86ff cd3d b7af 1c40 a635 b83f
000003f0: 0361 f73e b0f4 5e3e d901 453d d340 283d

fc2.weight f4 [256, 512]
0.067647584 -0.14188299 -0.067428686 0.035751138 -0.06332146 -0.013691868 -0.006828931 -0.03950165
-0.0139822755 0.044901732 0.0030864882 0.0464326 0.046346817 -0.038386874 -0.01321074 -0.020234503
0.031340364 0.060382597 0.024268469 0.09632908 0.11297601 0.08343638 0.007638397 -0.008646085
-0.03388956 0.043705452 0.022690916 0.05542675 -0.03366168 0.069668986 -0.012611176 -0.0062268735
0.07500656 0.1020937 0.08855987 0.047707293 -0.023608826 0.012002919 -0.066483475 -0.120837055
0.011514293 -0.08678527 -0.077915184 0.03388685 -0.12357167 0.01618835 0.013992184 0.1252369
-0.0932635 0.0021350123 0.01903193 0.04526868 -0.06797401 0.11223784 -0.025292214 0.071209215
0.12524067 -0.085862696 0.009926183 0.06605059 -0.07545012 -0.06362724 -0.021950345 -0.0436322
-0.02894983 -0.0014713631 -0.03870821 0.12246645 0.027552618 -0.035858735 0.11648332 -0.08005724
-0.024423407 -0.08358061 0.15402962 0.03014792 0.042893276 0.033174593 0.03091542 -0.020305946
0.04334693 0.04663173 0.011866305 0.060219493 0.0020437487 -0.10051055 0.010185368 0.07910431
-0.0579927 0.0007946457 0.06485879 -0.00280289 0.06711912 0.052450508 0.009233529 -0.02566983
0.13344258 -0.027329858 -0.12920794 0.0056427554 0.06832196 0.007728379 -0.0064076656 0.028474428
-0.048814524 0.02948808 0.0064520934 -0.010987839 0.025818346 0.00579729 -0.090646744 0.06387916
-0.027082529 0.053844985 -0.012206721 -0.079442866 0.01894141 -0.008694719 0.04527192 -0.04413597
-0.0049573053 0.002429797 0.04955853 0.053202253 0.10853691 -0.055137258 0.026907315 0.0022952543
-0.0728067 -0.11831379 -6.960032e-05 0.06551045 -0.0148877995 -0.060708404 -0.01180303 -0.010269559
0.06760035 0.032202322 -0.11134052 0.109988615 0.11558932 -0.09552332 -0.10836215 0.062924504
0.017479194 -0.053672418 -0.014021482 -0.04368919 -0.044875663 -0.108452216 -0.049646355 0.040384043
-0.040564828 -0.056818034 0.031128434 -0.0017445768 0.05219847 -0.048806153 0.10406355 0.0031140586
-0.03386141 0.00066416844 0.060675487 0.14438696 -0.066385135 0.0037376538 0.16864929 -0.016948564
0.06931152 -0.046427563 -0.018672587 0.030771429 -0.02980145 0.028768463 0.0025671122 0.049975548
-0.010288799 -0.04298461 0.017416686 -0.040899698 -0.022111945 0.097295985 0.06659229 0.13026206
-0.0070603704 0.004466763 0.05020187 -0.06418815 -0.06362 -0.006035605 -0.098512515 0.10160259
0.05133493 -0.008459596 -0.014942751 0.028250638 -0.037161104 0.053675894 0.07023455 -0.06550134
0.02331152 0.04192742 0.03028082 -0.004402056 -0.055378016 -0.0013348917 -0.0010460194 -0.15353037
0.05403261 -0.01176691 -0.074026175 0.08895017 0.07565892 0.08051878 0.029046921 0.13768579
-0.03012956 0.048236553 0.10293134 0.043398052 0.029296074 0.09137992 0.049393754 -0.0065626
0.0057459516 0.017191991 0.005068774 -0.08591654 -0.03970495 -0.05610457 -0.0053344397 -0.011803934
0.048278507 0.094039276 -0.022009827 -0.082705975 0.02500983 -0.09985015 -0.03449344 0.048411656
-0.004698331 0.009097342 0.05702954 -0.030785074 -0.050239347 -0.10295733 -0.040677465 0.030714476
-0.070293084 0.0626042 0.09835681 -0.056578383 -0.015540288 -0.051584795 0.014395439 -0.057273306
00000000: d18a 8a3d c649 11be 0d18 8abd c96f 123d
00000010: aeae 81bd db53 60bc 3ac5 dfbb 7bcc 21bd
00000020: ea15 65bc e1ea 373d ae46 4a3b 1c30 3e3d
00000030: 29d6 3d3d 8e3b 1dbd dc71 58bc d4c2 a5bc
00000040: c15e 003d be53 773d abce c63c 2e48 c53d
00000050: f75f e73d b1e0 aa3d 854b fa3b 4fa8 0dbc
00000060: c7cf 0abd 7d04 333d 4de2 b93c 2907 633d
00000070: d4e0 09bd 9dae 8e3d 1b9f 4ebc cd0a ccbb
00000080: 0a9d 993d 8016 d13d e15e b53d b968 433d
00000090: 4c67 c1bc e4a7 443c 7d28 88bd 6b79 f7bd
000000a0: 72a6 3c3c 7abc b1bd ff91 9fbd f0cc 0a3d
000000b0: 2513 fdbd 6e9d 843c 793f 653c 1a3e 003e
000000c0: ef00 bfbd 90eb 0b3b dae8 9b3c a76b 393d
000000d0: f535 8bbd f4dc e53d 9e31 cfbc 23d6 913d
000000e0: 173f 003e c8d8 afbd 6ea1 223c 8845 873d
000000f0: 9885 9abd 004f 82bd 36d1 b3bc aeb7 32bd
00000100: 3228 edbc c1da c0ba 808c 1ebd b1cf fa3d
00000110: 07b6 e13c 9ce0 12bd cf8e ee3d 0df5 a3bd
00000120: 9913 c8bc 502c abbd f1b9 1d3e c5f8 f63c
00000130: dcb0 2f3d 15e2 073d 5642 fd3c a858 a6bc
00000140: 8d8c 313d ea00 3f3d e46a 423c b7a8 763d
00000150: 6af0 053b 7ad8 cdbd 88e0 263c 7101 a23d
00000160: c189 6dbd c54f 503a afd4 843d b1b0 37bb
00000170: c075 893d 58d6 563d 3a48 173c 8949 d2bc
00000180: 2ca5 083e dee2 dfbc 164f 04be dde6 b83b
00000190: 62ec 8b3d 583e fd3b 65f7 d1bb 3443 e93c
000001a0: bdf1 47bd fc90 f13c 156c d33b 5606 34bc
000001b0: ff80 d33c 31f7 bd3b 00a5 b9bd 14d3 823d
000001c0: 2edc ddbc 8f8c 5c3d b3fe 47bc f1b2 a2bd
000001d0: 042b 9b3c 4b74 0ebc 0c6f 393d ebc7 34bd
000001e0: e470 a2bb 3b3d 1f3b e3fd 4a3d 9bea 593d
000001f0: 9948 de3d 9bd7 61bd bb6c dc3c fa6b 163b
00000200: ae1b 95bd 804e f2bd 63f6 91b8 582a 863d
00000210: f5eb 73bc 60a9 78bd 7f61 41bc a741 28bc
00000220: 0d72 8a3d 95e6 033d 8006 e4bd b641 e13d
00000230: 18ba ec3d bba1 c3bd faec ddbd 90de 803d
00000240: 8730 8f3c 9cd7 5bbd 5cba 65bc 70f3 32bd
00000250: 8bcf 37bd 321c debd fa59 4bbd bd69 253d
00000260: 4e27 26bd 07ba 68bd 0f01 ff3c 49aa e4ba
00000270: 10ce 553d f6e8 47bd 451f d53d 3c15 4c3b
00000280: 43b2 0abd 971b 2e3a dc86 783d 2dda 133e
00000290: eef4 87bd 6df3 743b 66b2 2c3e b7d7 8abc
000002a0: 33f3 8d3d d42a 3ebd 41f7 98bc 5d14 fc3c
000002b0: 2c22 f4bc d7ab eb3c ff3c 283b 29b3 4c3d
000002c0: 5a92 28bc a110 30bd 70ad 8e3c 7186 27bd
000002d0: 1c24 b5bc 1e43 c73d 8a61 883d 6b63 053e
000002e0: ae5a e7bb ed5d 923b 7aa0 4d3d 1475 83bd
000002f0: 344b 82bd 53c6 c5bb eec0 c9bd 0515 d03d
00000300: 9344 523d 1e9a 0abc 71d2 74bc e26d e73c
00000310: 3e36 18bd 41db 5b3d 22d7 8f3d 9125 86bd
00000320: cdf7 be3c 16bc 2b3d 7b0f f83c 1f3f 90bb
00000330: 0fd4 62bd 88f7 aeba 961a 89ba 1137 1dbe
00000340: 4c51 5d3d ffc9 40bc 099b 97bd 822b b63d
00000350: 10f3 9a3d 08e7 a43d cff3 ed3c 81fd 0c3e
00000360: 44d2 f6bc b193 453d abcd d23d 28c2 313d
00000370: 52fe ef3c 6525 bb3d 1b51 4a3d 140b d7bb
00000380: 8948 bc3b 38d6 8c3c f517 a63b 03f5 afbd
00000390: a8a1 22bd e8cd 65bd 86cc aebb 4a65 41bc
000003a0: afbf 453d aa97 c03d f44d b4bc c061 a9bd
000003b0: 6ae1 cc3c 3c7e ccbd fe48 0dbd 4d4b 463d
000003c0: 75f4 99bb 050d 153c cf97 693d fb30 fcbc
000003d0: c6c7 4dbd 4bdb d2bd 6a9d 26bd ed9c fb3c
000003e0: d2f5 8fbd a136 803d 4c6f c93d bcbe 67bd
000003f0: b19c 7ebc 944a 53bd d9da 6b3c 6a97 6abd

fc2.bias f4 [256]
0.024516445 -0.046753608 -0.07699644 -0.043992665 0.0017076308 -0.0927419 -0.0076649096 -0.04669909
0.025303997 0.110486805 -0.035597216 -0.023447057 0.078465566 0.02291963 0.032540884 -0.026593115
-0.028416108 0.011522408 0.024607524 0.053996995 0.059608772 0.020339957 -0.019179976 0.0076795607
0.042316876 0.13738503 0.002246588 -0.052801676 -0.05075721 -0.05490812 -0.024523586 0.009133995
-0.011272417 -0.15516047 -0.015219705 0.029165735 0.11425293 -0.008004702 0.04513913 0.062161844
-0.016444221 -0.023037545 -0.015787657 -0.09307642 0.053840704 0.033162527 -0.047525503 -0.0064155324
-0.008242436 0.004360193 0.013980046 -0.008401319 0.024819605 -0.057440553 0.05637633 -0.02898286
-0.030359522 -0.13194436 -0.012391839 -0.04366217 -0.07139467 -0.019521583 -0.05402797 -0.074164964
-0.033470843 -0.04162493 -0.048546754 0.024891263 -0.039815832 -0.016728304 -0.037481025 0.045090392
0.049238645 -0.058548514 -0.02884564 0.007815593 -0.048659198 -0.023576735 -0.021376444 -0.09245561
-0.036338218 -0.049422175 0.04380281 -0.10446499 0.018755978 0.055724133 -0.030707745 0.0024076295
-0.07809813 0.05214028 0.08225259 0.0056907665 -0.016884832 -0.077848956 0.011151604 0.02271082
0.023478368 0.0151647935 -0.011870252 -0.0504767 0.057121303 0.0055577816 0.02045548 -0.045410376
0.016803889 -0.03501714 -0.010513038 -0.028261488 -0.103027344 -0.063403785 0.028285787 -0.004818919
0.0043337843 0.06701178 0.010521464 0.02088133 -0.027923407 -0.01135632 -0.005200546 -0.029316692
0.0007101091 -0.0669344 -0.08945701 0.02635406 0.11802297 0.0015793382 -0.00035609474 -0.004273691
0.041973334 -0.054836065 -0.045386665 0.059655473 -0.08874567 -0.0046018683 -0.038559962 -0.051728502
-0.057628732 0.04785549 0.048760224 0.0045663556 -0.09563613 -0.076217726 0.04690291 -0.017299084
-0.088155195 0.0034733196 -0.04605648 -0.05352864 -0.040191203 0.053690195 0.034574382 0.002036183
-0.04865398 -0.0502123 -0.078389086 0.0045522074 -0.072448954 -0.0085590575 0.020918785 -0.03857928
-0.009094173 0.0042570727 -0.04186962 -0.06410951 0.010430285 -0.0746615 -0.09362458 -0.075710654
-0.026787022 -0.093676105 0.03584901 0.07424753 -0.047523502 -0.027988618 0.089113444 -0.02793089
-0.04419912 -0.1533828 0.02346399 -0.009863767 -0.050619178 -0.023209114 -0.04802704 -0.0940481
-0.015058395 -0.06609807 0.009079487 -0.006769171 0.11052319 -0.021139383 0.0066294787 -0.050269242
0.022336043 -0.035802685 -0.0706021 -0.0062551284 0.047985815 0.09972682 0.002062465 -0.09010577
-0.06597521 -0.013775732 0.040983994 0.07219577 0.014613946 -0.040617328 -0.109301604 -0.045231037
-0.060232695 0.072970435 -0.06274954 0.075068295 0.048982617 0.032581292 -0.0052394676 -0.00031254746
0.047015447 -0.07049877 -0.09310726 -0.04016275 -0.040255934 -0.00076995546 0.0435692 0.016846927
0.056399133 -0.027071696 -0.008550967 -0.04619045 0.018713137 -0.012856591 0.004563885 -0.080873705
-0.063837886 -0.0669455 0.035108257 0.085457824 -0.07099047 0.028133674 0.046957783 -0.009901371
-0.0053814966 -0.0046392567 0.007366745 0.03604799 0.010344613 -0.0717215 -0.06290051 -0.049497016
-0.0009503627 -0.0060832347 -0.09913821 0.01233502 0.080491364 -0.079725236 0.048471283 0.013762435
00000000: b6d6 c83c b680 3fbd 4fb0 9dbd a731 34bd
00000010: 95d2 df3a 77ef bdbd ec29 fbbb 8c47 3fbd
00000020: 544a cf3c e846 e23d 63ce 11bd 0b14 c0bc
00000030: 8eb2 a03d f3c1 bb3c 9749 053d ced9 d9bc
00000040: e6c8 e8bc 7bc8 3c3c b895 c93c f42b 5d3d
00000050: 5428 743d fb9f a63c 531f 9dbc d3a4 fb3b
00000060: 7654 2d3d a9ae 0c3e 7e3b 133b 9246 58bd
00000070: cbe6 4fbd 56e7 60bd b0e5 c8bc c0a6 153c
00000080: f2af 38bc 63e2 1ebe 125c 79bc fbec ee3c
00000090: 71fd e93d 2726 03bc cfe3 383d 6b9d 7e3d
000000a0: 08b6 86bc 3cb9 bcbc 1e55 81bc da9e bebd
000000b0: 1288 5c3d 6ed5 073d 1aaa 42bd 6339 d2bb
000000c0: 480b 07bc f3df 8e3b 900c 653c b0a5 09bc
000000d0: 7c52 cb3c c946 6bbd deea 663d 766d edbc
000000e0: 88b4 f8bc 6c1c 07be 2407 4bbc 1bd7 32bd
000000f0: 5e37 92bd baeb 9fbc 6f4c 5dbd cde3 97bd
00000100: b918 09bd e77e 2abd f6d8 46bd c3e8 cb3c
00000110: ed15 23bd cc09 89bc b485 19bd b4b0 383d
00000120: 76ae 493d 91d0 6fbd b14d ecbc f90c 003c
00000130: de4e 47bd ff23 c1bc a71d afbc 5e59 bdbd
00000140: 62d7 14bd e86e 4abd 936a 333d bef1 d5bd
00000150: 23a6 993c fd3e 643d cf8e fbbc 52c9 1d3b
00000160: eaf1 9fbd 0c91 553d 0c74 a83d 9c79 ba3b
00000170: 0f52 8abc 466f 9fbd 38b5 363c 0b0c ba3c
00000180: b555 c03c c175 783c 727b 42bc a8c0 4ebd
00000190: 07f8 693d 0d1e b63b 4092 a73c 3b00 3abd
000001a0: 4fa8 893c 226e 0fbd e13e 2cbc a384 e7bc
000001b0: 0000 d3bd d8d9 81bd 98b7 e73c 06e8 9dbb
000001c0: 6b02 8e3b 793d 893d 3862 2c3c 530f ab3c
000001d0: a1bf e4bc dc0f 3abc 5769 aabb 8f29 f0bc
000001e0: 9d26 3a3a e714 89bd 3d35 b7bd 78e4 d73c
000001f0: 07b6 f13d cc01 cf3a 3ab2 bab9 520a 8cbb
00000200: 3bec 2b3d c89b 60bd 5ee7 39bd 4c59 743d
00000210: 4ac0 b5bd 45cb 96bb 0df1 1dbd 44e1 53bd
00000220: 1b0c 6cbd 1e04 443d cdb8 473d 5ea1 953b
00000230: e0dc c3bd 0a18 9cbd 441d 403d cfb6 8dbc
00000240: b68a b4bd a2a0 633b b8a5 3cbd d940 5bbd
00000250: 889f 24bd 40ea 5b3d de9d 0d3d 7b71 053b
00000260: 6549 47bd 6aab 4dbd 758a a0bd af2a 953b
00000270: 1e60 94bd 4a3b 0cbc df5d ab3c 4f05 1ebd
00000280: baff 14bc ea7e 8b3b 7b7f 2bbd d94b 83bd
00000290: c9e3 2a3c 21e8 98bd 3ebe bfbd 300e 9bbd
000002a0: 7570 dbbc 42d9 bfbd 69d6 123d 170f 983d
000002b0: 01a8 42bd 6348 e5bc 1c81 b63d 52cf e4bc
000002c0: 230a 35bd 6110 1dbe 8e37 c03c a39b 21bc
000002d0: 0e56 4fbd 0a21 bebc 00b8 44bd 4a9c c0bd
000002e0: 7db7 76bc 6d5e 87bd 21c2 143c eccf ddbb
000002f0: fb59 e23d 802c adbc 193c d93b 1fe7 4dbd
00000300: 14fa b63c d6a5 12bd d597 90bd d2f7 ccbb
00000310: c68c 443d 933d cc3d 6c2a 073b 6089 b8bd
00000320: 031e 87bd 9cb3 61bc d5de 273d 60db 933d
00000330: 556f 6f3c 5b5e 26bd 85d9 dfbd 2e44 39bd
00000340: 8fb6 76bd 8671 953d d582 80bd 68bd 993d
00000350: ffa1 483d f673 053d d7af abbb 69dd a3b9
00000360: 4593 403d a961 90bd 05af bebd b281 24bd
00000370: 68e3 24bd d6d6 49ba 9e75 323d 9102 8a3c
00000380: c702 673d 76c5 ddbc 5b19 0cbc 3332 3dbd
00000390: 4b4c 993c 73a4 52bc a48c 953b 1da1 a5bd
000003a0: 70bd 82bd b91a 89bd adcd 0f3d 8304 af3d
000003b0: 7463 91bd 9778 e63c ce56 403d 5c39 22bc
000003c0: 4457 b0bb e804 98bb bc64 f13b 0fa7 133d
000003d0: 747c 293c b9e2 92bd fcd1 80bd 62bd 4abd
000003e0: c321 79ba df55 c7bb f908 cbbd d318 4a3c
000003f0: a8d8 a43d fc46 a3bd d389 463d d67b 613c
