checkpoint_actor_<ddpg_agent.Agent object at 0x7f5adf152198>.pth (torch, 590674 bytes, 10 tensors)

fc1.weight f4 [512, 24]
000000 3d 11 bd 3c ab ec 30 3e d5 1c 81 3a 0f 92 8a 3b
       0.023079509 0.17277782 0.0009850512 0.0042288373
000010 a7 00 a2 bd 3a 8b 9f bd 61 bd 75 ba 0f 64 10 3d
       -0.07910281 -0.07790227 -0.0009374228 0.035251673
000020 59 64 06 3d 5c 5a 10 3e ea c2 4d ba 9b b3 89 bc
       0.032810543 0.1409697 -0.0007849174 -0.016809275
000030 f3 b4 45 bd 27 ae fa bd 35 00 c1 3c a3 18 54 bd
       -0.04826827 -0.12240248 0.023559669 -0.051781308
000040 7a 84 fa bb 1c b8 0c 3e 5b 41 cb 3c 8a 59 83 bd
       -0.007645187 0.13742107 0.024811437 -0.064135626
000050 79 01 8c 3c 44 18 a9 bd e3 b1 3c b8 99 7f be bd
       0.017090546 -0.082565814 -4.4988363e-05 -0.09301681
000060 56 c2 d6 3d da b2 80 bd 00 ef 2c bd a5 e1 23 3d
       0.104862854 -0.06284113 -0.042220116 0.040010113
000070 b1 0e e5 3b 98 0d 90 bd 54 59 ff bb 56 6f dd bc
       0.0069902767 -0.07033843 -0.007792631 -0.027030628
000080 d1 62 e3 3c df b2 b0 bd 48 a0 54 bc 70 d1 3b 3d
       0.02775708 -0.08627867 -0.012977667 0.045854032
000090 d4 09 e5 3c ad 22 cd bd 44 97 d9 3b 7e b9 d3 bb
       0.027958788 -0.100163795 0.0066403467 -0.0064613214
0000a0 90 cc 97 3d 2d 7d 11 be cd 11 21 bc b9 c7 83 bc
       0.07412064 -0.14207907 -0.009830904 -0.016086446
0000b0 c5 22 87 3c b3 cd 8e bd 10 69 52 3d 22 53 31 3d
       0.016496072 -0.06972828 0.051369727 0.043292172
0000c0 7f 74 f0 3a 64 b8 46 3d a3 24 e3 3a 49 bf 8d 3d
       0.0018345265 0.048515692 0.0017329644 0.069212504
0000d0 a1 60 4a 3c ea db dc 3c 8e 52 29 bd 92 a1 ca 3c
       0.01235214 0.026960332 -0.041338496 0.024735246
0000e0 8d 4f fe bb cf 30 64 3d a5 74 a9 bc 52 f5 d8 3b
       -0.007760948 0.05571061 -0.020685503 0.0066210413
0000f0 48 68 ec 3c d0 7c 36 3d df 5e 27 bc a4 fd 6a 3c
       0.028858319 0.044552624 -0.01021549 0.014342699
000100 da 1e 26 bd 3a 60 9b 3d 4f a7 54 bc 23 dd ec 3d
       -0.040556766 0.07586713 -0.012979343 0.11565616
000110 ff 40 c4 3d d3 7b fe b9 1d c2 5b bd fe a4 1e 3e
       0.095827095 -0.00048538912 -0.053651918 0.15492627
000120 79 bb 0a bd 33 98 91 3d 2f 22 69 3d 83 3d 8f 3c
       -0.033870194 0.07109108 0.056917366 0.017485386
000130 22 9c 8b bd c4 9b da 3c f8 c5 dc bc 36 36 03 3d
       -0.06816889 0.026685603 -0.026949868 0.03203412
000140 65 97 8b bb 6c 1c 8d ba 1f 8a 75 3d 9a a2 eb bc
       -0.004259991 -0.0010765917 0.059946176 -0.028764058
000150 16 91 11 bd 33 c8 02 3d ff f5 bc bb 85 96 d9 bc
       -0.035538755 0.031929206 -0.0057666297 -0.026561031
000160 80 75 89 bd 6b 38 44 3d 3e e8 b5 bd bc b6 3c bc
       -0.067118645 0.047905367 -0.08882187 -0.011518177
000170 d1 a9 27 bc f3 46 9d bd 9c d6 70 bd 07 82 4a 3d
       -0.0102333585 -0.07679548 -0.058798417 0.04944041
000180 35 8b 12 bc d6 62 08 3e ba 97 10 ba c3 bd 26 bd
       -0.008944322 0.13318953 -0.0005515773 -0.040708315
000190 59 e2 28 bd ea 2f 98 bd fb 4d 23 bd ca 29 7b 3c
       -0.041231487 -0.07431014 -0.03986929 0.0153297875
0001a0 86 94 70 3c 54 1a 84 3d 56 8a 5f 3c a4 50 14 3d
       0.014683848 0.06450334 0.013643822 0.036209717
0001b0 e3 ba 0a bc 32 f2 1d be af 03 56 bc a7 62 12 bd
       -0.008467409 -0.15424421 -0.013062402 -0.035738613
0001c0 ed 77 f1 bc 9d 0f 04 3e e1 e8 04 3c 43 2c 2d bc
       -0.02947613 0.12896581 0.008112163 -0.010569635
0001d0 24 1d 11 bd b1 82 40 be 9a 73 fb bb 69 ba ca bc
       -0.03542818 -0.18799855 -0.007673693 -0.02474709
0001e0 18 75 94 bc de 76 5a 3c ec e4 23 3c a3 9c 31 3d
       -0.01812224 0.013334004 0.01000331 0.04336227
0001f0 7c 7b c2 bc 7d a7 84 bd 17 98 cf bc 14 dc 70 3b
       -0.023740523 -0.06477258 -0.025341077 0.003675227
000200 74 48 b2 bc 20 9a c3 3c 8a 17 d5 bb e1 de c1 bc
       -0.021763064 0.023877203 -0.00650305 -0.023665847
000210 8a 8d 7c 3c e0 05 a5 bd 48 3a b9 bc f5 4a e9 ba
       0.015414605 -0.08057761 -0.022610798 -0.0017798828
000220 ef 4f e5 bd 25 4d 00 bc 78 e2 02 bc d5 66 00 3b
       -0.11196887 -0.007830893 -0.007988565 0.0019592543
000230 c8 d0 40 3d f1 7c 82 be 48 d1 e8 b5 52 49 c8 3b
       0.04707411 -0.25485948 -1.7346256e-06 0.006112256
000240 52 21 30 bd ad 4c 17 3d a4 f5 42 bb a1 32 bb bb
       -0.043000527 0.036938358 -0.0029748464 -0.0057128225
000250 92 8a a4 3c a5 ae 80 3c 8a 74 a0 bc 9e 35 a0 3b
       0.020085607 0.015708277 -0.01958682 0.004889204
000260 82 97 25 3c 8b e9 a9 3d 77 b7 dc bc a1 db 61 3d
       0.010106923 0.08296498 -0.026942952 0.055141095
000270 eb 06 f1 3b ee 80 c2 bd 24 25 a4 bc 44 2d fc 3c
       0.007355561 -0.09497248 -0.020037241 0.030783303
000280 9c 47 b5 bc 4d e7 a7 3d bd 10 9f 3c 37 94 23 3c
       -0.022128873 0.08198414 0.019417161 0.009984068
000290 2d 2e af bd 29 d8 6f be 9f 5b c8 bc fe 6e ef 3c
       -0.08553729 -0.23422302 -0.02445775 0.02922773
0002a0 59 66 09 3d a3 ab 28 3d 9e 69 be 3a 84 aa c7 3d
       0.033544872 0.04117931 0.0014527326 0.0974932
0002b0 8b c3 9c bc 5d d3 f0 3b 9b 3c b2 bb 8a e0 23 3e
       -0.01913621 0.007349415 -0.0054393536 0.16003624
0002c0 51 e5 15 3d 63 9b f0 3c 88 e6 2a bc 7d 3e ce 3d
       0.036595646 0.02937097 -0.0104309395 0.100705124
0002d0 d7 77 3c 3c 86 6e 02 3c ce b4 f2 bb d9 b3 2d 3e
       0.011503181 0.007960921 -0.0074068075 0.16963138
0002e0 df e4 c5 3d 84 66 60 3c f4 07 b4 3b 14 26 2c 3d
       0.09662794 0.013696317 0.005494112 0.0420285
0002f0 85 ec 9a bd d4 1c 56 3d 63 25 d4 3b ba f5 58 3d
       -0.07564644 0.052273586 0.0064741834 0.052968718
000300 1f 27 e1 3c bd ad 1a 3e 17 33 b3 bc f2 90 07 be
       0.027484475 0.15105338 -0.021874947 -0.13238886
000310 81 e3 d0 bd 20 f8 19 3b 75 cc a4 bb cf 7a b4 bd
       -0.10199643 0.0023493841 -0.005029256 -0.088124864
000320 bb 1f be bb da 76 08 3e ae 0a 8d 3c b6 fb ce b8
       -0.0058021224 0.13326588 0.017217007 -9.86973e-05
000330 2f 49 77 bc b5 17 50 bd 82 97 bb bc 3a 66 cb bc
       -0.015093132 -0.05080386 -0.022899393 -0.024829019
000340 39 5f 97 3c 6d 35 ec 3d 23 7a e7 3c 78 59 bc bd
       0.018478023 0.11533628 0.028256482 -0.09196752
000350 29 ef e7 3a ee 08 fd bd 5c b1 8b bc ba 89 bb bd
       0.0017695177 -0.12355219 -0.017052345 -0.09157129
000360 14 e2 2a 3d 8c 89 5a bc 41 a0 2a bd c8 ad ab 3c
       0.04171951 -0.013338458 -0.041656736 0.020956889
000370 3c 66 c9 bd 6d 4c bb bd 53 33 23 bd 0d 87 db 3b
       -0.09833953 -0.091454364 -0.03984387 0.006699449
000380 65 ba f5 bc b8 86 8a bd 7d a0 9b bc 63 2b 00 3b
       -0.029996106 -0.06763977 -0.018997425 0.001955711
000390 c2 ee 49 bd 05 ff 2c bd 12 1d ec bc e3 ad de 3c
       -0.049299963 -0.042235393 -0.028822456 0.027182525
0003a0 02 52 8c 3b 0f f5 ba bb 3f fe 0f 3b c7 7d 34 3d
       0.004282237 -0.005705483 0.002197161 0.044065263
0003b0 69 49 63 bd a7 73 fd 39 03 22 29 bd 93 05 d8 bb
       -0.05548993 0.00048342088 -0.0412922 -0.0065924614
0003c0 58 3e 0a bd c1 bd 18 be 6e 35 11 3c 70 d8 44 3b
       -0.033750862 -0.14916135 0.008862836 0.0030036233
0003d0 05 f6 49 3c 90 fb 40 bd 01 dc 54 bd 02 26 15 3b
       0.012326722 -0.04711491 -0.051967625 0.002275825
0003e0 14 bb 03 3d 2c 16 35 be cd 27 14 3d b4 00 cd 3a
       0.032160833 -0.17684239 0.03617077 0.0015640468
0003f0 5d 2a ef 3c a2 1b bf 3c 52 40 53 3c e3 ab 0d 3b
       0.029195005 0.023328606 0.012893753 0.0021617345

fc1.bias f4 [512]
000000 11 44 fb bc 80 4d 05 bd ce 8c 78 bd 83 89 11 be
       -0.030672105 -0.032544613 -0.060681157 -0.14212613
000010 09 88 04 be a6 f2 8e 3d f5 06 0b be f6 d9 84 3d
       -0.12942518 0.06979875 -0.13576873 0.06486885
000020 a2 b3 a0 bd 6c 12 18 be 1e 16 44 be 44 8e d3 3d
       -0.07846762 -0.14850777 -0.19149062 0.103298694
000030 bc 37 d1 3d 72 1b 0c 3e 11 dd 64 be ee 73 91 bd
       0.102157086 0.13682345 -0.22349955 -0.0710219
000040 aa 07 eb bd f5 c5 0e be 2b ef 32 be ee b5 68 3e
       -0.11476071 -0.13942702 -0.17474048 0.2272565
000050 a4 43 f7 3d 72 eb 24 be 31 90 d8 3d 34 8a d1 bd
       0.12073448 -0.1610544 0.10574377 -0.10231438
000060 d5 9b c7 3d 31 4d ee ba 57 7d 4e 3d b1 6f 45 bd
       0.097465195 -0.0018180964 0.050412502 -0.04820222
000070 70 39 36 be 0a 2a a2 be 61 f1 48 be 83 6a b6 3d
       -0.17795348 -0.31672698 -0.19623329 0.08907034
000080 3b 5d 17 3e 65 0d 41 3e fd 86 b0 3d 74 fa 62 be
       0.14781658 0.18852766 0.08619497 -0.22165853
000090 99 eb 30 be 1f 18 47 3c 69 2c 1f be 3d b6 d9 bd
       -0.17277373 0.012151747 -0.15544285 -0.10630462
0000a0 a6 bf a2 3c b0 6d cc bd 26 b9 d7 bc 2c b9 d2 bc
       0.019866776 -0.09981859 -0.026333403 -0.025723062
0000b0 c1 d3 d5 bd ac 47 19 3c 74 44 95 ba 7c fc 69 be
       -0.104407795 0.009355467 -0.0011388198 -0.22850221
0000c0 86 3d f6 3d 7e a7 4a 3e db 3a 83 be 93 ea 46 bd
       0.120234534 0.19790456 -0.2563084 -0.04856355
0000d0 ea 34 b6 bd 8f 0d 81 bd a3 65 cf bd d3 5d d1 bd
       -0.08896811 -0.06301414 -0.101268075 -0.10222974
0000e0 37 48 50 3d d1 2e a5 3d 1e 27 b6 bc a0 24 e0 bc
       0.05085012 0.0806557 -0.02223545 -0.027361214
0000f0 47 86 89 bd 18 2e 9a bd a8 b2 5e bd f3 12 81 3d
       -0.067150645 -0.07528323 -0.0543696 0.063024424
000100 4b 9c ce 3c af 8d 32 bc 03 46 18 be fa 5d 0e bd
       0.02522101 -0.010898038 -0.14870457 -0.03475759
000110 ba 9a 2a be 41 72 b7 3d df 0f 3a 3e ba f3 67 be
       -0.16660586 0.08957339 0.18170117 -0.22651568
000120 68 1f c0 bd 60 15 a0 3d ac 57 f4 3b ea 91 0c 3e
       -0.0938099 0.07816577 0.0074567404 0.13727537
000130 1a e7 99 bd 1f a7 f7 bd 8d 43 2e be 59 8e 29 be
       -0.07514782 -0.12092423 -0.17017956 -0.16558208
000140 55 b8 15 3d e9 7b 11 3e 05 2a 39 3e 4b b5 e8 bd
       0.036552746 0.14207424 0.18082435 -0.11362704
000150 9a e9 06 3e 05 66 da bd ca 77 47 be b3 e5 ad bd
       0.1317505 -0.1066399 -0.1947929 -0.08491077
000160 fa 51 b3 3d e3 22 d7 3a e0 25 44 be f1 fe bb bd
       0.0875587 0.0016413595 -0.19155073 -0.091794856
000170 fe 5e 58 3e 0b b7 0c 3d 52 59 9e bd 69 17 bd bd
       0.21129987 0.03435425 -0.0773188 -0.09232981
000180 a0 b8 61 3d 87 87 44 3e 66 13 75 3d 36 bc c4 3c
       0.055107713 0.19192325 0.059832953 0.024015527
000190 93 06 03 be 12 3f 73 be 23 16 96 3d 1a e8 56 bd
       -0.12795477 -0.23754528 0.07328441 -0.052467443
0001a0 ce b9 89 3c f0 f2 08 bb c0 5e 44 be 7b 41 4d be
       0.016812231 -0.0020896755 -0.1917677 -0.2004451
0001b0 1f 81 16 3d b1 5b 19 be 5b 8d 8b be 9d 07 9c bd
       0.036744233 -0.14976384 -0.27256283 -0.076186396
0001c0 75 41 a2 bd 97 3e 1f be d9 1e 68 be 49 19 db bd
       -0.07922641 -0.1555122 -0.22668017 -0.10698182
0001d0 c0 fc 2f be fb f1 48 bc 9f 46 84 be a4 49 f6 bd
       -0.1718626 -0.012264724 -0.2583513 -0.120257646
0001e0 9a 22 46 be 69 a6 d7 bd 79 8f 88 be b2 89 7d bd
       -0.19349137 -0.10529787 -0.2667196 -0.061898895
0001f0 29 ce 54 be 71 94 03 3e fd e8 53 be 56 94 19 3e
       -0.20781769 0.12849595 -0.20694347 0.14997992
000200 fa d8 c6 3d 5d 81 ae bd 41 49 f2 3c 54 e0 34 be
       0.09709354 -0.08520768 0.029575946 -0.176637
000210 5a 0c 29 be 16 b6 30 be 0e 08 3d bd 9f cc c9 3d
       -0.16508618 -0.1725696 -0.04615026 0.098534815
000220 07 3a 94 bd 7f 70 34 be 7b d5 16 bd ba 8a 8a be
       -0.0723763 -0.17621039 -0.036824685 -0.27058965
000230 c5 c8 13 be f9 83 17 be a8 33 3b be 9e d4 42 be
       -0.14432056 -0.14796437 -0.18281424 -0.1902642
000240 64 cf e5 3d 5b 00 75 3d 21 57 5e 3d b8 4f 11 3e
       0.11221197 0.059814792 0.05428231 0.14190567
000250 06 7b 53 3d c6 47 53 bd 58 4d b3 bc e9 e0 83 bd
       0.051630996 -0.05158212 -0.021887466 -0.064393826
000260 62 77 27 3e bb 89 28 bd 42 44 1b 3d c1 d4 80 be
       0.16354135 -0.041146975 0.037906893 -0.25162318
000270 d5 98 9b bd 99 ee cf 3d f2 4a 1e bc fa 7a 7e 3b
       -0.0759751 0.10152931 -0.009661423 0.0038830624
000280 d1 18 f5 bd 6c e9 18 bd 5d 3a d6 bd d9 97 43 be
       -0.11967624 -0.037331983 -0.10460351 -0.19100894
000290 f6 81 38 be eb 72 12 3c 58 f0 6e be ae a0 39 3d
       -0.18018326 0.008938531 -0.23333871 0.04531925
0002a0 29 d3 aa bd 0d 41 cb bd b4 4e 1c 3e bb a1 8f bd
       -0.08341057 -0.09924517 0.15264398 -0.070132695
0002b0 86 eb da 3d 03 65 8f 3d 2a d4 c2 bc 47 0f dc bd
       0.10689454 0.07001688 -0.023782808 -0.107451014
0002c0 66 18 1b 3e 52 6e 56 be 46 51 55 3d 6a af d9 bc
       0.15146026 -0.20940521 0.05207946 -0.026572902
0002d0 20 16 e5 bd 80 78 40 bd ab dd f7 3c b9 c1 33 be
       -0.11185861 -0.046989918 0.030257067 -0.17554368
0002e0 c3 90 5f be a2 69 5f be a4 f0 21 3e 23 3d 93 3d
       -0.21832566 -0.2181764 0.15814453 0.07189395
0002f0 0e 97 6a bb 90 48 30 3d 12 f9 b1 3d cc c7 17 3e
       -0.0035795602 0.04303795 0.086900845 0.1482231
000300 0a 9b a0 3d f5 70 80 3d 7f 7e cf bd f8 3d 3f bd
       0.07842071 0.06271545 -0.10131549 -0.046689957
000310 3e 1f 1c be b0 cb 70 be 0e c7 f2 bd 5f 7a 46 be
       -0.15246293 -0.235152 -0.11854373 -0.19382618
000320 ad b2 ba 3d f6 97 87 3d 81 70 d6 bc 2c f9 4c be
       0.09116111 0.06620781 -0.026176693 -0.20016927
000330 ab 80 fa 3c 9d 8f 5a 3e f1 1c 49 bd ec f3 87 be
       0.030578932 0.21343847 -0.049099866 -0.26553285
000340 ae 95 a5 bc de 2e 34 3e a1 0a 4d be a2 05 34 be
       -0.020212974 0.17596003 -0.20023586 -0.17580274
000350 4b 88 36 3e c4 01 80 3d 7a 58 1d bc 4d e3 0a 3e
       0.17825429 0.06250337 -0.009603614 0.13563271
000360 1e 7a 6a be 4e 62 fa 3d 7e ff 14 be eb 07 0f be
       -0.22898147 0.122257814 -0.14550588 -0.13967864
000370 32 00 01 3e b0 16 13 be a9 00 6b be a6 a7 0f bd
       0.12597731 -0.14364123 -0.2294947 -0.03507199
000380 ef ea aa 3d fd be 37 be 14 25 90 be 04 2c b7 3c
       0.08345591 -0.1794395 -0.28153288 0.022359855
000390 e0 1b 41 3c 40 bb 56 be 36 da b1 bd 6f 51 ed 3d
       0.011786431 -0.20969868 -0.086841986 0.11587798
0003a0 db 65 79 3d 0b 01 89 be 75 a6 f5 ba 2d ee 2a bc
       0.060888153 -0.26758608 -0.0018741625 -0.010432762
0003b0 5e ec 9b 3c 17 13 cf 3d 96 5f 07 3e a9 dd a9 bc
       0.019033607 0.10111063 0.13220057 -0.020735579
0003c0 82 0b 40 3d bf cd 82 be 97 9f 04 bd 18 dd d2 bd
       0.046885975 -0.25547597 -0.03237876 -0.102960765
0003d0 92 62 f0 bd 53 8f ed bd 65 b9 1f be ec 64 43 be
       -0.11737551 -0.115996026 -0.15598066 -0.19081467
0003e0 e1 39 a0 bd db a4 ec 3d a8 c7 18 be ec fb e2 bd
       -0.078235395 0.11554881 -0.14919913 -0.110832065
0003f0 de a0 8c bd 1f 32 3f be ab fd cb 3b ae 8b 8b be
       -0.068666205 -0.18671463 0.006225308 -0.27255005

bn1.weight f4 [512]
000000 c0 d2 87 3f b9 df 89 3f 7c 3c 87 3f 0d 5f 85 3f
       1.0611191 1.07714 1.0565333 1.0419632
000010 65 64 94 3f 2a ed 8c 3f 12 fd 8c 3f 9b 1d 87 3f
       1.1593138 1.1009877 1.1014731 1.055591
000020 17 da 8f 3f e4 4e 84 3f e8 2d 8b 3f 83 60 81 3f
       1.1238431 1.0336576 1.0873384 1.0107578
000030 4b ff 8b 3f f0 10 8a 3f a4 de 8e 3f c4 5b 92 3f
       1.0937284 1.0786419 1.1161695 1.1434255
000040 be 82 82 3f f8 00 8d 3f 31 38 83 3f 05 57 78 3f
       1.0196149 1.1015921 1.0251523 0.9700778
000050 7a c6 8f 3f 2b 99 89 3f 55 82 89 3f 2d 33 8e 3f
       1.1232445 1.0749868 1.0742899 1.1109368
000060 8b 62 8b 3f b8 e6 88 3f 5a 27 80 3f ac 5b 86 3f
       1.0889448 1.069541 1.0012009 1.0496726
000070 5a 53 91 3f 14 5d 94 3f e1 a7 87 3f 6f 47 88 3f
       1.1353562 1.1590905 1.0598108 1.06468
000080 f4 d7 87 3f 49 5d 98 3f 4d fc 89 3f 37 fd 8c 3f
       1.0612779 1.1903468 1.0780121 1.1014775
000090 71 d2 8c 3f ce 99 84 3f da 87 8b 3f 47 e1 8c 3f
       1.1001722 1.0359437 1.0900834 1.1006249
0000a0 6a f1 91 3f 31 21 89 3f 90 b8 88 3f d1 37 86 3f
       1.1401799 1.0713254 1.0681324 1.0485784
0000b0 6f 71 8e 3f cb 4c 88 3f a2 45 8c 3f 63 77 90 3f
       1.1128367 1.0648435 1.095875 1.1286434
0000c0 25 9c 86 3f 41 b0 8c 3f ed 4c 91 3f 55 85 83 3f
       1.0516402 1.0991288 1.1351601 1.0275065
0000d0 6b b4 8c 3f 62 6b 88 3f d5 a6 85 3f ef 1c 98 3f
       1.0992559 1.0657771 1.0441538 1.188383
0000e0 58 c2 80 3f f5 e7 89 3f 18 27 9e 3f 6f 04 99 3f
       1.0059309 1.0773913 1.235568 1.1954478
0000f0 a0 83 81 3f 2e 11 8d 3f 54 c5 85 3f 66 ca 99 3f
       1.0118294 1.1020868 1.0450845 1.2014892
000100 61 0e 8d 3f d4 70 82 3f 9e fa 81 3f bd bb 8b 3f
       1.1020013 1.0190682 1.0154607 1.0916668
000110 46 55 8d 3f ea f9 93 3f 60 9a 84 3f 1c e5 8d 3f
       1.1041648 1.1560643 1.0359612 1.1085544
000120 4a a0 8a 3f 5c 55 8e 3f ec ea 98 3f db 14 88 3f
       1.0830166 1.11198 1.1946692 1.0631365
000130 ac b9 8c 3f 77 9c 87 3f ad a6 89 3f db 18 88 3f
       1.0994163 1.0594624 1.075399 1.0632585
000140 31 85 87 3f f7 8f 88 3f 50 7a 73 3f c7 07 8f 3f
       1.0587522 1.0668935 0.9510851 1.1174248
000150 9e 26 89 3f 76 ed 82 3f e3 b6 88 3f 05 51 8d 3f
       1.071491 1.0228717 1.0680813 1.104035
000160 1b c1 89 3f ef 29 8f 3f 3e bf 8e 3f 80 33 8d 3f
       1.0762056 1.1184672 1.1152112 1.1031342
000170 12 74 8b 3f 72 7e 8b 3f 89 cb 8e 3f 04 7c 89 3f
       1.0894797 1.0897963 1.1155864 1.0740972
000180 28 30 9c 3f 09 a0 80 3f 30 7c 89 3f 7a cf 88 3f
       1.2202196 1.0048839 1.0741024 1.0688317
000190 a3 18 87 3f e4 d3 83 3f 4c 3c 8f 3f eb b8 82 3f
       1.0554394 1.0299039 1.1190276 1.0212682
0001a0 49 36 80 3f a7 e1 8b 3f 37 45 83 3f 25 25 8a 3f
       1.0016567 1.0928239 1.0255498 1.0792586
0001b0 13 60 9c 3f 28 55 93 3f 5f 74 8d 3f e9 ac 8b 3f
       1.221682 1.1510363 1.1051139 1.0912143
0001c0 98 3b 7b 3f 01 24 7e 3f b1 27 92 3f 9b 23 8c 3f
       0.9813781 0.9927369 1.1418363 1.0948366
0001d0 62 de 7c 3f e5 67 89 3f 2e f0 8d 3f 9e b5 88 3f
       0.9877683 1.0734831 1.1088922 1.0680425
0001e0 d0 bc 8d 3f b7 c4 90 3f 7a 6a 8c 3f a9 e2 91 3f
       1.1073246 1.1310033 1.0969994 1.1397296
0001f0 cc 74 8a 3f a5 f7 84 3f 22 00 91 3f 98 a4 81 3f
       1.0816894 1.0388075 1.1328166 1.0128355
000200 8d 43 86 3f aa ad 92 3f f5 fa 83 3f 25 01 8e 3f
       1.0489365 1.1459248 1.0310961 1.1094099
000210 4a 6c 88 3f 50 78 88 3f 72 70 86 3f 05 a2 8c 3f
       1.0658047 1.0661716 1.0503066 1.0986944
000220 8c 89 85 3f ac d8 8c 3f 89 65 8c 3f 4a c3 87 3f
       1.0432601 1.1003623 1.0968486 1.0606472
000230 55 77 86 3f ca 27 89 3f 28 1e 8d 3f fd 84 8c 3f
       1.0505167 1.0715268 1.1024828 1.0978085
000240 19 4a 8c 3f 21 d7 80 3f 25 ea 8b 3f e4 00 8a 3f
       1.0960113 1.0065652 1.093083 1.0781522
000250 f9 08 8b 3f 58 90 8f 3f b4 8f 81 3f 09 84 8d 3f
       1.0862113 1.1215925 1.012198 1.1055919
000260 eb e2 7b 3f 78 95 8d 3f 6c 92 88 3f a4 ab 87 3f
       0.98393124 1.1061239 1.0669684 1.0599256
000270 42 f9 84 3f 3f 15 85 3f 81 35 90 3f ae 41 8c 3f
       1.0388567 1.0397109 1.1266328 1.0957544
000280 91 5a 90 3f 8f 00 8f 3f 46 44 9b 3f bf 3d 7f 3f
       1.1277639 1.1172045 1.213021 0.9970359
000290 1b 35 88 3f f1 f1 81 3f b3 b0 84 3f c4 49 8b 3f
       1.0641207 1.015196 1.0366424 1.0881886
0002a0 f9 9e 8d 3f a4 19 8e 3f 55 52 8b 3f 3a a6 90 3f
       1.106414 1.1101575 1.0884501 1.1300728
0002b0 3e f2 7e 3f 10 d8 87 3f 34 01 8a 3f 70 09 8d 3f
       0.9958838 1.0612812 1.0781617 1.1018505
0002c0 2c c5 8c 3f 8a 52 81 3f 97 f4 8f 3f 31 a5 85 3f
       1.0997672 1.0103314 1.1246518 1.0441037
0002d0 dd 59 8a 3f ba 39 86 3f 08 e0 8f 3f c6 80 84 3f
       1.0808674 1.0486367 1.1240244 1.0351799
0002e0 fd ec 8a 3f 6b 96 94 3f 18 48 87 3f 08 52 8d 3f
       1.0853573 1.1608404 1.0568876 1.1040659
0002f0 d8 2c 89 3f f9 c7 8c 3f a9 78 81 3f f0 54 85 3f
       1.071681 1.0998527 1.0114948 1.0416546
000300 f9 42 7a 3f fd 65 8f 3f 39 2d 8a 3f ad e4 92 3f
       0.9775844 1.1202999 1.0795051 1.1476036
000310 e5 8a 8d 3f e2 16 85 3f 00 87 89 3f 59 47 8b 3f
       1.1058012 1.0397608 1.0744324 1.0881149
000320 00 47 91 3f 48 92 8f 3f fa 4d 92 3f 1c 53 87 3f
       1.1349792 1.1216516 1.1430047 1.0572238
000330 c8 4c 8d 3f e4 2b 8c 3f bd b3 81 3f f3 bc 89 3f
       1.1039057 1.0950894 1.0132977 1.0760788
000340 ae 9f 83 3f 39 88 7f 3f 48 35 89 3f 7a 63 7e 3f
       1.0283105 0.99817234 1.0719385 0.9937054
000350 cd 19 85 3f 29 05 8b 3f a2 78 7e 3f 89 8c 93 3f
       1.0398499 1.086095 0.9940282 1.1527263
000360 da c6 82 3f 16 d9 81 3f aa 80 88 3f 4a 02 84 3f
       1.0216935 1.0144374 1.0664265 1.0313199
000370 6e 69 88 3f 38 63 86 3f 86 47 84 3f 03 1f 86 3f
       1.0657175 1.0499029 1.0334327 1.0478214
000380 9f 41 86 3f 4b 85 8d 3f a9 6d 8e 3f d3 7f 87 3f
       1.0488776 1.1056303 1.1127216 1.0585884
000390 df 6a 8b 3f b9 96 92 3f b5 ee 81 3f c6 f0 87 3f
       1.089199 1.1452247 1.0150973 1.0620353
0003a0 de 6f 80 3f a9 1b 8a 3f 4d 66 81 3f 32 ad 81 3f
       1.0034139 1.0789691 1.0109345 1.013098
0003b0 48 ff 8c 3f 46 4e 83 3f 43 b2 87 3f 8f 4c 93 3f
       1.1015406 1.0258262 1.0601276 1.1507739
0003c0 96 1e 86 3f c1 4e 90 3f 2f be 7e 3f 92 d8 a9 3f
       1.0478084 1.1274034 0.9950895 1.3269217
0003d0 b7 b7 85 3f 1a 05 8a 3f 83 8a 83 3f 01 3a 83 3f
       1.044669 1.0782807 1.0276645 1.0252076
0003e0 5a 22 87 3f ca aa 8e 3f 71 cf 81 3f 75 03 8f 3f
       1.0557358 1.1145871 1.0141431 1.117293
0003f0 bb fa 87 3f 1c 33 91 3f c5 a6 97 3f 9f 40 93 3f
       1.0623392 1.1343722 1.1847769 1.1504096

bn1.bias f4 [512]
000000 3f 49 1f bb eb 88 28 bd 69 09 aa bb b2 69 4c bd
       -0.0024305133 -0.0411462 -0.00518911 -0.049905486
000010 42 2e a3 bd ae 18 76 bb 5c 60 f3 bc 11 d7 db bc
       -0.07967807 -0.0037551331 -0.029709034 -0.02683595
000020 a5 43 f9 bc 27 3a f8 bc 5f 34 0e 3d 6d d5 66 bd
       -0.030427763 -0.030301167 0.034717914 -0.056355882
000030 e6 a9 21 bd 00 52 d4 bb f0 98 9a ba ab 02 87 3c
       -0.03946867 -0.0064795017 -0.0011794847 0.016480764
000040 b7 b0 bf bc 8e d3 67 bc b2 b5 53 bd 03 9b b5 bc
       -0.023399694 -0.01414956 -0.05168695 -0.022168642
000050 4d ac 56 bd aa 91 a6 bd 16 58 1b 3d 86 7c a0 bc
       -0.052410413 -0.08133252 0.037925802 -0.019590627
000060 2c 4c 26 3c 14 6f b2 bc 78 9e c1 bc 4c 47 a3 bd
       0.010149997 -0.021781482 -0.023635134 -0.07972583
000070 2d 11 92 bc a6 fb 65 3c 7e a6 a5 bc dc dc 52 bd
       -0.017830456 0.014037048 -0.020220991 -0.05148016
000080 bb 37 0e bd 7c 3d 5f 3d d8 3f 84 3c 55 15 ce bd
       -0.034721117 0.054501995 0.016143724 -0.100626625
000090 a1 0c 43 bc 7e 29 99 bc 34 9f 45 bd ad f8 23 bd
       -0.011904866 -0.018696543 -0.04824753 -0.040032078
0000a0 cf 43 6b 3c bd 24 2d bd 15 93 1d bd 37 05 03 bc
       0.014359429 -0.042271364 -0.038470346 -0.007996849
0000b0 49 f9 ae 3c 62 c3 83 bd 8e dc f5 bc da a3 2b bd
       0.021359103 -0.06433751 -0.030012395 -0.041904308
0000c0 db 10 8d bc d1 63 64 3d bd 18 de bb 57 21 59 3c
       -0.017219951 0.055759255 -0.0067778514 0.013252578
0000d0 01 99 83 bd 4d 4d 81 bc 45 87 32 bd 65 5c 4f bd
       -0.064256676 -0.01578393 -0.043586034 -0.050625224
0000e0 5c 77 3d bd 41 7c 7a 3d b7 fa 3d 3c 28 83 58 bd
       -0.046256408 0.061153654 0.01159542 -0.052859455
0000f0 00 65 45 3c 99 40 b6 3b 0b fd e6 bc 40 58 e8 3c
       0.012048006 0.0055619 -0.028196832 0.028362393
000100 10 97 4b bd 5c 04 80 3b 59 6d 75 3b 85 7c 85 bd
       -0.04970461 0.0039067697 0.003744921 -0.06517891
000110 df d1 64 bd 3e 31 ee 3b ca b2 93 3d f0 03 67 bd
       -0.05586421 0.0072690537 0.07211836 -0.05640024
000120 68 52 3f bd 41 e1 ad 3a ff 77 c8 bc cc 47 52 bd
       -0.046709448 0.0013265983 -0.024471281 -0.051338002
000130 c0 bd 3e bd 00 99 b9 3c 85 3c f4 3b eb a1 a5 bc
       -0.04656768 0.022655964 0.0074535036 -0.02021881
000140 73 f6 73 bd bc 77 34 3d c2 ac cb bc a7 d4 8b bd
       -0.059561204 0.0440595 -0.02486265 -0.068276696
000150 a2 e3 84 bd 5a 92 62 bd d8 e8 fe bc f6 d0 44 bc
       -0.0648873 -0.055315353 -0.031116888 -0.012012711
000160 c2 8a a3 bc a6 45 8d bd ba b4 80 bd 21 9c b5 bc
       -0.019963626 -0.0689805 -0.06284471 -0.022169175
000170 f0 53 1c 3d cb 76 a1 bc 44 c3 eb bc 8a 58 70 bd
       0.038165987 -0.019709965 -0.028779633 -0.058678187
000180 aa 77 ad 3d 35 87 2b bd 05 8f 4f 3d dc 15 12 bd
       0.0847009 -0.04187699 0.050673503 -0.035665378
000190 23 16 1e bd 75 41 f9 bc cd ff 25 bc c1 52 9a bd
       -0.03859533 -0.03042672 -0.010131788 -0.07535315
0001a0 0e 51 66 3b 27 f6 1d 3d 37 3a 18 bd a1 07 4e bd
       0.0035143527 0.038564827 -0.037164893 -0.050300244
0001b0 ef 7e e9 bb dd 0e 1c bd 06 e5 7b bd 30 42 b3 bc
       -0.0071257274 -0.038100112 -0.06149771 -0.021882147
0001c0 f3 cf 71 bc fa 41 6f bd ee 7a e1 bc 95 82 9e bd
       -0.014759052 -0.05841253 -0.027524438 -0.0773975
0001d0 fb fc ca bb 23 c2 ee bb 58 da 16 bd 72 9b 98 3c
       -0.0061947084 -0.0072863265 -0.036829323 0.01862881
0001e0 72 12 2e bd 33 fe 2f 3d 7e f6 b2 bc a6 32 f0 bc
       -0.04249806 0.042967033 -0.021846052 -0.029321026
0001f0 c4 79 c0 bc 70 9d ba bd 25 c5 43 3c cd f2 49 bc
       -0.023495562 -0.0911206 0.011948858 -0.012325955
000200 8a 88 0d bc 58 0c d5 bc 6e 07 80 3d 82 5d 31 bc
       -0.0086385105 -0.026006863 0.06251417 -0.010825517
000210 60 eb f7 bc 4a 83 2e 3d 2d 25 da bc e9 ca a4 3c
       -0.030263603 0.042605676 -0.026629055 0.020116286
000220 08 d8 76 3d 83 ec 9f bd 10 a7 0b bd 68 59 d4 3c
       0.060264617 -0.07808783 -0.03409487 0.025921538
000230 df 08 84 ba 37 b9 09 bd 23 ba 0c bd b8 f2 e7 bc
       -0.0010073445 -0.0336239 -0.0343572 -0.02831398
000240 1b 5f 82 bd 55 ae 39 bd 24 41 64 3d 9c 3d c6 ba
       -0.06365796 -0.04533227 0.055726185 -0.0015124562
000250 5b f2 5b bd 02 1c 82 bd b4 92 64 3d ad f5 c1 bc
       -0.053697925 -0.06352998 0.05580397 -0.023676718
000260 21 99 81 bc f0 13 b9 bc 16 27 34 3d 98 d4 0b bd
       -0.015820088 -0.022592515 0.043982588 -0.034138292
000270 fa 03 32 bd 22 d2 6d 3d 89 a6 be 3b ab 7a 48 bc
       -0.043460824 0.058061726 0.0058181924 -0.012236278
000280 a0 0b 26 bc 74 b5 a3 bd 69 33 b4 bc 61 58 d4 bc
       -0.010134608 -0.07993594 -0.02199717 -0.025921049
000290 91 b5 48 bd 2b b7 ed bd 60 a1 4e bd 29 6c 0f bd
       -0.04900128 -0.11607202 -0.050446868 -0.03501526
0002a0 41 1c 7a bd 81 e9 99 bc 3b 62 52 bd 5e 78 40 3d
       -0.0610621 -0.018788101 -0.05136321 0.04698979
0002b0 75 c4 3e bc c5 e3 a7 3d 77 ca 13 39 da 3e 8d bd
       -0.011643519 0.081977405 0.00014094436 -0.068967536
0002c0 79 a7 f6 bc 08 34 07 bd 56 70 22 3c ab 7c 16 3c
       -0.030109154 -0.033008605 0.009914478 0.009184997
0002d0 79 6f d4 bc f1 db 27 bb c2 c3 a8 bc 23 8c 2d bd
       -0.02593206 -0.0025613273 -0.020601157 -0.042369973
0002e0 4b 2d 3f 3d 71 0b d0 bc 33 9f 46 3d 5b 3e 6e bd
       0.046674054 -0.02539608 0.048491668 -0.058164936
0002f0 1d 49 29 3d 48 c6 ab 3d 5c 25 8e ba d1 d4 fc bc
       0.041329492 0.083874285 -0.0010844874 -0.030863198
000300 73 cf 61 bc fc d2 01 bd 65 a5 2b bd cd c0 16 bd
       -0.01378237 -0.03169535 -0.04190578 -0.036804963
000310 27 80 5e 3d 94 76 2a bd 2f ef e4 3c cd 38 f5 3c
       0.054321434 -0.04161699 0.027946083 0.029934311
000320 1a a5 ce 3c 7c e6 f5 bb 6d 25 84 bd 58 0c 15 bd
       0.025225211 -0.0075042825 -0.06452451 -0.036388725
000330 87 9d 0d bd 3c a2 b1 bc 78 d3 65 bd e1 f0 27 bd
       -0.034574058 -0.021683805 -0.056109875 -0.041001204
000340 e3 ac 1f bd f6 f9 4f bd fa 54 22 bc e5 36 ce bc
       -0.038983237 -0.05077549 -0.009907955 -0.02517266
000350 e0 9e 1e 3d cb c4 72 3d 43 33 ef 3c 81 b1 5d 3c
       0.038725734 0.059269708 0.029199248 0.01353109
000360 70 84 76 bc ed 81 5d bd 29 b7 38 3d 7a 01 29 bd
       -0.015046224 -0.054078985 0.04509655 -0.041261174
000370 35 39 c5 3d 78 ef 35 3c d7 52 d4 bc d0 4b 98 bd
       0.09630052 0.011104457 -0.025918407 -0.07436335
000380 52 30 90 bc 3a 02 69 bd 0b bc 20 bb 7c e3 04 3d
       -0.017601166 -0.05688689 -0.0024526145 0.03244351
000390 71 74 87 bd c6 a5 7b bd e9 32 66 bd 9e 72 bd bd
       -0.06614006 -0.06143739 -0.056200895 -0.09250377
0003a0 4a 07 fd bc c4 8f 54 bd c5 25 95 bc 97 53 18 3c
       -0.030887265 -0.051894918 -0.018206486 0.009297273
0003b0 be 97 bd 3b c7 e7 65 bb d0 c8 43 bc 65 81 6f bb
       0.0057859113 -0.0035080777 -0.011949733 -0.003654563
0003c0 6c 31 01 bd 21 11 79 3d 77 aa 27 bd eb be f0 bb
       -0.031541273 0.06080735 -0.040934052 -0.007346978
0003d0 e0 78 25 3d 48 a7 19 bd 96 25 24 bd 4a a9 8c bd
       0.04039848 -0.037513047 -0.040074907 -0.06868227
0003e0 82 4b 2d 3c 1a a4 36 bd 51 a5 ad bd 6f 5a 49 bc
       0.0105770845 -0.044590093 -0.08478797 -0.012289627
0003f0 1c 17 9f 3d 16 8e 65 bd 24 e9 94 3d 8a 12 b0 3c
       0.0776808 -0.056043707 0.072710305 0.021493215

bn1.running_mean f4 [512]
000000 eb d5 1d 3e 6b 13 5b 3d 99 28 8c 3f 9b af df 3f
       0.15413634 0.053485315 1.094989 1.7475466
000010 24 b6 b1 3d 86 49 ae 3e 4b d6 08 3e 70 03 fd 3e
       0.08677319 0.3404047 0.13362996 0.49416685
000020 31 58 88 3e b0 32 10 3f cb ce 6b 3f 05 81 8c 3f
       0.26629785 0.56327343 0.92112416 1.0976874
000030 07 fa a3 3e 7a 67 11 3d 6d 83 87 3e 1f dd 66 3e
       0.32026693 0.035499074 0.26467457 0.22545289
000040 9f da 46 3f 58 47 93 3d 41 46 b3 3f 91 2a 1a 3f
       0.7767734 0.07191342 1.4005815 0.602212
000050 ba 25 98 3e d3 f6 5f 3e e6 38 22 3f 5b 88 83 3d
       0.29716283 0.218715 0.6336807 0.06422492
000060 09 6f b8 3d fe aa ad 3f bb 14 5c 3f 89 e3 b7 3f
       0.09005553 1.3567808 0.8596913 1.4366313
000070 2f da 95 3b 35 d3 09 3e 10 10 39 3f db f3 8c 3d
       0.0045731287 0.13459475 0.72290134 0.06882449
000080 94 1b 38 3f 2c 5f 95 3e ee 74 01 3f e8 51 d5 3e
       0.7191708 0.29174173 0.50569046 0.41664052
000090 3a 24 b8 3c 0d ca 65 3f 03 4b 56 3f 2e d0 8d 3a
       0.022478212 0.8976143 0.8370821 0.0010819489
0000a0 3f 76 92 3b 3e 7c 42 3f 99 04 1e 3e b2 89 0c 3f
       0.0044696624 0.7597083 0.15431441 0.54897606
0000b0 c0 ce 8e 3f a2 39 37 3f a7 6b 24 3f 51 a7 ad 3e
       1.1156845 0.71572316 0.64226764 0.33916715
0000c0 30 eb f3 3e bb e1 ea 3e 51 9e ca 3e 50 66 5f 3f
       0.4764037 0.45875344 0.3957391 0.8726549
0000d0 50 90 ea 3b 10 8e a4 3e e1 ac f6 3e ee 3f 29 3d
       0.0071583167 0.32139635 0.4817877 0.041320734
0000e0 61 50 d7 3f bf 0c a5 3f a0 90 d9 3e 54 e7 2c 3e
       1.6821405 1.2894515 0.42493153 0.1688512
0000f0 b2 96 a3 3c 6d 49 b9 3e 47 0b 3b 3f 28 0d 7e 3e
       0.019969318 0.36188832 0.7306408 0.24809706
000100 ec db 09 3e 1b dd f9 3f e0 1a b1 3f 00 85 a5 3e
       0.134628 1.9520601 1.3836327 0.32328033
000110 d4 e3 e7 3e 39 4f 0f 3f d3 84 60 3f 31 4e cf 3c
       0.45291007 0.5598026 0.87702674 0.02530584
000120 51 e2 ed 3e 25 a3 a6 3e cd 59 61 3d 72 76 20 3f
       0.46461728 0.32546344 0.05501728 0.62680733
000130 18 78 d8 3e b0 10 3a 3c e1 1d 4a 3f 07 54 cc 3e
       0.42279124 0.011356518 0.7895184 0.39907858
000140 ca e5 aa 3e 2e aa 80 3f a1 70 be 3f f8 67 84 3f
       0.3337844 1.0051935 1.4878122 1.0344229
000150 ce 2c 97 3e 1d 80 a6 3f e3 25 00 3e 08 06 85 3e
       0.2952637 1.3007847 0.12514453 0.25981164
000160 dc 5f 39 3d b8 02 a4 3e 54 06 f4 3d 08 b9 cc 3d
       0.045257434 0.32033324 0.119152695 0.099962294
000170 d4 48 22 3f 79 6d 75 3f 5e b8 21 3f 16 e0 a2 3e
       0.63392377 0.95870167 0.63171947 0.3181159
000180 bc fb 9d 3e a6 2f 4c 3f f0 72 57 3d 81 2f e5 3e
       0.3085612 0.79760206 0.052599847 0.44762805
000190 38 61 fa 3f 3f b3 dc 3f cf 56 40 3d 28 65 17 3e
       1.9560919 1.7242202 0.046957787 0.14784682
0001a0 df 63 2b 3f 43 60 98 3b 72 23 9f 3e f3 3c 80 3f
       0.66949266 0.004650147 0.3108173 1.00186
0001b0 02 42 96 3c 43 f4 ad 3d 9e 3d 51 3e 1c 18 ac 3f
       0.018342022 0.08493855 0.20433661 1.3444858
0001c0 f6 7e 5c 3f 3b e8 22 3f bd d2 e1 3d bb 26 b5 3e
       0.86131227 0.63635606 0.11026523 0.35381112
0001d0 bf 3e 9e 3f 37 4f 21 3f 50 e2 81 3e bf dc 75 3f
       1.2362899 0.630115 0.25367975 0.96039957
0001e0 43 a4 49 39 a6 96 f9 3d e8 5c 74 3e 8f ed 94 3d
       0.00019230046 0.12186937 0.23863566 0.07271873
0001f0 0a 7d 5f 3e 6e e6 5e 3f 8f b4 c3 3e d6 f2 b6 3f
       0.21825042 0.8707036 0.38223693 1.4292858
000200 f9 2e 8b 3f e5 ec 8e 3d 63 e2 97 3f b5 d8 6b 3e
       1.087371 0.06978778 1.1865963 0.23031886
000210 6b aa a9 3d d1 4b db 3e 9b df fc 3d 90 95 5e 3e
       0.08284458 0.4283128 0.12347337 0.21736741
000220 6b b5 d9 3e 05 3b ad 3d 52 1c 04 3f 02 e4 84 3f
       0.42521223 0.08458523 0.51605713 1.0382082
000230 22 00 bf 3d d2 f5 83 3f 04 00 00 00 5a e8 f8 3d
       0.09326197 1.0309393 6e-45 0.121536925
000240 08 18 66 3f 76 de b0 3e 48 9e 20 3f 40 ac 21 3f
       0.8988042 0.34544724 0.6274152 0.6315346
000250 76 96 4e 3f 92 4b 46 3f a1 62 3a 3e 5b f9 a5 3f
       0.80698335 0.7745906 0.18201686 1.2966722
000260 73 5c 8c 3f bd 11 9e 3e 9d 89 5f 3f 5a 15 65 3e
       1.0965713 0.30872908 0.87319356 0.22371426
000270 04 00 00 00 31 d8 a3 3f 77 4a 14 3c 76 ff bd 3e
       6e-45 1.2800351 0.009050957 0.37108964
000280 b1 b8 ec 3d 7e fb a2 3d 5d 1b 3f 3d 1c 46 ea 3e
       0.115586646 0.079581246 0.046656955 0.45756614
000290 06 94 18 3e 74 b5 04 40 49 88 02 3e 04 00 00 00
       0.14900216 2.073575 0.12747301 6e-45
0002a0 53 13 3c 3f c1 23 ee 3d b4 bb 5d 3f 57 16 aa 3d
       0.73466986 0.11627913 0.8661454 0.08305042
0002b0 ab e2 30 40 bb ad ed 3e c8 18 96 3f db 4b 87 3f
       2.7638347 0.46421608 1.1726313 1.0570024
0002c0 42 38 69 3e d0 07 d4 39 73 9d 1b 3f 98 5d 78 3f
       0.22775367 0.00040441612 0.60787123 0.9701781
0002d0 d7 db 04 3e a5 2a a4 3c 02 b2 f3 3e 0d 65 95 3e
       0.12974487 0.020039866 0.47596747 0.29178658
0002e0 43 ce 19 2e 88 10 ba 3d c6 82 5d 3f 52 d7 80 3d
       3.497137e-11 0.09085184 0.8652767 0.06291069
0002f0 ae eb d3 3f 15 99 da 3e 6c dc a2 3f a0 81 2c 3f
       1.6556299 0.42694917 1.2723517 0.6738529
000300 9a 6c d6 3f 98 60 cb 3d 02 5d 8a 3e 4e 95 8e 3e
       1.6751893 0.09930533 0.27024084 0.27848285
000310 cf 02 79 3e 01 4f df 3c a5 b2 3b 3f 41 81 06 3e
       0.24317478 0.027259352 0.73319465 0.13135244
000320 70 bf 8a 3f 46 da a9 3e 55 30 a7 3c 94 06 38 3d
       1.0839672 0.33174342 0.020408789 0.04492815
000330 41 f1 f9 3d 7a 92 b3 3e 04 00 00 00 92 59 c7 3d
       0.12204219 0.3507269 6e-45 0.09733881
000340 28 f5 89 3e 91 4c ae 3f 75 b4 de 3e c9 55 d6 3f
       0.26944852 1.3617116 0.43497053 1.674493
000350 a6 f4 2c 3f b7 5d b3 3c f8 5a 01 40 33 b4 4c 3e
       0.67560804 0.021895273 2.0211773 0.19990616
000360 02 15 81 3f d4 fd 5e 3f 6a e5 ff 3e b5 a2 23 3f
       1.0084536 0.8710606 0.49979717 0.63920146
000370 4a cc d2 3e 54 9d 89 3e eb f0 9a 3d 74 df 14 3e
       0.41171485 0.26877844 0.07565483 0.14538366
000380 ea 08 97 3d 04 00 00 00 0e cf 4b 25 2c 64 6e 3e
       0.07374747 6e-45 1.7677596e-16 0.232804
000390 14 ee aa 3e 01 f3 bf 3c 8f 4b f9 3f 6e 6b 73 3f
       0.33384764 0.023431303 1.9476184 0.950858
0003a0 da ff 62 3f 69 d2 16 3e 99 1b e3 3f 31 99 1d 3f
       0.8867165 0.14728703 1.7742797 0.61561877
0003b0 44 c7 9a 3f b5 29 8c 3f 6b 2d df 3f 4f b2 09 3e
       1.2092061 1.0950228 1.7435735 0.13446926
0003c0 c6 f0 3e 3f 3a 26 96 3e 94 9c 38 3e d8 4d 2f 3e
       0.7458614 0.2932604 0.1802848 0.17119539
0003d0 95 bd a7 3f c4 d5 99 3f 34 b5 4b 3f 80 66 f7 3f
       1.3104731 1.2018361 0.7957337 1.9328156
0003e0 84 c7 03 3f 9f b8 92 3e 7d b4 31 3f f1 0e 7b 3e
       0.5147631 0.2865648 0.6941603 0.24517418
0003f0 b4 4a a6 3f 04 00 00 00 3f bd fd 3e 6d 65 ad 3c
       1.2991548 6e-45 0.49558446 0.021166528

bn1.running_var f4 [512]
000000 89 fa 57 3e bc 92 98 3d 6b 2b fa 3f a4 b4 bc 40
       0.21091665 0.07449862 1.95445 5.897051
000010 1c 56 cd 3d 8d 30 a1 3e 62 f5 d6 3d 22 11 3e 3f
       0.1002619 0.31482354 0.10496022 0.7424489
000020 19 11 b5 3e dc 88 80 3f 45 a1 37 40 3f 0a a8 3f
       0.35364607 1.0041766 2.869218 1.3128127
000030 c6 f0 0f 3f d5 e2 fd 3c 9f c9 c0 3e 9c 06 b8 3e
       0.56226766 0.030991951 0.37653825 0.35942543
000040 1f f6 fe 3f e1 c5 b7 3d d3 b8 1c 40 b0 45 74 3f
       1.991886 0.08973289 2.4487808 0.95418835
000050 ee 88 f4 3e 5f 7d 86 3e c3 fa 31 3f ce 51 a7 3d
       0.4776072 0.26267526 0.69523257 0.081699
000060 60 cf d2 3d ec 02 40 40 77 56 ce 3f ad e3 1a 40
       0.1029346 3.0001783 1.6120137 2.4201462
000070 3e 6d bf 3a 32 db 1d 3e e3 db bd 3f 09 b1 c2 3d
       0.00146047 0.15415648 1.4832729 0.09506423
000080 c2 02 6f 3f d1 a3 49 3e 05 f0 83 3f 23 21 5a 3f
       0.93363583 0.19691397 1.0307623 0.8520681
000090 61 06 bf 3c 40 14 be 3f 1e 8f d7 3f 27 ad 38 3a
       0.023318471 1.484993 1.6840551 0.00070448447
0000a0 3c 7c 9e 3a b5 94 ac 3f a0 40 6b 3e bb 0b 5c 3f
       0.0012091468 1.3482882 0.22973871 0.859554
0000b0 c5 53 cd 3f 93 16 9d 3f d1 d8 73 3f d5 3c 37 3f
       1.604119 1.2272514 0.9525271 0.715772
0000c0 d4 3a 6c 3f 63 e5 c5 3e 35 66 43 3f b3 6e b5 3f
       0.92277265 0.3865157 0.7632783 1.4174408
0000d0 dd a3 93 3b fc 06 10 3f 4c ec 59 3f 33 a9 77 3d
       0.004505618 0.5626066 0.85126185 0.060464095
0000e0 b9 2d 11 40 71 06 10 40 30 ee dd 3e 8d d5 26 3e
       2.2684157 2.2503932 0.43345785 0.162924
0000f0 c6 d5 7e 3c 6c f7 1c 3f 02 d7 d7 3f eb 97 8a 3e
       0.015553897 0.61315036 1.686249 0.2706903
000100 fb 16 ce 3d e9 96 f2 3f cf a3 98 40 9b f2 fd 3e
       0.10062977 1.8952304 4.769996 0.49599156
000110 cf ad 0c 3f c7 95 e4 3e f6 a8 e4 3f c7 50 06 3d
       0.5495271 0.4464552 1.7864063 0.03279188
000120 d4 96 53 3f b1 d0 0d 3f 9b 82 27 3d e1 d7 9a 3f
       0.8265202 0.5539656 0.04089604 1.2097131
000130 44 a5 9b 3e b7 9d 37 3c aa e7 00 40 8c a5 22 3f
       0.30399525 0.011207036 2.0141397 0.63533854
000140 b6 d6 97 3e bb 8a 37 40 c4 48 3b 40 0f 4d 0d 40
       0.29656 2.8678424 2.9263163 2.2078283
000150 92 fb d4 3e a8 ea 18 40 b9 92 e0 3d 90 a8 a5 3e
       0.41598183 2.3893223 0.10965485 0.32355165
000160 d6 7b 40 3d b5 1a e2 3e b5 c3 c0 3d b1 17 02 3e
       0.0469931 0.44161 0.09412328 0.1270435
000170 6b 91 23 3f 8c d0 a3 3f f3 83 dc 3f 6c 3e ca 3e
       0.63893765 1.2798018 1.7227768 0.3950075
000180 0e 4b 36 3e 1e 29 8f 3f 97 86 50 3d 55 62 a1 3f
       0.17802069 1.1184423 0.050909605 1.2608134
000190 55 25 31 40 c0 b5 cf 40 bc 15 36 3d 02 1f 7f 3e
       2.7679036 6.4909363 0.04445432 0.24914172
0001a0 a4 26 3d 3f 50 b8 6c 3b a5 7d 1a 3f f6 c0 d2 3f
       0.73887086 0.00361206 0.6034797 1.6465137
0001b0 d0 0e 79 3c fd f6 a0 3d ca ef 9a 3e 56 7b 39 40
       0.0152012855 0.07859609 0.3026107 2.8981528
0001c0 c1 b4 de 3f c7 86 9d 3f 94 00 27 3e 2d a0 3f 3f
       1.7398912 1.2306756 0.16308814 0.74853784
0001d0 6c c1 35 40 4b 47 ad 3f 83 7e 32 3e 2e 64 9b 3f
       2.8399305 1.3537382 0.17431073 1.2139947
0001e0 b0 67 06 37 af f2 09 3e 86 11 be 3e d5 fd 44 3d
       8.011164e-06 0.13471483 0.37122744 0.048093636
0001f0 d3 11 50 3e 3d 08 8c 3f 46 fe 02 3f 96 3f 3a 40
       0.203193 1.0940014 0.5116924 2.910131
000200 c2 f5 0b 40 a4 68 ad 3d f9 cd ed 3f 52 5b b0 3e
       2.1868749 0.08467224 1.8578483 0.34444672
000210 04 bc 6c 3d 14 09 43 3f e0 28 cd 3d 13 de 80 3e
       0.057796493 0.7618573 0.10017562 0.2516943
000220 7a c8 fd 3e 1c 91 77 3d 6c e1 85 3f 6f c2 ca 3f
       0.49567014 0.06044112 1.0459418 1.5840586
000230 fc 23 8f 3d 12 be 96 3f 04 00 00 00 1e 24 3a 3e
       0.06989285 1.1776755 6e-45 0.1817784
000240 8a 2b dc 3e bc fb f2 3e 41 8b 9b 3f 5b c0 2f 3f
       0.43001968 0.47457683 1.2151872 0.68652886
000250 20 77 03 40 c6 e0 e6 3f a8 7c c2 3e 09 52 f6 3f
       2.0541458 1.8037345 0.3798573 1.9243785
000260 84 a0 ac 3f 4b 16 86 3e 6d 13 c8 3f 93 68 c4 3e
       1.3486485 0.26188883 1.5630928 0.38361034
000270 04 00 00 00 5b bd 66 40 20 fc ef 3b dd f5 0e 3f
       6e-45 3.6053073 0.007323757 0.5584391
000280 3f 72 47 3e 3b ac 94 3d e3 46 d1 3c 9c d6 81 3f
       0.19477175 0.07259413 0.025546497 1.0143619
000290 6d c6 15 3e 7e cd 72 40 f9 72 26 3e 04 00 00 00
       0.14626475 3.7937922 0.16254796 6e-45
0002a0 94 34 ce 3f f7 8a 1c 3e c9 34 e7 3f 2e 92 c1 3d
       1.6109796 0.15287386 1.8062984 0.0945171
0002b0 2b 7a 98 40 77 b5 4c 3f 35 e1 3b 40 ea af fe 3f
       4.764913 0.79964393 2.9356205 1.9897435
0002c0 21 40 c2 3e f3 e0 69 39 f9 79 0e 3f 85 7f 0c 40
       0.3793955 0.00022304412 0.55654866 2.1952832
0002d0 76 0a 1f 3e 5b 38 ac 3c 4b b8 0c 3f 12 b5 c1 3e
       0.15531334 0.021022966 0.5496871 0.37833458
0002e0 9c 18 4c 2c ca 43 a5 3d 27 24 91 3f d1 3b b5 3d
       2.9003805e-12 0.0806957 1.1339158 0.088493
0002f0 9f e6 a8 40 90 39 53 3f 5f 7d b0 3f ed 08 dd 3f
       5.278152 0.8250971 1.378826 1.7268349
000300 d5 19 12 40 22 d8 b1 3d ea 7f c8 3e 45 20 52 3e
       2.2828267 0.08683802 0.3916009 0.20520122
000310 f6 27 cd 3e f4 c5 56 3c d8 0d 54 3f f8 a6 45 3e
       0.4006955 0.013108719 0.82833624 0.19301975
000320 ab d0 9e 3f d8 37 d9 3e cb a6 89 3c 3c 52 3c 3d
       1.240743 0.42425418 0.016803166 0.045976862
000330 7a c2 4d 3e 72 ad bd 3e 04 00 00 00 d7 c8 11 3e
       0.20093718 0.3704639 6e-45 0.1423677
000340 4f bd a9 3e 42 5d 67 40 1f ac 3a 3f 53 8e 5a 40
       0.33152243 3.615067 0.72918886 3.4149368
000350 6a 83 44 3f 47 34 8c 3c 56 18 bf 40 e7 e4 a0 3e
       0.7676302 0.017114772 5.9717207 0.3142464
000360 82 6c 27 40 05 c2 f9 3f de df bf 3e c8 42 78 3f
       2.6159978 1.9512335 0.37475485 0.969769
000370 aa 27 46 3f 6b 44 ae 3e c3 db b0 3d 49 dd 77 3e
       0.7740427 0.34036574 0.08635666 0.24205507
000380 e8 af b0 3d 04 00 00 00 93 a1 33 24 0b 49 d8 3e
       0.086273015 6e-45 3.8951296e-17 0.42243227
000390 5e 22 c5 3e 35 ca 9c 3c 8c 28 cb 40 b6 ff ff 3f
       0.38502783 0.019139389 6.3486996 1.9999912
0003a0 4a ba a6 3f e5 0f 55 3e 9c cb 35 40 0a c8 a2 3f
       1.3025601 0.20806845 2.8405523 1.2717297
0003b0 0c 3b 34 40 4f 3d 3e 40 fa 1b 34 40 dc d4 1a 3e
       2.816104 2.972492 2.8142076 0.15120262
0003c0 50 0c 0d 40 90 f8 e7 3e d9 fc c3 3e 49 2e 96 3d
       2.2038765 0.45306826 0.38278845 0.07333047
0003d0 dc 75 0d 40 8e 76 1a 40 9b b1 c1 3f 7a df 87 40
       2.2103186 2.413486 1.5132326 4.24603
0003e0 19 64 9b 3f 8e 3f 79 3e 31 5b cf 3f 8a f7 a3 3e
       1.2139922 0.2434065 1.6199704 0.32024795
0003f0 ae 1d 24 40 04 00 00 00 71 b2 4f 3f c8 c3 49 3c
       2.5643115 6e-45 0.81131655 0.012314744

fc2.weight f4 [256, 512]
000000 17 1a 99 3d 88 e1 03 be 28 a9 f1 bc 04 a2 3b 3d
       0.07475679 -0.12879002 -0.029499605 0.045808807
000010 68 08 7b bd 6d 6f 47 bd 50 2b c0 bd c3 3d 62 3c
       -0.061287314 -0.04869025 -0.09383261 0.01380867
000020 cc a6 bf bd 5f 0d e1 bc 69 7b e8 3d e6 3e 4e 3c
       -0.09357986 -0.027472196 0.113516636 0.012588238
000030 db c9 9e bd ec 40 83 bd 1f 35 e3 3c 18 9b 38 3c
       -0.077533446 -0.06408867 0.027735291 0.011267446
000040 b4 27 5f 3d 78 46 f6 3c c9 a2 6d bc a5 d0 e9 bc
       0.054481223 0.030062899 -0.014504143 -0.028541872
000050 ae 6b 94 ba b3 af 88 bc f7 15 ef 3c 4f 46 0a bd
       -0.0011323595 -0.016685342 0.029185278 -0.033758458
000060 d5 ca c8 3c ba 17 87 3c 04 2a 6f bb de 2e cd 3c
       0.02451078 0.016490806 -0.003649355 0.025046762
000070 43 a6 05 bd da 10 cb 3d 18 2b 3d bd 00 f9 b2 bd
       -0.032629263 0.099153236 -0.046183676 -0.08738899
000080 a1 68 97 3c 78 d8 7f 3d 50 bf 0c 3e 90 74 52 bc
       0.018482508 0.0624623 0.13744855 -0.0128451735
000090 cb 9c db 3c 84 aa 7e bd 9e a7 b9 bd e1 7c 57 bd
       0.026808163 -0.062174335 -0.090651736 -0.05260933
0000a0 80 b0 15 3c 94 f7 8e bd f8 96 f3 bc df 2f 08 3d
       0.009136319 -0.069808155 -0.029735073 0.03324878
0000b0 4f 9f d9 bd af f3 be bb 98 90 c1 3c e9 2a 63 3b
       -0.10626089 -0.005827389 0.023628518 0.0034663028
0000c0 6e 30 a8 bc 30 1b 00 3d 27 40 d3 3d b5 3d 94 3d
       -0.020530906 0.031275928 0.103149705 0.07238332
0000d0 4d 24 e6 bd f6 96 cd 3c ca fa ba bc 44 c7 82 3d
       -0.112373926 0.025096398 -0.022824664 0.06385663
0000e0 a8 87 4e 3b 44 5c 5f bd 26 4d 8e 3d ec 72 e1 bc
       0.0031513963 -0.05453135 0.06948309 -0.02752062
0000f0 4f 5b 77 bd f6 c1 8a 3c fa 51 fe bc 5a 7c bd 3c
       -0.060389813 0.01693819 -0.031044949 0.023130585
000100 51 89 0a 3d f2 93 20 3b 16 00 90 3d 30 cd 13 3d
       0.03382236 0.0024502245 0.070312664 0.036084354
000110 35 a9 50 3d f4 83 2b 3c 85 60 09 3d 69 07 8e 3c
       0.05094262 0.010468472 0.033539314 0.017337518
000120 8d ea 91 3d f1 0b e9 bc c0 37 2e 3d ad 68 3e bc
       0.07124815 -0.028448077 0.042533636 -0.011621636
000130 be 4e 85 bb de 6f 1b 3c b5 d8 01 3e 08 30 67 bd
       -0.0040682247 0.00948712 0.12680323 -0.05644229
000140 00 ef a4 bd df ac be bc 98 74 9a bc ab 7b 4c bc
       -0.08053398 -0.02327579 -0.018854424 -0.012480657
000150 fb 68 a5 bd 0a 4d 93 bd 9d 0d 0f bd da e9 9e 3d
       -0.08076664 -0.071924284 -0.034925092 0.077594474
000160 19 50 0d bc 38 41 5c bd 43 2a 7e bc c3 27 cd bc
       -0.008625054 -0.053773135 -0.015513006 -0.025043374
000170 6c ff a1 3d 65 4d 02 3d 87 ec 87 3c 83 b4 ab bd
       0.07910046 0.03181209 0.016592277 -0.08384039
000180 dc 66 97 3d d0 28 b9 3b ec 8b bc 3c c0 43 a3 bc
       0.07392666 0.005650617 0.023015939 -0.019929767
000190 cd 5b d6 bc 36 54 0d 3d e9 6d e9 bb 43 29 87 3d
       -0.02616682 0.034504138 -0.007123698 0.06599667
0001a0 f7 e6 61 bd ba 07 1c bb f7 4c 0a 3c d6 19 48 3d
       -0.055151906 -0.0023808316 0.008441201 0.048852764
0001b0 db 16 b5 3c 77 fc e9 bc 53 87 a3 bd 07 af 94 3d
       0.022105625 -0.028562767 -0.079847954 0.07259946
0001c0 d9 35 4b bd 99 20 d5 3c ba 99 3d bd 31 75 51 bd
       -0.0496119 0.02601652 -0.046289183 -0.051137153
0001d0 eb bd 88 3d 5e f3 1d 3d aa 8c f7 bc d3 13 d2 bc
       0.06676849 0.03856217 -0.030218441 -0.025644219
0001e0 9a 69 86 3c 13 df 47 bd e1 04 1b 3d 72 d9 26 bd
       0.016407777 -0.048796725 0.03784645 -0.040734716
0001f0 0d e5 07 3d e9 9d 78 bc 13 67 b4 3d 28 5d 19 bc
       0.033177424 -0.015174367 0.08808722 -0.009360589
000200 58 d5 57 3c 6e 94 f8 bd 7e 23 0f bd 58 99 b8 3d
       0.013173424 -0.12137686 -0.034945957 0.09013623
000210 d4 42 8e bd 14 8a 26 bd c9 09 d3 3b 99 03 15 bd
       -0.0694634 -0.040659025 0.0064403755 -0.036380384
000220 9b db b5 bd 21 a4 66 3b a2 b8 89 bd f3 dc 70 3d
       -0.08879777 0.0035193043 -0.06724669 0.058804464
000230 25 75 38 3d 14 6d 8c bd 0c c6 85 bc e8 bf 8d 3b
       0.045033593 -0.068567425 -0.016329788 0.0043258555
000240 d2 ec b0 bd ce dc 6b bc eb 06 2d bd e0 4e 32 bc
       -0.0863892 -0.014395906 -0.042242926 -0.010883063
000250 28 04 b0 bd b0 e8 b6 bc 1f a6 2c bd 74 58 ca 3c
       -0.08594543 -0.02232775 -0.042150613 0.02470038
000260 7c 13 c5 bc c1 84 09 bd dc f9 7c 3c 66 56 d1 bc
       -0.024057142 -0.03357387 0.0154404305 -0.025553893
000270 97 84 70 bd 92 2b 30 bd 6b 0c 47 3d 30 26 0e 3c
       -0.058720198 -0.043010302 0.048595827 0.008676097
000280 31 67 82 bd 17 37 15 bd da e2 3e bd 27 d0 89 3c
       -0.063673384 -0.03642949 -0.04660306 0.016822888
000290 03 78 b5 bd 5b 60 02 bd 52 b1 36 3d 54 f1 8d bd
       -0.08860781 -0.031830173 0.0446027 -0.06930795
0002a0 0e 45 a3 3d e3 69 07 3c 93 52 03 be b7 2d d2 bb
       0.079721555 0.008264991 -0.12824468 -0.006414141
0002b0 dc 8f 86 bd 1b 63 36 3c c0 d6 f1 bc bb 4d 13 bc
       -0.06570408 0.011132027 -0.029521346 -0.0089907
0002c0 96 96 3f bd 66 6f 69 bd 10 ae 80 bc 25 f0 69 bd
       -0.04677447 -0.056991003 -0.015708 -0.057113785
0002d0 c9 52 b0 3d 05 55 b4 bc 0c ff 9b 3a ff 0f 23 3d
       0.0860954 -0.022013197 0.0011901571 0.039810177
0002e0 3f 1d 7c bd 0c 73 d0 3d 90 ba 52 3b e0 80 85 bd
       -0.06155133 0.101781934 0.0032154657 -0.065187216
0002f0 5a 3c 08 bd 62 cf 28 3d e3 05 e5 bc 79 8f 3e 3c
       -0.03326068 0.0412134 -0.027956909 0.011630886
000300 71 3d 05 3d 1d 2e 8c 3b 27 ed ca bd 41 01 10 bd
       0.0325293 0.004277958 -0.099085145 -0.035157446
000310 6b 0e 30 3c 81 6c 3b bd 08 9d 35 3b 59 56 99 bc
       0.010745625 -0.045757774 0.0027712006 -0.018717932
000320 72 49 e3 3d 3e 04 e6 3d 97 6b 6d 3d f4 bd 14 bd
       0.11097993 0.11231278 0.057963934 -0.036313966
000330 48 e4 05 be 55 dd c3 bc a9 19 ea 3c 10 65 35 bd
       -0.13075364 -0.02390925 0.028576689 -0.044285834
000340 b6 6d 78 bd 6e 8c b2 bc 31 73 9b bc c9 6f 01 3d
       -0.060651504 -0.021795478 -0.018975826 0.031600747
000350 10 06 b4 bc 25 65 03 3e 2d ec d8 3c 33 8a d1 bc
       -0.021975547 0.12831552 0.026479805 -0.025578594
000360 0f bd 7c bc e3 f0 1f 3d a6 4f 1d bc 0b 79 ac bc
       -0.015425934 0.039048087 -0.009601509 -0.021053812
000370 ef 6f a9 bc c2 98 8f bc 6b a1 92 bc dc 66 14 bd
       -0.020683257 -0.017528895 -0.017899236 -0.036230907
000380 8e 45 06 bd 41 84 64 3d c4 6a 48 bd aa 42 c9 3b
       -0.032781176 0.05579019 -0.048929945 0.00614198
000390 73 d7 01 be 62 5b 05 be a3 55 be bd 63 f9 35 bd
       -0.12679844 -0.13023141 -0.09293678 -0.044427287
0003a0 00 c4 47 bc 8d 62 3e bc e7 80 34 bd 7e 09 30 bc
       -0.012192726 -0.011620176 -0.044068243 -0.010744451
0003b0 3c 7e 4b 3d b3 bf 73 bd 1b f6 54 bc 17 fb d9 3d
       0.049680933 -0.05950899 -0.012998129 0.10643595
0003c0 c7 95 29 3d 47 15 a1 3b bd 50 f7 3c fd 39 b1 bd
       0.041402604 0.0049158665 0.030189866 -0.086536385
0003d0 db 20 ca 3a c6 89 90 bd ac 74 ee bc 59 cd 3b bd
       0.0015421169 -0.07057528 -0.029108368 -0.04585013
0003e0 b9 55 fe 3c 1a a9 6f 3d 38 4d e0 3c 88 87 62 bd
       0.031046735 0.058510877 0.02738057 -0.055305034
0003f0 5f 2d 96 bc b7 14 e3 bc ac 47 9d bd 55 8d f4 bd
       -0.018332181 -0.027719839 -0.07679686 -0.119410194
