checkpoint_critic.pth (torch, 581989 bytes, 5 tensors)

fcs1.weight f4 [512, 24]
000000 b6 23 fa 3c f4 7a 6d 3b f5 6a 6d 3c f5 77 19 3c
       0.030534606 0.0036236616 0.014490833 0.009366979
000010 b8 7e 2d bd da fa 04 bd 0d ad db bc 6a 97 5a bc
       -0.042357177 -0.032465793 -0.026815915 -0.013341764
000020 8c 9b a9 bc ea 40 8d bb 83 0d ca bb 41 e0 35 bd
       -0.020704053 -0.004310717 -0.0061661615 -0.04440332
000030 cf d4 2d bd e5 e4 de 3c e1 62 7a 3c c6 bf ce 3a
       -0.04243928 0.027208755 0.015282364 0.0015773706
000040 d0 79 f0 bc da 85 86 bc 54 94 78 bc e0 83 e9 bc
       -0.02935496 -0.016421247 -0.015172083 -0.028505266
000050 63 a9 2d 3c bc 2b f0 bc 04 51 3c 3b c1 93 e3 3c
       0.010599467 -0.02931773 0.0028734813 0.027780415
000060 b9 6c 2b bc db 52 96 3c 66 c5 1b bd 70 1e b7 3c
       -0.010462933 0.018350055 -0.03803005 0.02235338
000070 c3 31 f2 3b ba c9 1a 3b 5f 85 1b 3d d0 90 05 bd
       0.007391186 0.0023618774 0.03796899 -0.032608807
000080 f4 32 1c bd 5b 8b d5 bb f6 96 26 bd e9 e8 d1 3b
       -0.03813453 -0.0065168566 -0.04067131 0.006405939
000090 bb 2c fa 3c 9b e4 c5 bc cd a1 92 3c e9 aa 0a bd
       0.030538907 -0.02415686 0.017899418 -0.0338544
0000a0 c1 45 2b 3d e4 ce 7c 3c ad ad 99 bc 0e 38 fa 3c
       0.04181457 0.015430186 -0.018759573 0.030544307
0000b0 b6 c0 f0 3c f9 03 52 bc 54 80 c6 bc c5 fa 32 bd
       0.029388767 -0.01281833 -0.024231113 -0.043696184
0000c0 65 2b 19 bd e4 ab 13 bd ff cf 1a bb 46 d1 15 bc
       -0.0373949 -0.0360526 -0.002362251 -0.009144133
0000d0 a9 92 21 bd 27 b9 09 bd 48 29 62 bc 88 de e5 bb
       -0.039446507 -0.03362384 -0.0138037875 -0.007015053
0000e0 19 f1 94 3c 49 ee ff 3c 49 c5 13 bd ea c6 07 3d
       0.01818137 0.031241553 -0.036076818 0.033148684
0000f0 59 4b 26 3d 85 93 ed bc 73 d4 19 3d 61 bc 10 3d
       0.0405992 -0.029001007 0.037556123 0.035335902
000100 b9 62 b1 3b 33 4e 19 bd 48 87 d3 3a 36 b9 d7 bc
       0.00541338 -0.037428092 0.0016138339 -0.026333433
000110 e1 9d eb 3c 7b 2b 51 bc 90 96 18 bd 97 71 f1 bc
       0.028761806 -0.012766714 -0.037252963 -0.02947311
000120 fa 17 2c bc 47 87 19 3d a2 c8 d8 3c 29 be 2b bd
       -0.010503763 0.037482526 0.026462857 -0.041929398
000130 89 a7 03 39 65 c7 11 bc 6e d2 d9 3c 19 87 53 bc
       0.00012555545 -0.008897637 0.026589599 -0.012910628
000140 e3 76 c5 bb 0a 11 09 3d 85 cf 22 3d 2a fe 1b bd
       -0.0060261353 0.033463515 0.039748687 -0.038084187
000150 fb df 04 3d 87 9d e8 3b 85 a4 27 3c a5 f0 b8 bc
       0.032440167 0.007098857 0.010232096 -0.022575686
000160 7b 04 10 3d 98 02 2e bd c8 f3 03 bd ee b5 8a bc
       0.035160523 -0.042482942 -0.03221491 -0.016932454
000170 da db 14 bd b1 6a 27 bd f4 d8 1f bd c8 62 ff 3b
       -0.03634248 -0.040873233 -0.039025262 0.007793758
000180 16 92 d3 bc 6c c4 8d 3c 4a ee 07 3d f4 4d dd bc
       -0.025826495 0.017305575 0.033186235 -0.02701471
000190 9a f0 b8 bc f4 61 b9 3b e4 a0 31 bc 37 fd db 3c
       -0.022575665 0.005657429 -0.010841582 0.02685414
0001a0 a1 3e 53 3c 39 f0 a7 3c 0c 37 53 3b f9 d5 19 3c
       0.01289335 0.02050029 0.0032228855 0.009389394
0001b0 f8 6c 0f 3d 24 fd 1c 3d df cb 23 bc 92 4f 90 3c
       0.03501603 0.03832735 -0.009997337 0.017616067
0001c0 e5 78 cc 3c 6a ca f4 3c 89 13 e0 bc d3 7f 18 3a
       0.02495999 0.029881675 -0.027353065 0.0005817387
0001d0 b0 ac 37 bd 92 84 25 3d 03 03 df bc 15 ff a4 bc
       -0.044842422 0.040409632 -0.027223116 -0.020141164
0001e0 d6 60 20 bd 03 ab 87 3c 18 86 c8 3c 35 ce 21 3d
       -0.03915485 0.016561037 0.024478003 0.039503295
0001f0 d2 e2 59 bc da f5 a4 3c 1c e3 a0 3c 37 ff 0c 3d
       -0.013298707 0.020136762 0.019639544 0.03442308
000200 b1 54 fc 3c 8d 0d 91 bc 4c 40 f3 bc 5a 8a 26 3c
       0.030802103 -0.017706657 -0.029693745 0.0101648215
000210 49 f4 64 3c 4e f0 68 3c eb e4 84 bc 00 5c c6 3b
       0.013974258 0.014217449 -0.016222438 0.0060534477
000220 b1 82 2f bd 56 9f 8b bb f4 4c 22 bd 10 eb 34 3d
       -0.042849246 -0.0042609377 -0.03962417 0.044169486
000230 fc dd 18 3c f3 58 b3 3c 38 37 14 bd 23 e3 18 3c
       0.009330269 0.021893 -0.036185473 0.009331497
000240 c8 e4 17 bb 27 5d 0e bd 6c fb a9 3c a0 41 7f bc
       -0.0023177136 -0.034756806 0.02074977 -0.015579611
000250 7f 75 03 3d 22 a5 1a bd 6c b9 00 3d f2 ef d3 3c
       0.032094475 -0.03775514 0.031426832 0.02587125
000260 1a 90 e8 3c d6 4f 0f bd 0f ab 14 bd 4d 4a f1 3b
       0.028389025 -0.034988247 -0.036295947 0.0073635937
000270 72 1c 29 3d 79 62 64 3b ca 7d 11 3d ae b3 22 3d
       0.041286893 0.0034848733 0.035520352 0.039722137
000280 df 5d d0 3b d0 ac f7 bc e0 5c f3 bb 01 38 7f bc
       0.0063588466 -0.03023377 -0.007426843 -0.015577317
000290 19 27 c0 3c 28 f2 87 bc ae f6 bc 3c 8e 43 34 bd
       0.023456143 -0.016594961 0.023066845 -0.044009738
0002a0 ed e2 74 bc c4 2e d2 3b 48 b9 59 bc 4b 90 d4 bc
       -0.014946681 0.0064142663 -0.013288803 -0.02594771
0002b0 44 c4 ab bc bf b9 0f 3d c5 db fd bc 32 76 53 bc
       -0.02096761 0.03508925 -0.030988583 -0.012906598
0002c0 37 b1 42 3c 51 cc 33 bd c6 10 2f bd 40 f8 05 bd
       0.011883072 -0.043896023 -0.042740606 -0.032707453
0002d0 e0 d1 31 bd f2 56 dd 3c b4 e0 82 bc 0b 6c 1d 3d
       -0.043413043 0.027018998 -0.015976287 0.038433116
0002e0 67 a2 c2 3c c2 ff 1a bd 0e fd 20 bd a9 1d 14 bd
       0.02375908 -0.037841566 -0.03930383 -0.0361611
0002f0 80 75 0c 3d 1d ab ca 3c a9 26 a3 3c 72 2f eb 3b
       0.034291744 0.024739796 0.019915896 0.007177287
000300 95 69 15 3d 8b 64 27 39 3d 3e 21 bb 7a f9 a8 bc
       0.036477644 0.00015963816 -0.0024603747 -0.020626772
000310 59 a9 f2 3c 80 77 5c bb ec 02 01 3d ee 47 ba bc
       0.029621767 -0.0033640563 0.031496927 -0.022739377
000320 26 21 0b bd bb ee 93 bc 38 b3 c5 3c 44 0e 33 3d
       -0.03396716 -0.018058171 0.02413331 0.043714777
000330 0b 5b a8 bc 8e 32 1c ba e6 30 36 bc 52 65 1a bd
       -0.020551225 -0.0005958461 -0.011120057 -0.037694283
000340 08 57 24 3d 6d d8 5c 3b 93 52 65 3c 29 4c b4 bc
       0.040122062 0.0033698336 0.013996738 -0.022008972
000350 60 f8 8d 3c bc 28 1a 3c d7 ca b2 3b eb 13 36 bc
       0.017330348 0.009409126 0.0054563093 -0.011113147
000360 38 05 b8 3c 46 13 26 bd 5a 23 1a 3d 21 69 0d bd
       0.022463426 -0.040545724 0.03763137 -0.034524087
000370 87 3d 2c bc c4 a8 15 3d be a4 1f bc 06 9d 80 bc
       -0.010512716 0.0365379 -0.009743867 -0.015699875
000380 bf 14 87 bc df 12 df 3c 75 68 74 3c fe 2e 33 3d
       -0.016489385 0.027230678 0.014917483 0.043745987
000390 39 85 c1 bc 2e 9c 6b bc 1b dc 10 bc 0a 2e 39 bc
       -0.023623096 -0.014380498 -0.00884154 -0.0113024805
0003a0 bb b4 04 bd 15 c7 2b bd 37 61 1b 3d d7 6f ad bc
       -0.03239892 -0.041937906 0.03793451 -0.021171493
0003b0 e3 fe 26 3d 02 1b e6 bc 86 80 b1 3c f7 28 27 bc
       0.040770423 -0.02808905 0.02166773 -0.010202638
0003c0 7e e1 b7 bc 77 3f 23 bd 11 10 d0 3c 42 ea e9 3c
       -0.02244639 -0.039855447 0.025398286 0.028554086
0003d0 b0 a9 ab bc 7e 1c 8f 3c 12 f6 2e bd 8d 60 a8 bc
       -0.020954937 0.01746964 -0.04271514 -0.020553852
0003e0 e2 c6 0c bd 64 c9 a6 bc 83 86 24 bd 93 88 42 3c
       -0.034369357 -0.020359702 -0.040167343 0.011873382
0003f0 4d 84 1d bd 35 dd 16 bc 6d 39 e0 b8 69 04 ee bc
       -0.03845625 -0.009208013 -0.00010691849 -0.029054837

fcs1.bias f4 [512]
000000 f4 02 a6 3c 5f ac c8 3c 5a f7 a4 bb b3 de 20 be
       0.02026508 0.024496255 -0.0050343694 -0.15709953
000010 7c 1c 79 bd d2 17 40 3d e7 38 c3 bd 5b c8 46 3e
       -0.06081818 0.046897717 -0.09532338 0.19412367
000020 d8 43 0d bd 90 95 4c bd 55 ff e9 bd d9 4c d5 3d
       -0.03448853 -0.04994732 -0.11425654 0.10415048
000030 f6 18 4b 3e da ef 3b 3e fb a5 3d be 7d f8 8e bc
       0.1983374 0.18353215 -0.18520348 -0.017452473
000040 64 20 37 bd 74 99 52 bd dc 8a 3c be 78 6f 51 3e
       -0.044708624 -0.051415876 -0.18412346 0.20452678
000050 71 c1 28 3e 2f 32 13 be f5 ba 03 3e c7 c5 77 bd
       0.16480042 -0.14374612 0.12864287 -0.06049135
000060 95 5e 3f 3e a0 c1 d8 bb 17 b6 da 3d 00 db 54 bc
       0.18688424 -0.006614879 0.10679262 -0.012991667
000070 99 0c 78 bd e6 a7 41 be e3 95 1d be 80 45 45 3e
       -0.06055889 -0.18911704 -0.15389208 0.19264793
000080 b4 e5 40 3e f8 00 48 3e da e0 17 3e 05 f4 3a be
       0.18837625 0.1953162 0.14831868 -0.18257149
000090 44 5c 05 be c4 ca 30 3d 24 89 3e be 62 99 b3 bb
       -0.13023478 0.043162122 -0.18607002 -0.005480931
0000a0 9c e0 86 3d 98 f8 83 bd a9 d0 0c 3d dc d8 6f 3c
       0.065858096 -0.064439 0.03437868 0.014639106
0000b0 00 02 9f bd fc 09 ca 3c 3f 84 2e 3d 29 55 2f be
       -0.07764053 0.024662964 0.04260659 -0.1712233
0000c0 5c ec 3e 3e 34 ef 4d 3e 1c 5f 2b be fc c6 46 bd
       0.18644851 0.2011078 -0.167355 -0.04852961
0000d0 3d bb 05 bc 4e 57 c8 ba 8d 5a 92 bd 6d 97 57 3c
       -0.008162317 -0.0015284808 -0.071461774 0.013158661
0000e0 28 e8 78 3d 4a 23 7b 3d 6e e2 ed 3d 6c 6f 20 3d
       0.060768276 0.06131295 0.11615454 0.03916876
0000f0 d7 3f 90 3d 28 a3 e6 bc 48 b4 59 bd 48 81 c1 3d
       0.070434265 -0.02815397 -0.053150445 0.094484866
000100 cc e9 25 3e 57 60 fe 3a 22 c5 20 be 55 b5 86 3d
       0.16202468 0.0019407374 -0.157002 0.06577555
000110 f1 e0 24 be f7 3f 88 3d ca 3d 49 3e 73 f4 0d be
       -0.16101433 0.06652825 0.19652477 -0.13862781
000120 24 53 f8 bc 71 a8 42 3e 45 7e ac 3d 2a 5e 47 3e
       -0.030313082 0.19009568 0.084225215 0.19469514
000130 dc 77 c7 bd 72 6b c9 bc 14 60 10 be 8b 92 e1 bd
       -0.09739658 -0.024587367 -0.14099151 -0.11014279
000140 9f b8 34 3d f4 02 2c 3e 8a b5 39 3e da 19 9f bd
       0.04412138 0.16798002 0.18135658 -0.07768603
000150 58 9c 30 3e 61 45 15 be d4 f5 45 be 33 94 de 3c
       0.1724714 -0.14577247 -0.19332057 0.027170276
000160 1e 8a 43 3e c1 56 20 3e 6e 75 17 be 2e 50 29 bd
       0.19095656 0.15658094 -0.1479089 -0.04133623
000170 a2 f5 38 3e 33 21 d8 3d 1a 9a 8c 3b 3b 23 bb bd
       0.18062451 0.10553207 0.0042908313 -0.09137579
000180 7b fc 06 3e 4a 71 30 3e a1 35 07 3e bd 41 b0 3d
       0.13182251 0.17230716 0.13204052 0.086062886
000190 8f f8 bc bd 91 7d 4b be 01 ce 3b 3e 7d ea 3f 3d
       -0.09227096 -0.19872119 0.18340303 0.046854485
0001a0 be 34 c2 3c be 48 9a 3d 41 78 9d bd 37 1b 17 be
       0.02370679 0.07533406 -0.07688952 -0.14756475
0001b0 8d 4d e6 3d ce 49 dc bc b1 0c 4a be e0 bb 1b bd
       0.112452604 -0.026890662 -0.19731404 -0.03802097
0001c0 b3 52 fc bc 56 a7 19 be 62 b1 25 be 3b 6f 41 bd
       -0.030801153 -0.1500524 -0.16180947 -0.04722522
0001d0 2d 5e 2e be ab e6 d8 3d 11 c0 48 be 65 a3 be bd
       -0.17028113 0.105908714 -0.19604518 -0.09308509
0001e0 87 9b 17 be 84 c9 94 bd ea 5a 4e be 2c c6 6a bd
       -0.14805423 -0.072649986 -0.20151868 -0.057317898
0001f0 d6 5b 08 be 06 c5 00 3e 01 5f 2f be b3 ad 43 3e
       -0.13316283 0.12575158 -0.17126085 0.1910923
000200 02 bd 42 3e c2 aa 59 3d aa 69 a1 bc ed ad f7 bd
       0.19017413 0.053141363 -0.019703705 -0.120937206
000210 51 20 b6 bd ab 68 0d be bd 9f f7 3c 3e c3 46 3e
       -0.088928826 -0.13809459 0.030227536 0.19410416
000220 1a 60 8a bd 58 a8 ae bd 66 1c 42 3d 01 16 44 be
       -0.06756611 -0.08528203 0.047390364 -0.19149019
000230 e3 19 8e bd eb 6d 11 be 88 ac 15 be 7a e9 7d bd
       -0.06938531 -0.14202087 -0.14616597 -0.06199024
000240 c8 f5 22 3e 60 55 b2 3d a7 02 68 3d 37 87 2f 3e
       0.1591407 0.0870769 0.056643154 0.17141424
000250 1b d4 f5 3d b6 a8 6a bb 1c 40 4d 3d 9a a5 ec bc
       0.120033465 -0.0035806126 0.050109968 -0.028887559
000260 f6 3e cc 3d 2c 99 3d 3d c7 c5 a5 3d 21 8c 43 be
       0.09972946 0.046288654 0.08094364 -0.19096424
000270 8d e5 d7 bc 03 c7 db 3d b1 fb 9f 3d 91 43 50 3d
       -0.026354576 0.10731318 0.07811678 0.050845686
000280 56 01 aa bd da 9f 07 3e 23 cc 33 bd d1 29 e6 bd
       -0.08301036 0.13244572 -0.04389585 -0.112384446
000290 e3 68 14 be 01 40 a3 b8 03 d2 24 be ee 7b 02 3e
       -0.14493136 -7.784367e-05 -0.16095738 0.12742588
0002a0 7b e7 e4 3c 99 a1 32 bd 0a 0e 34 3e a1 f5 5d bb
       0.02794241 -0.043611143 0.1758348 -0.003386833
0002b0 55 9d c6 3c 2f 40 09 3e b6 c7 0a 3d 68 6c c3 3a
       0.024244944 0.1340339 0.033881865 0.0014909627
0002c0 f3 e7 3e 3e 73 4e 21 be d8 bb cf 3d 26 87 56 3d
       0.18643169 -0.15752582 0.1014325 0.05237498
0002d0 6d 03 02 bd 6f c8 87 3d bf 91 8b 3c 09 74 01 be
       -0.03174155 0.066300265 0.01703727 -0.1264192
0002e0 25 46 0d be 2f c6 d3 bd 17 3c 3d 3e 41 e2 23 3e
       -0.1379629 -0.10340535 0.18479954 0.16004278
0002f0 0e d7 b2 bc b3 9d d9 3d 4c 92 fd 3d 0e 30 2f 3e
       -0.021831062 0.10625782 0.123814195 0.17108175
000300 92 9f 5c 3d 07 16 23 3e 17 cb 60 bd 11 f5 30 3d
       0.053863116 0.15926372 -0.05488118 0.043202464
000310 11 88 01 be 34 3b 2e be c0 42 32 bd 9b c1 28 be
       -0.12649561 -0.17014772 -0.04352069 -0.16480105
000320 34 49 8b 3d a6 da 06 3e a6 c9 27 3d 84 9c 48 be
       0.06801072 0.13169345 0.04096379 -0.19590956
000330 3b e6 b1 3d 82 76 3b 3e 5e c0 01 3d 63 43 3d be
       0.08686491 0.18306926 0.031677596 -0.18482737
000340 a2 27 27 bd 86 d3 48 3e c9 6c ee bd d0 d5 21 be
       -0.04080928 0.1961194 -0.11641843 -0.15804219
000350 29 4e 19 3e 41 69 1e 3e 57 33 44 3b 93 2d 46 3e
       0.14971222 0.15469839 0.0029937827 0.19353323
000360 cd 35 34 be f6 ca 00 3e 17 38 45 be a4 d0 7c bd
       -0.17598648 0.12577423 -0.19259678 -0.061722413
000370 f0 e7 27 3e fa a3 ce bd 4e 63 1c be ef 66 13 3d
       0.16397071 -0.1008987 -0.15272257 0.035986837
000380 f5 8e 4f 3e 84 ab 98 bd 41 91 39 be 13 3b ed 3d
       0.20269378 -0.07454589 -0.18121816 0.11583533
000390 45 0e 2b 3e 6c 26 07 be 28 01 d4 bd c3 56 c5 3d
       0.16704662 -0.1319825 -0.10351783 0.09635689
0003a0 cd e9 3b 3d a8 8c 21 be fa 3d 2b bd 21 ff 1c 3d
       0.045877267 -0.15776312 -0.041807152 0.038329247
0003b0 8e 17 aa 3c e3 36 1a 3e 33 f1 de 3d e8 0c b0 3c
       0.020763185 0.1506 0.10885849 0.02149053
0003c0 cd 8e 14 3e ff 46 45 be 6f 25 0d 3d 85 d2 b9 bb
       0.14507599 -0.19265364 0.034459528 -0.005670848
0003d0 da f2 04 be 9e 51 16 bd 49 22 80 bd e5 f4 48 be
       -0.12983266 -0.03669893 -0.062565394 -0.1962467
0003e0 b1 0c 81 3c f5 91 4f 3e 8a 18 0c be ae 32 bc bc
       0.015753122 0.20270522 -0.13681236 -0.022973385
0003f0 c8 db 3e bd 8a 23 e5 bd df fa bc 3d 8b 79 48 be
       -0.04659632 -0.11188419 0.09227537 -0.19577615

fc2.weight f4 [256, 514]
000000 d8 a7 2c bd 8e 63 2b bd d4 a7 3b 3d 9c 7a 43 3d
       -0.042152256 -0.04184299 0.04581435 0.04772435
000010 44 05 a7 bb 74 e8 33 3d 58 53 49 bd 72 8d f8 bc
       -0.0050970633 0.043922856 -0.04915175 -0.030340884
000020 04 86 b0 bb b7 54 07 3d d1 a4 3c 3d ba ef 68 3d
       -0.0053870697 0.033039775 0.04605562 0.056869246
000030 89 d7 97 3b 53 e9 7f bb 80 99 e7 3a d6 93 35 3d
       0.004633848 -0.0039048984 0.0017669648 0.04433044
000040 a0 42 25 3b 52 b0 aa bb 11 9a d4 bb b7 fc b8 3c
       0.0025216714 -0.0052090073 -0.0064880927 0.022581441
000050 17 de 49 bd 17 c3 7e 3d f0 bb 4b bd 3b 9e 38 3d
       -0.049284067 0.06219777 -0.049739778 0.045072775
000060 59 03 15 3d cd 54 ba 3c 20 51 c7 bc fe 15 2c bd
       0.036380146 0.022745514 -0.024330676 -0.04201316
000070 66 da d6 bc f6 af cd bc dc 8d db bc ce f6 0d bd
       -0.026227187 -0.025108319 -0.026801042 -0.0346592
000080 54 bd 81 bc 30 e2 a7 b9 5f b8 57 3d 9d c9 55 3d
       -0.015837349 -0.00032021245 0.052666064 0.052194227
000090 60 b5 4e 3d bd f0 e9 bc b8 4a 36 bd 88 57 78 bc
       0.05046594 -0.028557176 -0.04450485 -0.015157588
0000a0 26 73 4b bd 33 48 89 3c c9 bc cb bc f2 86 8e 3c
       -0.04967036 0.01675806 -0.024870293 0.017398331
0000b0 b6 28 36 bd 50 7b 26 3d 62 4d d3 bc 96 a5 4d bd
       -0.04447242 0.040644944 -0.025793735 -0.050206743
0000c0 cd 0c df 3c fc f7 4e bd 40 03 80 3a b0 9b 15 3c
       0.027227784 -0.050529465 0.0009766594 0.009131357
0000d0 0d c1 f8 3c f9 f7 20 bc b4 14 0d 3c 88 67 6e bd
       0.030365491 -0.009824746 0.008610893 -0.058204204
0000e0 e7 8a 2f bc 4e a7 81 bc 8c b5 42 bd b3 87 66 3d
       -0.010714269 -0.015826847 -0.047536418 0.056281757
0000f0 57 42 e1 3c 46 dc 5f bd b3 a7 fa bc 80 ab ec bc
       0.027497454 -0.05465343 -0.030597543 -0.028890371
000100 85 20 13 3d d8 61 c6 3c e3 34 d9 3c 3a e3 3a bd
       0.035919685 0.024216577 0.026514476 -0.045626856
000110 df d0 19 bc c3 75 47 3d 73 35 58 3a e5 46 7a 3d
       -0.009388178 0.04869629 0.00082477106 0.061102767
000120 63 b6 52 bd 35 a1 d3 3b 09 2a 90 bc c1 b0 fa bb
       -0.05144347 0.0064584264 -0.017598169 -0.0076504652
000130 25 9e 3e bd a0 fb d8 3c 15 cf 5d bb 39 7d 7c bd
       -0.046537537 0.026487172 -0.0033845354 -0.06164286
000140 f5 11 88 bc 7a d5 20 3c 48 97 a3 bc b4 6e a2 bc
       -0.016610125 0.009816522 -0.019969597 -0.019828178
000150 e3 b1 a0 bc 83 f4 20 3d 99 5a f5 bc e6 ca 78 bd
       -0.019616073 0.039295685 -0.029950427 -0.060740374
000160 cb 12 cf bc 4f e3 07 bd 4d d4 a4 ba 35 04 4a bd
       -0.025277516 -0.033175763 -0.0012575478 -0.04932042
000170 32 1a 0a bd a5 cc ef 3c 7e 6c 5d 3b ac 24 a5 3c
       -0.033716388 0.029272387 0.003378659 0.020159088
000180 b8 82 38 3d f8 5b 59 bc d4 c6 e6 bc ba a1 6b bd
       0.045046538 -0.013266556 -0.02817098 -0.05752728
000190 5a ee 72 bd b2 33 52 bc b7 53 3a 3d 8a f8 4f 3c
       -0.05930934 -0.012829708 0.045489993 0.012693534
0001a0 fb 60 f0 bc e2 e5 0d bd 5d e0 1f 3d 54 25 32 bd
       -0.029343119 -0.03464306 0.03903233 -0.04349263
0001b0 5f 7c 7a 3d 14 47 45 bc 61 4c 11 bd 1e 64 7b 3d
       0.061153766 -0.012040872 -0.03547323 0.061374776
0001c0 9f 94 06 bc f2 96 0a bd d3 df 40 3d ef 94 6b 3d
       -0.008214145 -0.03383536 0.047088455 0.05751508
0001d0 51 70 c2 bb 03 06 2b bd 95 a2 4a 3d a1 7a 3b 3d
       -0.0059337993 -0.04175378 0.049471457 0.045771245
0001e0 c8 44 34 3c 05 81 dd bc 50 cc 1a 3d 43 2e 38 bd
       0.011002727 -0.02703906 0.037792504 -0.044965994
0001f0 19 e3 1e bb e2 42 0c 3d 08 d5 bd 3c 17 66 e7 bc
       -0.0024244247 0.034243472 0.02317287 -0.028246922
000200 e2 d1 2c 3d 23 db 86 bc 25 f9 50 bd 00 f8 db bb
       0.042192347 -0.016461914 -0.051018853 -0.0067129135
000210 d5 db d3 bc 51 ee 40 3d 7f 11 9f 3c b0 42 fc bc
       -0.02586166 0.047102276 0.019417522 -0.030793518
000220 e1 09 1d 3c 10 40 2c bd 24 5e 8f 3c 86 27 41 bd
       0.009584875 -0.042053282 0.017500944 -0.047156833
000230 c5 01 b7 3c 78 10 cd bc f2 88 3a 3d f8 cc 43 3d
       0.022339711 -0.025032267 0.045540757 0.047802895
000240 d4 52 0e 3d f7 e8 6a 3d 60 27 8d bc 46 f8 4d bc
       0.03474696 0.05735108 -0.01723069 -0.0125714
000250 f7 76 69 3d ca a0 55 3d 4b 6f a4 3c 2f cf 09 3c
       0.05699822 0.052155294 0.0200726 0.008411213
000260 d5 a2 d3 ba c4 b3 c1 3c 2e d5 c6 3b b0 ca 13 bc
       -0.001614655 0.02364529 0.0060678935 -0.009020492
000270 d6 ed f3 bb b0 2e 3b 3b ad 50 23 bd 2f 94 cb bc
       -0.0074441237 0.0028561763 -0.03987186 -0.024850933
000280 e8 f4 98 3c e0 fd cd ba 43 5c 98 3c b0 dd de 3c
       0.018671468 -0.001571592 0.018598681 0.027205318
000290 4c b0 15 3d a7 2f fb 3c c2 ed 6a 3d be 91 96 3b
       0.036545083 0.03066237 0.05735565 0.0045950105
0002a0 a9 7f 6e 3c 67 0e 08 3d 1f 4b 2c 3d 0a 86 5b 3d
       0.014556804 0.03321686 0.04206383 0.053594626
0002b0 e1 97 c8 bc 3c 01 89 bb 19 22 e9 3c b2 c6 08 bc
       -0.024486484 -0.0041810554 0.028458642 -0.008348154
0002c0 ee 14 4d bd 31 dc c4 bc d1 cd 0a 3d e0 eb e7 3c
       -0.05006879 -0.024030777 0.033887688 0.028310716
0002d0 da 17 5d bc 5d 29 e7 bc 40 a1 f2 bb 2f 2e 4e bc
       -0.013494456 -0.028217966 -0.0074044764 -0.012584253
0002e0 cb 63 72 bd 35 cc 53 3d 9f 2d 9b 3c a1 55 79 bb
       -0.0591772 0.05170842 0.018942652 -0.0038045424
0002f0 c8 45 da 3b 93 bb 12 3c 73 fe df 3c 3b a6 3e 3d
       0.0066611506 0.008955854 0.02734301 0.04654525
000300 a1 54 76 bd a0 7c a4 bc ef df 66 3d 0f 14 f9 3b
       -0.060139302 -0.020078957 0.056365903 0.007601268
000310 5b 17 79 bc ae 18 0b bc 8b f8 de 3c 2a 2a 26 bc
       -0.015203322 -0.008489771 0.027218124 -0.010141889
000320 c6 d4 14 bc 8f bd 14 3d 46 27 36 3d 12 e3 7e 3d
       -0.009083932 0.03631359 0.044471048 0.06222827
000330 d4 2e cf 3c 57 ab 7c 3d 52 6e 5e bd 70 ca b8 3b
       0.025290884 0.06168684 -0.05430443 0.005639367
000340 9d 36 69 bd 97 a1 a2 b9 e2 a6 2b bd 94 cb b5 bc
       -0.05693685 -0.00031019442 -0.0419072 -0.0221918
000350 c7 84 73 3d 97 44 17 3d db ba 2e 3c 17 6d 7c bd
       0.0594528 0.036930647 0.010664667 -0.061627474
000360 9c a5 29 bd e5 ae 10 3d 84 7f 9c 3c 92 4d 92 39
       -0.041417703 0.035323042 0.019103773 0.00027905084
000370 a9 ad 44 bd de a4 13 3b 0f c4 f7 bc 9e fe 62 bd
       -0.048017178 0.0022528688 -0.030244855 -0.055418603
000380 60 d3 18 bd f8 14 45 bc 00 da 78 3b fe 9f cf 3c
       -0.037310958 -0.012028925 0.0037971735 0.025344845
000390 a6 05 37 3d 0b 67 55 3d f8 3e 2d bd 97 d7 53 3d
       0.04468312 0.052100223 -0.04229638 0.051719274
0003a0 eb 73 01 bd 8e 75 54 bd be 9c 4d bd f0 68 9d 3c
       -0.03160469 -0.05186992 -0.05019831 0.019215077
0003b0 1a 8e d2 3c 59 29 53 3d 81 fa 73 bc bb 63 2a bd
       0.025702525 0.051553104 -0.014891268 -0.041599017
0003c0 14 d9 9d bc a1 e4 96 bc fb 5b 23 3d 68 a9 26 bc
       -0.01926855 -0.018419566 0.03988264 -0.010172226
0003d0 16 01 80 bd fe e7 b9 3b 8e 3f 38 bd f0 12 df 3b
       -0.06250207 0.0056734076 -0.044982485 0.0068076774
0003e0 e3 9b 77 bd 71 01 d7 3c 8c b7 3a 3d d7 ac d9 bb
       -0.0604514 0.026245805 0.0455852 -0.0066429186
0003f0 6a 13 0c 3d dc 24 a8 bc 9f 97 d9 3a 9b f2 39 3d
       0.034198202 -0.020525388 0.0016600973 0.045397382

fc2.bias f4 [256]
000000 47 5e 15 bd 4d ea c1 bc 26 cd cd 3c 8e c2 b6 bc
       -0.036466863 -0.023671294 0.025122236 -0.022309568
000010 02 b9 e0 bc 64 e0 89 3c ba 30 35 bd 8b 89 11 3d
       -0.027431969 0.01683063 -0.044235922 0.03553156
000020 b9 70 e1 3b 9c 6e b1 bc 65 c6 d6 bc 54 2f 9a bb
       0.0068798927 -0.021659188 -0.026217649 -0.004705349
000030 55 4a 70 bc 10 6e fa bb 2e 67 24 3d f0 32 6c 3b
       -0.01466616 -0.007642515 0.040137462 0.0036041103
000040 84 ec 2d bc 12 a4 11 3c 0b 07 5c bc f3 d5 c1 bc
       -0.010615472 0.008889215 -0.013429414 -0.02366159
000050 ba 29 03 bd 23 62 1c 3b da cb c8 bc 64 57 f8 bc
       -0.032022215 0.0023862205 -0.024511266 -0.030315109
000060 1f 24 0d bd 36 86 18 bd ef 7b f2 bc 22 c7 23 3c
       -0.034458276 -0.03723737 -0.029600112 0.009996207
000070 14 ab 66 3c 0f 9e 4a bb 09 39 11 3d 6d ed 04 3d
       0.014078874 -0.0030916964 0.035454784 0.03245299
000080 95 92 3e bc 8c ac 2c 3c 90 cc 7d 3b 34 35 4c bb
       -0.011631628 0.010539185 0.0038726665 -0.0031159641
000090 e0 d5 2a bc d9 f1 bc 3c 4f a1 32 bc 4c 02 cd ba
       -0.010426968 0.02306454 -0.010902717 -0.0015640943
0000a0 b9 66 1e bd 66 0f a6 3c ed b0 d6 bc 99 77 31 bd
       -0.038672183 0.020271014 -0.026207412 -0.043326948
0000b0 69 44 1a 3d b7 43 78 bc 89 c8 08 bd 0c 59 d4 3c
       0.037662897 -0.015152863 -0.03339437 0.025921367
0000c0 95 cf 21 bd 0f 43 d6 bc 59 80 20 bc e0 f5 b7 ba
       -0.039504606 -0.026155023 -0.0097962255 -0.0014035068
0000d0 41 7f e6 bb db 03 e0 3b 49 df dd 3c b1 f0 e5 bb
       -0.007034213 0.006836397 0.02708401 -0.007017218
0000e0 7e 8f fe bc 6e af 8a bb 08 de 09 3d 03 03 87 3c
       -0.031074282 -0.0042323386 0.03365901 0.016480928
0000f0 95 71 20 3d 58 a1 2b 3d 0b b1 64 3b 04 c1 90 3a
       0.03917082 0.041901916 0.0034895565 0.0011043851
000100 41 ef bc bc 0c 0f 00 bd c0 a9 13 3c e3 92 39 3c
       -0.023063304 -0.03126435 0.0090126395 0.011326524
000110 4a 4e cb 3b 88 a0 9a 3c 29 b3 27 bd 1f d0 19 bd
       0.006204401 0.018875375 -0.040942345 -0.037551995
000120 31 50 e1 bc fa 99 3d bc 1f 29 a8 3c 8d 09 1a 3d
       -0.027504059 -0.011572355 0.02052742 0.037606765
000130 17 9d f9 bc e3 83 63 bc 62 f7 2e 3d f1 2b a2 3c
       -0.030470414 -0.013886425 0.04271639 0.019796344
000140 12 e0 1d 3d fc 01 c2 bc f6 74 9f bc ec f1 a5 3b
       0.03854377 -0.023682587 -0.019464951 0.0050642397
000150 78 c6 61 bc 90 e9 36 3b 63 3a 08 bd 48 1a 31 bd
       -0.013780229 0.002791021 -0.033258807 -0.043237954
000160 f7 d6 63 3a b1 ad 0f bd 2e 7b 1f bc bd a0 76 3c
       0.0008691395 -0.035077754 -0.009733958 0.015052971
000170 3c 38 1f 3d 9f aa 23 3d ac dc 2e 3d 4d e9 29 bd
       0.03887199 0.03995764 0.042690918 -0.04148226
000180 3c e4 f7 bc 12 ed c8 3c b3 fb 27 3d 4c 87 f0 3b
       -0.030260198 0.024527106 0.041011523 0.0073403474
000190 4d 82 bb bb a3 02 dd 3b 02 44 1b 3d 32 15 37 3c
       -0.00572232 0.006744699 0.037906654 0.011174487
0001a0 ab 05 00 3c bf a3 2b bd 03 f8 e1 bb 24 ff fd 3c
       0.007813851 -0.041904207 -0.0068960204 0.03100545
0001b0 88 2f df bc fa 6b 15 bd 40 9b 01 3d 3f 6e 11 3d
       -0.027244344 -0.036479928 0.0316422 0.03550553
0001c0 35 0c 9e 3c d9 75 4d 3c 15 0b ab bb 61 79 23 bd
       0.01929293 0.012540304 -0.005219827 -0.039910678
0001d0 11 46 94 ba 45 c2 aa 39 b9 bf d7 bc 89 d8 2d 3c
       -0.0011312385 0.0003256967 -0.026336538 0.010610708
0001e0 bd 7f 00 bc 65 ae 90 3c 31 ea 2e 3d b7 80 c5 3c
       -0.007842955 0.017661283 0.04270381 0.024109228
0001f0 d4 29 d1 3c 73 ea cf bb 6c 78 23 bd cd f9 8e bb
       0.02553264 -0.006345087 -0.039909765 -0.0043632747
000200 2d cf 0c bd 86 e3 fd bc a4 56 cc 3a ab 00 da 3b
       -0.034377266 -0.03099228 0.0015589786 0.0066529117
000210 60 08 a7 3c 0e 98 04 3d 3c 93 d7 bb e3 20 2f 3c
       0.020389736 0.032371573 -0.006578831 0.010688993
000220 0d cf a4 3c 2c 7c 8e 3c 26 77 24 3c 27 be 21 bd
       0.02011826 0.017393194 0.010038173 -0.039487984
000230 c8 2e 7d bc be 09 5b 3b 82 3c c4 bc ef a8 90 bc
       -0.015453048 0.0033422555 -0.023954634 -0.017658679
000240 ba 96 4c 3c 1d 1a 89 bb 67 09 ef bc 62 67 c4 bc
       0.012487108 -0.004184021 -0.029179288 -0.023975078
000250 42 ff 16 bd 84 b7 1e 3d 0c b7 10 3d 9c 2b a3 bc
       -0.036864527 0.038749233 0.035330817 -0.019918256
000260 bd 3c 23 3d 8b b0 e1 bb 43 b0 2a bd 3f 57 cd bc
       0.039852846 -0.0068875006 -0.041672003 -0.025066016
000270 05 8a 48 3c 33 f6 db 3c a6 f3 96 bc db cc 33 bd
       0.012239938 0.026850795 -0.018426728 -0.043896537
000280 fe ea 09 bc e4 3f e1 3c 32 d4 07 3d d3 fc 2c bd
       -0.008417843 0.027496286 0.03316135 -0.0422333
000290 3b 77 7b 39 77 ca ff bc 76 33 0f 3d 89 52 55 bc
       0.00023981642 -0.031224472 0.034961186 -0.013020166
0002a0 74 04 f2 bc 98 c2 f0 3c 1c 15 8f bc f6 0a 2d 3d
       -0.029543139 0.029389665 -0.01746612 0.04224678
0002b0 f2 d2 1d 3b 9d 6b e3 bc 37 df 24 bd 1c 3f 45 3c
       0.0024082032 -0.027761275 -0.040251937 0.012038972
0002c0 42 a0 fe 3b 8d 3d 96 bc 10 07 e0 3c 8c 30 1b 3d
       0.007770569 -0.018339897 0.027347118 0.037888095
0002d0 78 88 9c bb fd b3 2c bd 56 f9 d1 3c af 69 99 3c
       -0.0047770105 -0.042163838 0.025631588 0.018727152
0002e0 12 53 02 3d f8 dc 7a 3c 18 4e 78 bc 8f 0a f1 bb
       0.031817503 0.015311472 -0.015155338 -0.007355995
0002f0 2b 4d c8 bb 0c 10 1d bc 17 63 50 39 66 23 b8 3c
       -0.0061127148 -0.009586345 0.0001987334 0.022477817
000300 4b 33 24 bd a8 7f 81 3c 1b cf 7e 3c b0 6d fd bc
       -0.04008798 0.015807942 0.0155523075 -0.030936092
000310 57 78 96 bb 51 5b 9c 3c b9 f0 46 ba a2 51 ca bc
       -0.0045919823 0.019086512 -0.0007588971 -0.024697129
000320 a7 27 2d bc 1b d4 a1 bc ba 3f 8f bc 14 aa 86 3c
       -0.010568536 -0.01975446 -0.017486442 0.016438521
000330 fa 29 5c bc a9 85 38 bc 07 e3 00 3d ef 97 4e bc
       -0.013437742 -0.011262336 0.03146651 -0.012609466
000340 85 60 c8 3c 0b 17 0c bd e2 30 d4 ba 79 09 ac bc
       0.024460087 -0.034201663 -0.0016188885 -0.02100061
000350 8c 84 ba 3c 4c 44 a2 3c ef ac 7f bc c5 e3 2a 3d
       0.022768281 0.019807957 -0.015605195 0.041721124
000360 e4 e7 71 3c 10 37 a3 bc 33 25 fa bc a2 23 e1 b9
       0.01476476 -0.019923717 -0.030535316 -0.00042941893
000370 ce c0 ab 3c 29 aa d6 3b b0 3b 22 bd 4f 04 f5 3c
       0.02096596 0.0065510464 -0.039607704 0.029909281
000380 7d 8e 2e 3d 02 8e 2c 3d b4 b6 dc bc 78 a2 1d bd
       0.042616356 0.042127617 -0.026942588 -0.03848502
000390 a8 75 30 bd 5b cf fb 3c a1 8e 1f bd 73 c1 1f bd
       -0.043080956 0.030738523 -0.03895438 -0.039002847
0003a0 f5 34 26 bd a6 4c 84 bc 30 69 e9 3b 04 29 5b 3c
       -0.040577848 -0.01614983 0.007123135 0.013376478
0003b0 65 3e b5 bc 97 65 0b bd 0c 3f 17 bd 66 75 22 3d
       -0.022124479 -0.03403243 -0.03692536 0.03966274
0003c0 52 32 1e 3d 53 eb a8 bc 23 a4 d5 bc b9 1d dc 3c
       0.038622208 -0.020620024 -0.026079243 0.026869642
0003d0 4d 9e a7 3c 0f 4b 0d 3d 2e 5f 78 3c 00 06 b7 3b
       0.020461226 0.03449541 0.015159411 0.005585432
0003e0 02 6e d3 bb 0f 9e 23 3d f4 09 1a 3d 47 a0 cc bc
       -0.006452323 0.03994566 0.03760715 -0.02497877
0003f0 32 00 3d 3c b4 60 23 bd 1b b6 ad 3c 28 c7 08 3d
       0.011535691 -0.039887145 0.021204999 0.033393055

fc3.weight f4 [1, 256]
000000 5b 9a 1e 3b aa 7a be 3a c5 21 40 3b 2f 83 e6 3a
       0.002420089 0.0014532406 0.0029317003 0.0017586703
000010 48 46 a3 3a cb b5 85 b9 dc ae 89 bb f1 5e f6 3a
       0.0012456859 -0.00025503183 -0.004201753 0.0018796605
000020 fa 7a 5d bb de 1b 9d 3a 72 15 22 3b 8b ce 04 bb
       -0.0033795224 0.0011986454 0.002473202 -0.002026471
000030 ca 55 32 ba 7e b9 76 3a 09 8c 69 ba 1b 5e a6 ba
       -0.00068029447 0.0009411796 -0.00089091115 -0.001269284
000040 4f 8b 5d 3a 90 17 5f bb 06 ee f6 ba b1 b5 01 bb
       0.00084512396 -0.0034041144 -0.0018839247 -0.0019792134
000050 92 c3 42 bb c3 d2 14 ba c9 ad 88 3a d1 22 92 ba
       -0.002971862 -0.0005677158 0.0010427769 -0.0011149292
000060 38 0b 0d 3b 5d 88 ec 3a 16 bf 18 bb d1 d4 9f 3a
       0.002152158 0.001804601 -0.0023307255 0.0012194162
000070 62 e3 81 3a 02 ce 55 bb aa 98 ea ba 96 b5 10 3b
       0.0009909684 -0.003262401 -0.0017898281 0.002208089
000080 9c 73 76 3b 3c 02 86 3a 38 a2 11 3b c7 17 cf 39
       0.003760553 0.0010224055 0.0022221934 0.00039499832
000090 9b f8 b6 ba 1e 54 cd ba 4f 39 f8 b9 f8 60 1d 3a
       -0.0013959588 -0.0015665328 -0.00047344944 0.0006003524
0000a0 28 72 c7 3a b2 14 38 bb ec f8 82 ba 57 e1 17 3b
       0.0015216516 -0.0028088507 -0.0009992397 0.0023175084
0000b0 e3 f6 bc 3a 72 cc 18 bb ea 07 02 3b b9 65 19 ba
       0.001441684 -0.0023315218 0.0019841143 -0.00058516447
0000c0 08 6f 8b b9 1a 3d 28 3b be f2 56 3a 25 ba a5 3a
       -0.0002659487 0.0025671185 0.00081996236 0.0012643976
0000d0 5a 04 af b9 45 53 b5 3a 07 72 10 bb 72 7f bc ba
       -0.00033381843 0.001383402 -0.0022040622 -0.0014381243
0000e0 38 71 15 bb 60 61 12 bb 26 d0 60 ba 85 08 ae 3a
       -0.002280308 -0.0022335872 -0.00085759384 0.0013277686
0000f0 3f 29 ec ba 4e 79 fe 3a e8 05 c3 39 b5 d9 9d ba
       -0.0018017663 0.0019414814 0.000371977 -0.0012043031
000100 78 38 b7 bb db 48 a8 ba f6 6c 24 bb 4b b0 d6 b9
       -0.0055914484 -0.0012839095 -0.002508936 -0.0004094861
000110 ef 04 a1 bb 85 03 6d 3a 95 d3 b5 3a 1d 2c e5 ba
       -0.004913918 0.0009041357 0.001387226 -0.001748446
000120 83 0b 11 bb dc cf a9 39 89 7c 11 ba 68 57 08 bb
       -0.0022132106 0.0003238906 -0.0005549868 -0.0020804051
000130 38 bc 86 3a bd 3f 72 b9 b1 38 92 3a 4e 50 f7 3a
       0.0010279482 -0.00023102663 0.0011155811 0.0018868537
000140 ef 5a 66 3a c9 46 d3 b8 81 7e 1f bb f2 94 a1 39
       0.0008787354 -0.00010074449 -0.0024336877 0.00030819286
000150 6a 99 1e bb cd f7 59 3a bf 9f 39 3b 60 b2 69 39
       -0.0024200329 0.0008314818 0.0028323976 0.00022287061
000160 4c dd 83 3a 7e 00 c1 3a 64 b2 08 3b f9 14 15 3b
       0.0010060458 0.0014724878 0.0020858282 0.0022748096
000170 6d 2d 3e 3a 44 01 3d bb d3 7b a0 ba c5 c4 bc 39
       0.0007254694 -0.0028839866 -0.0012243934 0.0003600476
000180 0c b8 73 3a 43 82 f0 3a 6b b2 56 3a bb aa d3 37
       0.00092971395 0.0018349368 0.00081900385 2.5232663e-05
000190 1e 65 2b 3b 7c 42 e2 ba a2 44 39 bb 10 5d 38 bb
       0.00261528 -0.0017262246 -0.0028269668 -0.0028131641
0001a0 5f eb 67 b9 83 bd 2c 3a 24 d4 4f 3a 7e 8d 6c 3a
       -0.0002211756 0.0006589519 0.0007928035 0.00090237695
0001b0 0e 0c d2 3a e3 dd ad 3a 12 9d af 3a 6d b8 27 ba
       0.0016025321 0.001326498 0.0013398251 -0.0006398026
0001c0 2c d6 fa ba d8 1d 58 bb 75 ce 82 b8 a9 40 46 3b
       -0.0019137315 -0.0032976773 -6.237339e-05 0.0030250943
0001d0 2d b9 34 3b dd a5 1b 3b d7 cd 8d b9 21 27 b4 3a
       0.0027576194 0.0023749985 -0.00027046978 0.0013744571
0001e0 83 3f d9 3a 3f 93 54 bb 66 6d b0 3a b7 e9 2e ba
       0.0016574714 -0.0032436398 0.0013460338 -0.00066723995
0001f0 c5 bd 72 3b 3f b0 25 3b fa 3d c7 3a a7 e7 68 bb
       0.003703938 0.0025282053 0.0015200966 -0.0035538466
000200 40 ca bf 39 ac 52 95 39 71 06 4d bb 5b a0 a9 b9
       0.00036581047 0.0002848109 -0.0031284357 -0.00032353666
000210 be 7d de ba 79 8d 9f ba 00 ab da 3a e0 1b 00 ba
       -0.001697473 -0.00121729 0.0016683042 -0.0004886966
000220 38 8d 0c ba 04 60 03 bb db 18 e3 ba 4b c4 37 3a
       -0.00053616194 -0.0020046243 -0.0017326133 0.0007010146
000230 5b f2 18 3b 40 49 06 3b 21 49 ee b9 f6 42 fd b9
       0.0023337814 0.0020490438 -0.00045449383 -0.0004830581
000240 e3 f8 87 bb 43 01 1c ba ed 08 08 bb fc 1f 82 3a
       -0.0041495427 -0.0005951116 -0.0020757273 0.0009927745
000250 cc aa 1d b7 de c5 ba b9 30 5a 1b 3b 4f af 3a b9
       -9.397696e-06 -0.00035624107 0.002370488 -0.0001780365
000260 3b bc b0 3a 07 b1 57 bb ab 95 65 3a a3 bf a5 3a
       0.0013483831 -0.0032911913 0.0008757959 0.0012645613
000270 4e 43 ce ba f9 36 d0 b9 f4 29 e6 3a 7f 2c 22 39
       -0.0015736611 -0.0003971381 0.001756011 0.000154661
000280 97 5e 29 bb 6d bf d7 ba a3 06 b0 ba b4 40 3c bb
       -0.0025843733 -0.0016460248 -0.0013429712 -0.002872509
000290 f1 67 ba ba 42 d5 f8 ba 35 df f6 ba c4 ee 23 3b
       -0.0014221651 -0.0018984454 -0.0018834831 0.0025014142
0002a0 4e 4c 43 3a cb 31 93 ba e1 9b 66 bb 45 13 a7 39
       0.000745003 -0.001123005 -0.0035188126 0.0003186708
0002b0 88 28 27 3b b3 65 e4 3a b8 93 14 bb d9 56 ab 3a
       0.0025506336 0.0017425328 -0.0022671055 0.0013072147
0002c0 1f 3d c2 ba 03 21 65 b9 c0 99 d1 ba e9 82 fd b8
       -0.0014819241 -0.0002185144 -0.0015991256 -0.00012088364
0002d0 2f 10 3b 3a 8c 37 f0 ba 37 e8 6a ba fb e3 e3 ba
       0.00071358954 -0.0018327101 -0.00089609943 -0.0017386669
0002e0 f5 ae 52 bb ef 6f 55 bb f4 95 0c 3a 52 43 48 ba
       -0.003214774 -0.0032567938 0.0005362921 -0.0007639426
0002f0 9c 6c c2 ba 24 3f b7 ba 70 98 58 bb 31 99 32 bb
       -0.0014833394 -0.0013980609 -0.0033049844 -0.0027251954
000300 c1 ca 60 3a 45 c4 41 bb ed 31 8a 3a 7d e2 ba ba
       0.00085751346 -0.0029566449 0.0010543443 -0.0014258173
000310 4b 3d dc b9 55 a3 a3 ba 6b 22 16 ba fe cf 47 3b
       -0.00042007337 -0.001248459 -0.00057271746 0.0030488963
000320 ef 2d 28 3a b2 9d 85 3a 7f e9 b1 3a 99 59 d3 ba
       0.0006415536 0.0010194092 0.0013573616 -0.0016124725
000330 5e e6 9e ba 27 81 b1 3a 44 6b 73 38 a8 a8 ff ba
       -0.0012123098 0.0013542519 5.8035614e-05 -0.001950522
000340 96 2f e5 3a 7f 73 a6 3a 4a 18 6f 3a 2d 44 02 3b
       0.0017485495 0.0012699215 0.0009120746 0.0019877062
000350 b7 e5 d8 ba 7d 87 d1 ba 6f 60 b0 39 af 32 f4 3a
       -0.0016547953 -0.0015985813 0.00033641185 0.0018630828
000360 91 ad c5 ba 12 80 fb ba 3e d6 95 39 cd ea a7 b9
       -0.0015081634 -0.0019187948 0.00028579117 -0.00032027662
000370 21 d5 d3 3a ac 8d 16 bb 23 27 03 bb 24 78 1e 3b
       0.001616154 -0.0022972627 -0.002001234 0.0024180496
000380 e9 27 2c ba 9d 3c 28 bb 0b 54 dc 3a 42 46 85 3a
       -0.00065672264 -0.0025670894 0.0016809715 0.0010168033
000390 5a c9 e2 3a 2a d6 9e 39 60 f8 9b bb b4 9f 29 ba
       0.0017302439 0.00030295673 -0.004759833 -0.0006470636
0003a0 e7 a6 27 bb 77 21 f1 3a 39 e5 39 3a 30 77 d0 39
       -0.002558166 0.0018396814 0.0007091347 0.00039761653
0003b0 3e 6f 36 3a a1 a1 81 3a 0a 67 2e 3a 74 43 4f ba
       0.00069593254 0.0009890088 0.0006652927 -0.00079064746
0003c0 e4 24 4c ba eb f3 12 3b d3 b5 3a ba f5 c3 1d ba
       -0.00077874796 0.0022423218 -0.0007122431 -0.00060182746
0003d0 e1 9c 14 bb 26 f8 25 3b eb 00 18 ba ec 39 0d 3b
       -0.0022676515 0.002532491 -0.00057984766 0.0021549417
0003e0 19 16 e6 ba ec 50 ee ba e6 7e bc ba 42 e9 a2 3a
       -0.0017554193 -0.0018182076 -0.001438108 0.0012429135
0003f0 2c 18 0e ba b1 50 92 3a 9b 37 59 ba 60 89 80 b9
       -0.0005420472 0.0011162964 -0.0008286179 -0.00024516415
