checkpoint_actor.pth (torch, 580965 bytes, 6 tensors)

fc1.weight f4 [512, 24]
0	0xbd27bf94	-0.040954188
1	0x3ce4d35e	0.027932819
2	0x3be7078d	0.0070504607
3	0xbc2df26a	-0.010616878
4	0xbd2b7d0e	-0.04186731
5	0x3abeacd6	0.0014547359
6	0x3ba808c0	0.005127996
7	0x3ca729c6	0.020405661
8	0xbd150d79	-0.0363898
9	0xba814122	-0.000986133
10	0xbcf72029	-0.030166702
11	0x3c6c9f5d	0.014442292
12	0xbcc9f9a2	-0.024655167
13	0xbcb67477	-0.022272332
14	0xbbbec4b6	-0.0058217896
15	0xbca82d60	-0.020529449
16	0xbd347b2e	-0.044062786
17	0x3ca9a296	0.02070741
18	0x3cab921f	0.0209437
19	0xbc86e723	-0.016467636
20	0x3d06b73b	0.032889586
21	0x3cbc8b30	0.023015589
22	0xbb80370e	-0.003912813
23	0xbd39c10e	-0.045350127
24	0x3d277e80	0.040892124
25	0x3c8a2efc	0.016868107
26	0xbd2455d2	-0.040120907
27	0x3cc7ff80	0.024413824
28	0x3cf896de	0.030345377
29	0x3d26775c	0.040641174
30	0xbbba8d98	-0.005693149
31	0xbd2e99dd	-0.042627204
32	0xbbf13d56	-0.007362048
33	0x3bce0e90	0.006288357
34	0xbd252eda	-0.040327884
35	0x3c6fbcc8	0.014632411
36	0x3c2980c7	0.010345644
37	0xbd135d62	-0.03597773
38	0xbca9a7ae	-0.020709839
39	0xbd1a5978	-0.03768298
40	0x3d07fd0f	0.03320032
41	0xbd1a5b42	-0.037684686
42	0xbd0aafb0	-0.033858955
43	0xbcf084a3	-0.029360121
44	0xbcc85aa3	-0.024457281
45	0xbc0cad04	-0.008586172
46	0x3cdffbbb	0.027341714
47	0x3cf5e9fb	0.030018797
48	0x3d31c5da	0.043401577
49	0xbcb75ca2	-0.022383038
50	0x3d1fbd9c	0.038999185
51	0x3cf2585e	0.029583152
52	0xbcbcaf91	-0.023032935
53	0x3c3ad99c	0.011404421
54	0xbb856c55	-0.004071752
55	0xbc740603	-0.014894011
56	0x3c8005ca	0.01562776
57	0x3b769136	0.0037623174
58	0xbd16bc8b	-0.036800902
59	0xbc17434f	-0.009232356
60	0xbc83b09d	-0.016075427
61	0x3d2098ae	0.039208107
62	0xbcd7b465	-0.026331136
63	0xbac5f6b2	-0.0015103428
64	0xbc007752	-0.007840948
65	0xbb01d07d	-0.0019808107
66	0x3d29f23a	0.04149077
67	0xbc529ed6	-0.012855252
68	0x3d07c231	0.03314418
69	0xbc911b8d	-0.017713333
70	0x3a569381	0.0008185432
71	0x3cd862f8	0.02641438
72	0xba7319f6	-0.0009273583
73	0x3c35b460	0.011090368
74	0x3d37ea96	0.044901453
75	0xbccecaa6	-0.025243115
76	0xbc233cbf	-0.0099632135
77	0x3d00b5a6	0.031423233
78	0xbd1f9a59	-0.038965557
79	0xbc2f3823	-0.010694536
80	0x3d1e1d2b	0.038602035
81	0xbd45506f	-0.04817241
82	0x3d409e4f	0.047025975
83	0xbd10da18	-0.03536424
84	0x3c923ccc	0.017851256
85	0x3d25dde6	0.040494822
86	0xbc99158e	-0.018687036
87	0xbd07d3fe	-0.033161156
88	0xbc80eeff	-0.015738962
89	0xb9fcaca5	-0.00048193816
90	0x3b7a05ea	0.0038150498
91	0xbcd42161	-0.025894823
92	0x3d2f99ee	0.04287141
93	0xbcde2fec	-0.02712246
94	0x3d0a9974	0.03383775
95	0x3d0f9eca	0.035063542
96	0x3ce702de	0.02819961
97	0x3d0ffc78	0.035152882
98	0x3c82fdf8	0.015990242
99	0xbc518f1c	-0.012790468
100	0xbac89676	-0.001530363
101	0x3d150df1	0.03639025
102	0xbcbf1a0a	-0.023327846
103	0x3d3123b6	0.043246947
104	0x3cf0e3f5	0.029405573
105	0xbd1e0c50	-0.03858596
106	0x3cb9721a	0.022637416
107	0x3d16622b	0.036714714
108	0x3d0a881e	0.033821218
109	0xbc875a5d	-0.01652258
110	0xbb8550c4	-0.004068466
111	0xbd10516a	-0.035233893
112	0xbcd1325d	-0.02553671
113	0x3d0f2cf2	0.034954973
114	0xbc427661	-0.011869044
115	0x3b5d1b4b	0.0033738192
116	0xba6a2fd3	-0.0008933518
117	0xbbf9cfd3	-0.0076236515
118	0xbce28c68	-0.027654842
119	0xbc310109	-0.010803469
120	0x3cbf5ad0	0.023358732
121	0xbd23c30d	-0.039980937
122	0x3cec97b5	0.028880933
123	0x3c8d3107	0.017235292
124	0xbb0211b9	-0.001984699
125	0x3cb7bc01	0.022428514
126	0xbbd3cbfa	-0.006463525
127	0xbcb7ec56	-0.022451561
128	0x3d1d4a57	0.038400974
129	0xbc0b3c9c	-0.008498337
130	0x3ce7c810	0.02829364
131	0xbd1ab536	-0.037770472
132	0x3d069d6d	0.032864977
133	0x3d115528	0.035481602
134	0x3c47a740	0.012185872
135	0xbc822071	-0.01588461
136	0xbd3fcd4e	-0.046826653
137	0xbd09323c	-0.033495173
138	0x3cd967d4	0.026538767
139	0xb99571c9	-0.0002850427
140	0x3d10f06e	0.03538554
141	0xbcfa5c39	-0.030561553
142	0x3d0d6aa6	0.034525536
143	0x3b7d7c33	0.0038678765
144	0xbc520026	-0.012817418
145	0x3b9397fe	0.004504203
146	0x3d14b312	0.036303587
147	0xbc9b301a	-0.018943835
148	0x3d0d2f67	0.034469035
149	0x3d2c161e	0.04201328
150	0x3ca14ff3	0.019691443
151	0xbc08ac28	-0.0083418265
152	0x3ce0ecec	0.027456723
153	0x3cd66fb5	0.026176313
154	0x3c6cfd14	0.014464635
155	0x3d0c2874	0.034218267
156	0x3d263a12	0.040582724
157	0x3d06c63e	0.032903902
158	0x3caf1076	0.021370154
159	0x3c218efc	0.00986075
160	0xbc74b0b3	-0.0149347065
161	0x3ca0d034	0.019630529
162	0x3b9f488a	0.0048609423
163	0xbcb2d13b	-0.021828284
164	0xbcebeca2	-0.028799359
165	0x3a20971f	0.00061260344
166	0xbd1fccc1	-0.039013628
167	0xbb296563	-0.0025847785
168	0xbd315bc7	-0.043300416
169	0x3c8eefb6	0.017448287
170	0x3cd8239e	0.026384171
171	0xbcea0e9b	-0.028571418
172	0xbd1650b6	-0.036698066
173	0x3c844b8c	0.016149305
174	0x3c9fadc4	0.019492038
175	0x3d0b258d	0.033971358
176	0xbd035225	-0.03206076
177	0xbc67d354	-0.014149506
178	0xbc6212d8	-0.013798438
179	0xbd06f7c9	-0.03295115
180	0x3ce14d51	0.027502688
181	0x3c4e9e25	0.012610947
182	0xbc30868f	-0.010774269
183	0x3d135c95	0.035976965
184	0x3c01f120	0.007931024
185	0xbd02f8e5	-0.031975646
186	0xbce3d41f	-0.027811108
187	0x3bf16d83	0.007367791
188	0xbcf4015f	-0.02978581
189	0x3d196c8c	0.037457034
190	0xbcdbcce0	-0.02683109
191	0x3c95fb9b	0.018308451
192	0x3c292200	0.010323048
193	0x3cc2029e	0.023682889
194	0x3c2e1bfd	0.01062679
195	0xbcebd0eb	-0.028786143
196	0xbd01a1f7	-0.031648602
197	0x3d39e5f8	0.04538533
198	0x3ce10e19	0.027472543
199	0x3c7d96e0	0.015477866
200	0xbd303b34	-0.04302521
201	0xbbb7c211	-0.0056078513
202	0x3ab7fa13	0.001403632
203	0x3cb2189e	0.021740254
204	0x3d05b49d	0.03264295
205	0x3d46c1c1	0.048524622
206	0xbd1e9180	-0.03871298
207	0xbb43fd10	-0.0029905476
208	0xbae458a6	-0.0017421439
209	0xbb1c4fba	-0.0023851232
210	0x3d32cafd	0.043650616
211	0xbccdc032	-0.02511606
212	0x3d3e9787	0.046531226
213	0x3ce27c06	0.02764703
214	0xbad95534	-0.0016581179
215	0xbcca815e	-0.02471989
216	0x3d212088	0.039337665
217	0x3c9e2a83	0.01930738
218	0xbd1f558f	-0.038899954
219	0xbc2b1667	-0.010442353
220	0x3c5200ce	0.012817575
221	0x3cddc209	0.027070062
222	0xbd17e89d	-0.03708707
223	0xbcca57f5	-0.024700144
224	0xbd0595d4	-0.03261359
225	0xbca832d3	-0.020532047
226	0xbbc46b90	-0.0059942678
227	0xbcd33e14	-0.025786437
228	0xbb4ee682	-0.0031570499
229	0x3c6d2823	0.014474901
230	0xbc81979e	-0.015819367
231	0xba12c3ad	-0.0005598616
232	0xbb01e342	-0.0019819294
233	0x3cc49d7a	0.024000872
234	0x3b64975f	0.0034880263
235	0x3c9ca8ac	0.019123398
236	0xbcf1d444	-0.029520161
237	0x3cba9191	0.02277449
238	0xbd23d893	-0.040001463
239	0xbd012aa1	-0.031534795
240	0xbd3eac86	-0.04655125
241	0xbcee07cd	-0.029056454
242	0x3cb0bff0	0.021575898
243	0xbbe099af	-0.006854258
244	0xbbe36a46	-0.006940159
245	0x3c9437a1	0.018092932
246	0xbd20ca60	-0.0392555
247	0xbbf8731b	-0.007582081
248	0x3b2f4c83	0.0026748485
249	0xbd014c7b	-0.031567078
250	0x3d1ae4dc	0.037815914
251	0x3ccd082a	0.025028307
252	0xbc1dfb83	-0.009642485
253	0x3d244c1e	0.040111654
254	0x3c6e3274	0.014538396
255	0x3cd1edb9	0.02562605

fc1.bias f4 [512]
0	0x3ccd2a5b	0.02504461
1	0x3cc7c5ca	0.024386305
2	0xba98efcb	-0.0011668144
3	0xbe1c4a77	-0.15262781
4	0xbd7e36e3	-0.062064063
5	0x3d4f7470	0.050648153
6	0xbdbcb6bc	-0.09214541
7	0x3e4bded3	0.1990922
8	0xbcf87120	-0.03032738
9	0xbd4fe6c7	-0.050757196
10	0xbddb49fe	-0.10707472
11	0x3dce713c	0.100801915
12	0x3e4e7e3d	0.20165344
13	0x3e3c3cef	0.1838262
14	0xbe3da5fb	-0.18520348
15	0xbcb1a3a9	-0.021684485
16	0xbd23a11a	-0.03994856
17	0xbd473b1f	-0.048640367
18	0xbe37bbe9	-0.17942776
19	0x3e54b56f	0.20772336
20	0x3e2dda91	0.16977908
21	0xbe0e9801	-0.13925172
22	0x3e087c24	0.13328606
23	0xbd767eca	-0.06017951
24	0x3e4365ca	0.19081798
25	0xbae115d3	-0.0017172642
26	0x3dd7106e	0.105011806
27	0xbc051358	-0.008122288
28	0xbd730bfa	-0.059337594
29	0xbe4166d4	-0.18886882
30	0xbe18d5af	-0.14925264
31	0x3e418cfd	0.18901439
32	0x3e46a922	0.19400457
33	0x3e4cf9c8	0.20017159
34	0x3e1c6b15	0.15275224
35	0xbe3f82c7	-0.18702231
36	0xbe0597cd	-0.13046189
37	0x3d3abb20	0.045588613
38	0xbe42571e	-0.18978545
39	0xbb5cd118	-0.0033693966
40	0x3d918363	0.07105138
41	0xbd76ab84	-0.060222164
42	0x3d1cd70f	0.038291033
43	0x3c987198	0.018608853
44	0xbda0c437	-0.07849925
45	0x3cedef72	0.02904484
46	0x3d2ceb54	0.042216614
47	0xbe2af6ba	-0.16695681
48	0x3e42c831	0.1902168
49	0x3e51a9cc	0.20474929
50	0xbe2d26d6	-0.16909346
51	0xbd366463	-0.04452933
52	0xba9dde4e	-0.0012044401
53	0x3b3b6086	0.0028591468
54	0xbd904246	-0.07043891
55	0x3c94addc	0.018149309
56	0x3d852e09	0.06502921
57	0x3d791685	0.060812492
58	0x3df48a01	0.11940385
59	0x3d31072b	0.043219727
60	0x3d929cf6	0.07158844
61	0xbcc8bcfd	-0.02450418
62	0xbd63f035	-0.055649
63	0x3dca1f37	0.09869235
64	0x3e27fd8e	0.16405317
65	0x3bc1acee	0.0059105074
66	0xbe221d4c	-0.15831488
67	0x3d81ac06	0.06331639
68	0xbe205a9c	-0.15659565
69	0x3d90b47a	0.07065673
70	0x3e4bc2a2	0.19898465
71	0xbe0f0170	-0.13965392
72	0xbccc72a6	-0.024957012
73	0x3e48729a	0.19574967
74	0x3daf291d	0.085527636
75	0x3e4a37b2	0.19747809
76	0xbdbbc92f	-0.09169232
77	0xbc96e8ae	-0.018421497
78	0xbe0ae5b9	-0.13564195
79	0xbdd9c8b3	-0.106339835
80	0x3d2a7937	0.041619506
81	0x3e2dfa94	0.16990119
82	0x3e381153	0.17975359
83	0xbd926953	-0.07148995
84	0x3e35e733	0.17763977
85	0xbe108f74	-0.14117223
86	0xbe403906	-0.18771753
87	0x3cee01c2	0.029053573
88	0x3e457d28	0.19286025
89	0x3e247fe0	0.16064405
90	0xbe151c7a	-0.14561644
91	0xbd38cf9a	-0.04511986
92	0x3e3da7e7	0.18521081
93	0x3ddea06f	0.10870444
94	0x3b3f52af	0.002919357
95	0xbdb1f59e	-0.08689426
96	0x3e090c4e	0.133836
97	0x3e3532e3	0.17695193
98	0x3e07a6fc	0.13247293
99	0x3db8d9dc	0.090259284
100	0xbdbfa0bb	-0.09356829
101	0xbe48b8c5	-0.19601734
102	0x3e410cd6	0.18852553
103	0x3d32959f	0.04359972
104	0x3ce54270	0.027985781
105	0x3da50769	0.08058054
106	0xbd94edba	-0.07271905
107	0xbe135cb6	-0.14390835
108	0x3de27b62	0.1105869
109	0xbca5e42a	-0.020250399
110	0xbe4a0fdc	-0.19732612
111	0xbd2b89f4	-0.04187961
112	0xbce82425	-0.028337548
113	0xbe1503e1	-0.14552261
114	0xbe229dff	-0.15880583
115	0xbd48d2a8	-0.049029022
116	0xbe291fc4	-0.16516024
117	0x3dd9ad58	0.10628766
118	0xbe4d8927	-0.2007185
119	0xbdc5506a	-0.096344784
120	0xbe19dfb0	-0.15026736
121	0xbd8bfc12	-0.06835188
122	0xbe4aad0c	-0.19792575
123	0xbd6a3b42	-0.05718542
124	0xbe060039	-0.13086022
125	0x3dfa37ae	0.12217651
126	0xbe2d2be0	-0.16911268
127	0x3e48c67a	0.19606963
128	0x3e494eac	0.19658917
129	0x3d6ea0d1	0.058258835
130	0xbca79163	-0.020455068
131	0xbdff239e	-0.12457965
132	0xbdb9ccf6	-0.09072296
133	0xbe0ee539	-0.13954629
134	0x3d116e1e	0.035505407
135	0x3e482d5b	0.19548552
136	0xbd83441a	-0.06409474
137	0xbda4b992	-0.08043207
138	0x3d28dff1	0.041229192
139	0xbe3ef43f	-0.1864786
140	0xbd8de838	-0.06929058
141	0xbe0e6ccf	-0.13908695
142	0xbe137163	-0.14398722
143	0xbd792dba	-0.060834624
144	0x3e270126	0.16309032
145	0x3daf633c	0.08563849
146	0x3d7aee44	0.061262384
147	0x3e2d3dc6	0.16918096
148	0x3df3d8af	0.119065635
149	0xb9f66efa	-0.0004700346
150	0x3d518201	0.051149372
151	0xbd048dcd	-0.032361794
152	0x3dd5659a	0.104197696
153	0x3d4e1087	0.05030873
154	0x3da667d7	0.08125275
155	0xbe3ef646	-0.18648633
156	0xbcf648d0	-0.030064017
157	0x3ddf5581	0.109049805
158	0x3d99cf8e	0.07510291
159	0x3d5f79ee	0.05455964
160	0xbda0d804	-0.07853702
161	0x3e0bd2e8	0.13654673
162	0xbd3d6858	-0.046242088
163	0xbde54886	-0.111954734
164	0xbe10a26b	-0.14124458
165	0xbae1e7ae	-0.0017235184
166	0xbe28eb88	-0.16496098
167	0x3e024b03	0.12723927
168	0x3cfc7d28	0.030821398
169	0xbd1e80cf	-0.03869706
170	0x3e395c23	0.18101554
171	0xba6e77a8	-0.00090968097
172	0x3cd7e9f3	0.026356673
173	0x3e0c7951	0.13718154
174	0x3d1be6d5	0.038061935
175	0x3bb4213a	0.005497125
176	0x3e410858	0.18850839
177	0xbe2086e6	-0.1567646
178	0x3dc84929	0.09779579
179	0x3d47ff60	0.04882753
180	0xbd0d0e1e	-0.03443729
181	0x3d8f29b8	0.06990379
182	0x3c561ad9	0.013067924
183	0xbe05738a	-0.13032356
184	0xbe0aa61f	-0.13539933
185	0xbdd52de4	-0.104091436
186	0x3e413ac3	0.18870072
187	0x3e27f613	0.16402464
188	0xbccb011f	-0.024780808
189	0x3ddc3846	0.10752921
190	0x3e01311f	0.12616394
191	0x3e342b7b	0.17594711
192	0x3d6bebbe	0.05759787
193	0x3e201c2a	0.15635744
194	0xbd708afd	-0.0587263
195	0x3d4252a9	0.047442112
196	0xbdf548da	-0.11976786
197	0xbe2a23d5	-0.16615231
198	0xbd29e3f7	-0.04147717
199	0xbe284737	-0.16433416
200	0x3d944350	0.07239401
201	0x3e0cc576	0.137472
202	0x3d2ae385	0.041720886
203	0xbe4810e0	-0.19537687
204	0x3dbafe36	0.09130518
205	0x3e3a20bd	0.18176551
206	0x3d136b78	0.035991162
207	0xbe3b9b6e	-0.1832101
208	0xbd18c3f4	-0.03729625
209	0x3e4c94f3	0.19978695
210	0xbde9ead0	-0.1142174
211	0xbe242b02	-0.16032031
212	0x3e16da38	0.14731681
213	0x3e25d18d	0.16193219
214	0x3bcd21ec	0.0062601473
215	0x3e4772f9	0.19477452
216	0xbe310070	-0.17285323
217	0x3e0208ed	0.12698717
218	0xbe40862f	-0.18801187
219	0xbd7786bb	-0.060431223
220	0x3e2b04a9	0.16700996
221	0xbdc51722	-0.09623553
222	0xbe201e2d	-0.15636511
223	0x3d01375e	0.031546943
224	0x3e545bf9	0.2073821
225	0xbda20cb8	-0.07912582
226	0xbe350353	-0.1767705
227	0x3df68c3b	0.120384656
228	0x3e2f8879	0.17141904
229	0xbe0272cc	-0.12739104
230	0xbdca8c29	-0.09890015
231	0x3dd091fa	0.10184093
232	0x3d425cd3	0.047451805
233	0xbe22db5a	-0.15903988
234	0xbd246341	-0.04013372
235	0x3d2b6a8a	0.04184965
236	0x3c93e164	0.01805181
237	0x3e193946	0.14963254
238	0x3dea7a3f	0.11449098
239	0x3ca0d5fd	0.019633288
240	0x3e1284bf	0.14308451
241	0xbe42ab55	-0.1901067
242	0x3d221370	0.03956932
243	0xbada7b36	-0.00166688
244	0xbe058743	-0.1303988
245	0xbd00eb29	-0.031474266
246	0xbd6cf943	-0.057854902
247	0xbe4abc1b	-0.19798319
248	0x3ca06b0a	0.01958229
249	0x3e550622	0.2080312
250	0xbe0fdcb8	-0.14049041
251	0xbcbfe92a	-0.023426611
252	0xbd2c2c6e	-0.04203456
253	0xbde97dde	-0.114009604
254	0x3dc2140d	0.09476481
255	0xbe445be5	-0.1917568

fc2.weight f4 [256, 512]
0	0x3d54c968	0.05194989
1	0xbd6cd105	-0.057816524
2	0xbcceb65d	-0.025233442
3	0x3d661e3f	0.05618119
4	0xbcddecc0	-0.02709043
5	0xbd4e78be	-0.050408117
6	0xbc235cef	-0.009970888
7	0xbb890d1e	-0.004182472
8	0xbc100f32	-0.008792685
9	0xbcfeef95	-0.031120101
10	0x3d09986f	0.033592638
11	0x3d7a3da9	0.06109396
12	0x3d10335a	0.035205223
13	0xbcce0943	-0.0251509
14	0x3c0ea2f0	0.0087058395
15	0xbd63a634	-0.055578426
16	0x3ca5b848	0.020229474
17	0x3d16ed16	0.036847197
18	0x3b3fd47f	0.0029270945
19	0x3ceb6d74	0.028738715
20	0x3bf329b3	0.0074207424
21	0xbcc4aa05	-0.024006853
22	0x3c97380a	0.018459339
23	0xbd19a154	-0.03750737
24	0x3a6c49da	0.000901369
25	0x3b82d87b	0.0039930916
26	0xbb28be56	-0.0025748215
27	0x3d64dc9b	0.05587445
28	0x3a522cfa	0.0008017566
29	0xbc2ca800	-0.010538101
30	0xbc852268	-0.016251758
31	0xbd3cb560	-0.04607141
32	0x3cffb82a	0.031215746
33	0x3d656c66	0.05601158
34	0x3d5e0a46	0.054209016
35	0x3cacad55	0.021078745
36	0xbc2c68e0	-0.010523051
37	0xbd756eca	-0.05992011
38	0xbd27b9a0	-0.04094851
39	0xbd657d6b	-0.05602781
40	0x3d08d69b	0.03340779
41	0xbd5bb202	-0.05363656
42	0x3b2cf1b5	0.0026389186
43	0x3d6a24ed	0.05716412
44	0xbd2b9bb8	-0.04189655
45	0x3ce27c12	0.027647052
46	0x3c9bcebd	0.019019479
47	0x3d0cfba0	0.034419656
48	0xbd3fceaa	-0.04682795
49	0x3d68cc4d	0.05683546
50	0x3d5f3e31	0.05450267
51	0x3cc767bf	0.024341462
52	0xbd77ca39	-0.06049559
53	0x3d38ecff	0.045147892
54	0xba787e11	-0.00094792346
55	0x3cea2738	0.028583154
56	0x3d3e4093	0.0464483
57	0xbd1ab10f	-0.037766512
58	0xb8baf8ea	-8.915535e-05
59	0x3d04a16b	0.032380503
60	0xbd71eda3	-0.05906452
61	0xbcd6c59d	-0.026217276
62	0x3ac9f9aa	0.0015409489
63	0x3cbcd443	0.023050433
64	0x3cd1aee7	0.025596095
65	0x3cdac903	0.026707178
66	0x3d42c85a	0.04755435
67	0x3d514bd7	0.051097717
68	0x3d2bb48d	0.041920234
69	0xbd0fd17d	-0.035111893
70	0xbca642b9	-0.020295488
71	0xbcc30065	-0.023803899
72	0x3cb1252a	0.021624167
73	0xbd1cea92	-0.03830964
74	0x3d47eb91	0.048808638
75	0xbbc3d3e0	-0.005976185
76	0x3be0ed51	0.006864228
77	0x3cb651a7	0.022255732
78	0x3d4badfa	0.049726464
79	0xbd6c076f	-0.057624277
80	0xbca8619a	-0.020554353
81	0x3cd5aa81	0.02608228
82	0x3d0286d9	0.031866882
83	0x3d5c5153	0.053788494
84	0xbd27fe15	-0.041013796
85	0xbcc9431b	-0.024568131
86	0x3cbf1969	0.023327546
87	0x3d811ca1	0.06304289
88	0xbd10826b	-0.035280626
89	0xbafb12e8	-0.0019155415
90	0x3d2d45b9	0.04230282
91	0x3b118805	0.0022206318
92	0x3d40d749	0.047080312
93	0x3cf10a99	0.029423999
94	0xbd3ab422	-0.045581944
95	0xbd68ea83	-0.056864273
96	0x3d7233ab	0.059131306
97	0x3d1179a2	0.03551639
98	0xbd5913ed	-0.05299752
99	0x3bf1f8fc	0.0073844176
100	0xbc277c76	-0.010222545
101	0x3d3a6181	0.045503143
102	0xbb458314	-0.0030137943
103	0x3d3a5ee5	0.045500655
104	0xbce063ea	-0.027391393
105	0xbc3b76c0	-0.011441886
106	0x3b510cf5	0.0031898592
107	0x3d5b2e0d	0.053510714
108	0xbba81130	-0.005129002
109	0xbcff803e	-0.03118908
110	0xbcf71d72	-0.030165408
111	0x3d36471c	0.04450141
112	0xbcc631ce	-0.02419367
113	0x3d687abe	0.05675768
114	0xbd1ba198	-0.037995905
115	0xbcb88a28	-0.022526816
116	0x3cee3b25	0.029080937
117	0x3b5fe024	0.0034160698
118	0x3bfc2463	0.0076947673
119	0xbc86b1d6	-0.01644222
120	0xbc86049f	-0.016359625
121	0xbd4ad939	-0.049523566
122	0x3cd1a3f1	0.025590869
123	0xbc9a9b50	-0.018872887
124	0x3bc65ce7	0.0060535553
125	0xbbc028c7	-0.005864236
126	0x3ba74757	0.00510494
127	0xbd182b9c	-0.037150964
128	0x3ced0ecd	0.028937722
129	0xbd6c8958	-0.05774817
130	0xbb522781	-0.0032067003
131	0x3d37203d	0.04470848
132	0xbd5111c4	-0.051042333
133	0xbd79495a	-0.06086097
134	0x3cd95ddb	0.026534012
135	0xbcead08e	-0.0286639
136	0xbd47895c	-0.04871498
137	0x3c24f147	0.010067291
138	0xbd3b7bd4	-0.04577239
139	0xbb190f69	-0.0023355132
140	0x3d720f2d	0.059096504
141	0xbd7ca92e	-0.06168478
142	0xbc723818	-0.014783882
143	0x3c6f57cb	0.014608334
144	0xbd0afcc4	-0.033932462
145	0x3cdd7b93	0.027036464
146	0xbce72d4f	-0.028219847
147	0x3b66dea7	0.0035227926
148	0xbd396a6d	-0.04526751
149	0xbd21d173	-0.039506387
150	0xbcbf3f06	-0.023345482
151	0xbc3c7bbe	-0.011504112
152	0x3cf16a42	0.029469613
153	0xbc4e3ddd	-0.012587992
154	0x39992cff	0.0002921596
155	0x3c19f188	0.009395964
156	0xbd12dd49	-0.035855565
157	0xbcc8e62f	-0.024523823
158	0x3d08f9d5	0.033441383
159	0xbcf3048f	-0.02966526
160	0xbd4299f5	-0.047510106
161	0x3c167917	0.0091841435
162	0xbd35cd72	-0.04438538
163	0x3d3ec956	0.046578728
164	0xbd625bd1	-0.055263344
165	0xbcf3beda	-0.029754091
166	0x3d44c0e8	0.048035532
167	0xb7cc2d45	-2.4339775e-05
168	0x3d28bbb8	0.041194648
169	0xbcf6dc7a	-0.030134428
170	0xbc137213	-0.008999365
171	0xbd30f061	-0.043197993
172	0xbd40cb40	-0.047068834
173	0xbbb1992a	-0.00541987
174	0x3c958bd4	0.018255152
175	0x3d3b4293	0.045717787
176	0x3b71d2d5	0.0036899347
177	0xbd426958	-0.047463745
178	0xbd528f33	-0.051406097
179	0xbd470dab	-0.04859702
180	0x3cf960fd	0.030441755
181	0x3c8a056c	0.016848288
182	0x3cdbd756	0.026836079
183	0x3cfc6408	0.030809417
184	0xbd61f061	-0.055160884
185	0x3d30d3ae	0.043170623
186	0x3d26d0cb	0.040726464
187	0xbcde0332	-0.027101133
188	0xbc80d69e	-0.015727337
189	0x3bfa54ae	0.007639489
190	0xbd30fdba	-0.043210723
191	0x3d2f5bc7	0.042812135
192	0x3d684937	0.056710448
193	0xbb68df37	-0.0035533437
194	0xbd0eae84	-0.0348344
195	0x3cc03844	0.02346433
196	0x3c385bfd	0.0112524
197	0x3bb0b186	0.005392256
198	0x3c90daa7	0.017682387
199	0xbd28c6f0	-0.041205347
200	0x3d1deb7a	0.038554646
201	0x3d1ee689	0.038794074
202	0x3ccaf9e4	0.02477736
203	0xb9259200	-0.00015790015
204	0xbd606c0d	-0.054790545
205	0xbd128080	-0.03576708
206	0x3cfb1495	0.030649463
207	0xbd1d0013	-0.03833015
208	0xbbf3a023	-0.0074348613
209	0x3bd48260	0.0064852685
210	0xbc2e6059	-0.010643088
211	0x3d43f1ee	0.047838144
212	0x3b6802f6	0.0035402155
213	0x3d7b9662	0.061422713
214	0x3c2dd3f9	0.01060962
215	0x3bda4091	0.006660529
216	0xbc16f6ff	-0.009214162
217	0x3cc5908a	0.024116773
218	0x3bda0d93	0.00665445
219	0xbc58bdc2	-0.013228836
220	0xbd3946d5	-0.045233566
221	0x3bd8da3d	0.006617813
222	0x3caa04ba	0.020754207
223	0xbcb94cac	-0.022619568
224	0x3cfd078d	0.03088739
225	0x3d24ec16	0.04026421
226	0xbc26dcc1	-0.010184468
227	0xbcb65c60	-0.022260845
228	0xbd0cf74d	-0.034415532
229	0xbd7cd04b	-0.06172208
230	0xbd7b33b9	-0.061328623
231	0x3bcae80a	0.006192212
232	0x3ca6e1ba	0.020371307
233	0x3d4e8935	0.05042382
234	0xbd4d4641	-0.050115827
235	0xbb99e943	-0.0046969964
236	0x3d09bd26	0.03362765
237	0xbd66c547	-0.056340482
238	0xbc6e5d5c	-0.014548626
239	0x3d53d21c	0.051714048
240	0x3ba4c434	0.005028272
241	0x3c3fa816	0.01169779
242	0x3d1411b1	0.036149684
243	0xbd3ed4bd	-0.0465896
244	0xbc8bb627	-0.01705463
245	0xbd1b806c	-0.03796427
246	0xbcff08e8	-0.031132177
247	0x3c3437e6	0.010999655
248	0xbd355477	-0.044270005
249	0x3d3a9dd0	0.045560658
250	0x3d3bc969	0.045846377
251	0xbd740ed4	-0.059584454
252	0xbc1cc8ad	-0.009569329
253	0xbd022972	-0.031777807
254	0xbd39cffb	-0.04536436
255	0xbd2bc1a6	-0.041932724

fc2.bias f4 [256]
0	0x3d288166	0.04113903
1	0x3d085168	0.03328076
2	0xbcac3e64	-0.021025844
3	0xbcfb9be4	-0.030713983
4	0x3cb71412	0.022348437
5	0xbd03cbc7	-0.03217676
6	0xbd231c72	-0.03982205
7	0x3ccf3a85	0.025296459
8	0x3d34f6c7	0.044180658
9	0x3d3c638b	0.04599337
10	0xbcdc7d31	-0.026915165
11	0x3c5df786	0.013547784
12	0x3d27321c	0.040819272
13	0x3d41bb63	0.047297847
14	0x3d01c54a	0.03168229
15	0xbcdec500	-0.027193546
16	0x3d0c7346	0.03428962
17	0xbc8ff9f3	-0.01757524
18	0x3c8450b1	0.016151758
19	0xbc587152	-0.013210611
20	0x3d0e7e95	0.034788687
21	0xbb6dc817	-0.0036282593
22	0xbc89c1e7	-0.016816093
23	0xbc441d46	-0.01196987
24	0xbcabf58b	-0.020991107
25	0x3d223040	0.039596796
26	0xbc93ed8d	-0.018057609
27	0xbcc14b2a	-0.023595411
28	0xbca359f3	-0.019940352
29	0x3cea8902	0.028629784
30	0x3c37b11c	0.01121166
31	0x3c5ae256	0.013359627
32	0xbd04e3df	-0.032443877
33	0xbcfb8cc7	-0.030706776
34	0x3d0b753e	0.034047358
35	0x3ca7fa66	0.020505141
36	0x3d35ea27	0.04441276
37	0x3c8a2c57	0.016866846
38	0x3cf7e028	0.030258253
39	0x3cc65a58	0.024213001
40	0x3d1a35e3	0.037649047
41	0xbcd43ac4	-0.025906928
42	0x3c87711d	0.016533429
43	0xbd19e33f	-0.037570234
44	0xbb312821	-0.0027031975
45	0x3cc41b99	0.02393894
46	0x3a853071	0.0010161531
47	0x3bd2b805	0.0064306282
48	0x3d31ec7b	0.043438416
49	0xbd04c64e	-0.03241568
50	0x3cc00bf2	0.023443196
51	0xbcb60d1b	-0.022223046
52	0xbd15e219	-0.036592577
53	0xbd25c4eb	-0.040471
54	0x3cf5fbe0	0.03002733
55	0xbc98389a	-0.018581677
56	0xbc3f971a	-0.01169374
57	0xbd18b4fc	-0.037281975
58	0x3b044165	0.002018058
59	0x3cc35a46	0.023846757
60	0xbd2253d7	-0.039630737
61	0x3cd343c0	0.025789142
62	0xbbb746df	-0.0055931653
63	0x3c19fe9d	0.009399083
64	0x3bc28ba7	0.005937058
65	0xbc1459b7	-0.009054593
66	0x3c43ef29	0.011958876
67	0x3be81cf2	0.0070835287
68	0x3b894cb0	0.00419005
69	0x3c82fccb	0.015989682
70	0xbc3d7aa3	-0.011564883
71	0x3ccf49a7	0.025303675
72	0x3d05d846	0.032676958
73	0xbca349fa	-0.019932736
74	0x3c3d729f	0.011562972
75	0xba825ea0	-0.0009946413
76	0xbd04166b	-0.032247942
77	0x3c89394a	0.01675095
78	0x3c6b5f89	0.014366039
79	0xbcd37ab9	-0.025815355
80	0xbccbfbc6	-0.024900328
81	0xbcacfbd8	-0.021116182
82	0x3cd70842	0.026249055
83	0x3abaf6b7	0.00142642
84	0x3cf14f49	0.029456751
85	0x3d355a76	0.044275723
86	0x3c174fd5	0.009235342
87	0x3d3fbc80	0.046810627
88	0x3b096aca	0.0020968192
89	0x3cf31942	0.02967513
90	0x3c387008	0.011257179
91	0x3c39de4d	0.011344505
92	0xbb78fa94	-0.0037991153
93	0xbd0906fd	-0.03345393
94	0x3d1805d3	0.03711493
95	0x3d1de55b	0.03854881
96	0x3d0f0484	0.034916416
97	0x3c588538	0.013215356
98	0xbc5a485f	-0.013322919
99	0xbcf41eac	-0.029799782
100	0x3cfd916a	0.030953128
101	0x3b28d1b9	0.002575977
102	0x3cbe94ee	0.023264375
103	0xbcf01e75	-0.029311398
104	0x3c86f11d	0.016472394
105	0x3b1da5df	0.0024055166
106	0x3d117c65	0.035519022
107	0xbd26420e	-0.04059034
108	0xbb00d352	-0.0019657207
109	0xb89dbe3f	-7.5217795e-05
110	0xbb813083	-0.0039425506
111	0x3d182b28	0.037150532
112	0xbcc8a0ad	-0.024490679
113	0x3d337fd2	0.04382307
114	0x3cb7d241	0.022439124
115	0xbc3d68f5	-0.011560668
116	0x3c125ee6	0.008933758
117	0xbd2924ea	-0.04129497
118	0x3b332d50	0.002734024
119	0xb8da7c25	-0.00010418174
120	0x3c1535cc	0.009107064
121	0x3ba9c44a	0.00518087
122	0xbca2d45b	-0.01987665
123	0x3d3fc457	0.046818104
124	0x3d1446eb	0.036200445
125	0xbc4208a2	-0.011842879
126	0x3d1b377f	0.037894722
127	0x3d248111	0.04016215
128	0x3d34bfd6	0.04412826
129	0xbd076764	-0.033057585
130	0x3cc6d44f	0.024271159
131	0x3d0f9f58	0.03506407
132	0xbcdb1abc	-0.026746146
133	0x3ce03793	0.02737025
134	0xbd0e2e2f	-0.034712013
135	0xbb8f5e7d	-0.0043752776
136	0xbd261ce9	-0.040554915
137	0x3b83ddd3	0.0040242462
138	0x3c331c03	0.0109319715
139	0xbca59613	-0.020213163
140	0xbcbd9d00	-0.023146152
141	0x3d0f3ac7	0.034968164
142	0x3aca29ad	0.0015423797
143	0xbc8075aa	-0.015681107
144	0xbd12bd51	-0.035825077
145	0xbc92b25d	-0.017907316
146	0xbd0ce700	-0.034399986
147	0xbd170fd1	-0.036880318
148	0xbc7f1543	-0.015569034
149	0x3c9b3c9f	0.018949805
150	0xbcc0ded1	-0.023543747
151	0xbca32b8f	-0.019918231
152	0xbc9a26d9	-0.018817352
153	0x3cdcb925	0.026943753
154	0xbd2add6c	-0.04171507
155	0x3c505ffe	0.012718199
156	0xbc2b04e7	-0.0104381805
157	0xbc2a1f2a	-0.010383407
158	0x3cf5adeb	0.029990157
159	0xbbe067f9	-0.006848332
160	0xbbc164da	-0.005901915
161	0x3c91da79	0.017804371
162	0x3cb7353e	0.022364255
163	0x3d31204b	0.043243688
164	0x3c8c7a45	0.017148146
165	0x3d21987e	0.03945207
166	0xbd1182db	-0.035525184
167	0xbd0d73cf	-0.03453427
168	0xbaf4f765	-0.0018689452
169	0xbc230075	-0.009948839
170	0x3d165fd4	0.036712483
171	0x3d24ceee	0.040236406
172	0xbd2d62dc	-0.042330608
173	0xbb7b1f07	-0.0038318054
174	0x3d0b0672	0.033941694
175	0x3cf4a0ed	0.029861892
176	0xbd0db7b8	-0.034599036
177	0xbd1c7d48	-0.038205415
178	0x3cd72343	0.026261931
179	0x3c7aaa3f	0.015299379
180	0xbc681c75	-0.014166941
181	0x3ce9a0c4	0.028519042
182	0x3b86e096	0.004116128
183	0xbbfe840b	-0.0077672056
184	0xbc6fc18d	-0.014633548
185	0x3c29007a	0.010315055
186	0x3d4077fe	0.046989433
187	0xbbf4953f	-0.0074640806
188	0x3d28f222	0.04124654
189	0xbc1bd1ae	-0.009510441
190	0x3d147f47	0.036254194
191	0x39b0211f	0.00033594013
192	0x3cd3c357	0.025849981
193	0x3c43ed28	0.011958398
194	0xbc1e0ceb	-0.009646635
195	0x3d25684c	0.04038267
196	0x3d20fb54	0.039302185
197	0x3d31841e	0.043338887
198	0x3a403622	0.0007332285
199	0xbcaf8309	-0.021424787
200	0xbce82c1c	-0.028341345
201	0xbcf14ba3	-0.029455012
202	0x3cddb995	0.027066031
203	0xbba6ddfb	-0.00509238
204	0x3d1b74ca	0.037953176
205	0xbd2f150a	-0.042744674
206	0xbcf15e79	-0.029463993
207	0x3c879cfa	0.016554344
208	0xbcc476cc	-0.023982428
209	0x3d46d14e	0.048539452
210	0xbc173862	-0.009229751
211	0x3d1148f4	0.035469964
212	0xbb8d0db9	-0.0043046144
213	0x3cab79e3	0.020932144
214	0x3d302254	0.043001488
215	0xbbaedf55	-0.005336682
216	0x3d1b0610	0.03784758
217	0xbcad7f75	-0.02117894
218	0xbba8fb00	-0.0051568747
219	0x3d0baf12	0.034102507
220	0xbb62f8a7	-0.0034633072
221	0x3cef419a	0.029206086
222	0x3cedb5f9	0.029017435
223	0x3d080388	0.033206493
224	0x3d28e721	0.041236047
225	0x3b982146	0.0046426384
226	0xbc012683	-0.007882717
227	0xbd06f753	-0.03295071
228	0xbbfdbd05	-0.00774348
229	0x3cff0aa6	0.031133007
230	0x3c0bf53f	0.008542358
231	0xbd25b873	-0.040459108
232	0xbd130c0d	-0.035900164
233	0xbd017dce	-0.031614117
234	0x3ce5c3a6	0.028047394
235	0x3c1df9a3	0.009642038
236	0xbd16efba	-0.036849715
237	0xbb821e41	-0.0039708917
238	0x3d12e86c	0.035866186
239	0x3ccda2ba	0.025102008
240	0x3b19e72e	0.002348374
241	0xbcce5ade	-0.025189813
242	0x3cb981ad	0.022644842
243	0xbad7b731	-0.0016457794
244	0x3d2bf385	0.041980285
245	0xbbe18c91	-0.006883212
246	0x3d06a452	0.03287155
247	0x3c27b5b9	0.010236197
248	0x3d2ee818	0.04270181
249	0xba533551	-0.0008056956
250	0xbd20be38	-0.039243907
251	0xbca8c399	-0.02060108
252	0x3d1498d0	0.036278546
253	0x3b784861	0.0037884938
254	0xb9d15c2f	-0.0003993227
255	0x3c94b251	0.018151434

fc3.weight f4 [2, 256]
0	0xba82b5e4	-0.000997242
1	0xbbb99b89	-0.005664293
2	0xbb02f587	-0.0019982771
3	0xbaf2a41f	-0.0018512047
4	0xbb9117a9	-0.0044278693
5	0xbad354c1	-0.0016123281
6	0xba6cd5e8	-0.000903456
7	0xbb4ee644	-0.0031570354
8	0xbb9a9985	-0.004718008
9	0xbbd7a0a9	-0.0065804315
10	0xbba2636e	-0.0049557006
11	0xbbc9333c	-0.006140141
12	0xbbcf5ce2	-0.006328211
13	0xbbe2790b	-0.006911402
14	0x39ae0d57	0.00033197805
15	0xbb356539	-0.0027678742
16	0xbae0a649	-0.0017139401
17	0xbb24fe2c	-0.0025175912
18	0xbb9d65ff	-0.0048034186
19	0x3aa66c43	0.001269706
20	0xbbd150e7	-0.006387818
21	0xbb4f0dd9	-0.0031593947
22	0xbac0122e	-0.0014653855
23	0xbb67d6b2	-0.003537577
24	0xbad6e185	-0.0016394114
25	0xbbb555f3	-0.0055339276
26	0xba96aa37	-0.001149482
27	0xbb54f265	-0.0032493111
28	0xbae09b8a	-0.0017136198
29	0xba9de715	-0.0012047017
30	0xbb9cdfae	-0.004787407
31	0xbb6238be	-0.0034518684
32	0xbbef029d	-0.0072940127
33	0xbaf93d52	-0.0019015467
34	0xbb6a002b	-0.0035705667
35	0xbb4694d3	-0.0030301108
36	0xbbd81160	-0.006593868
37	0xbbed5b5a	-0.007243556
38	0xbb2d2158	-0.002641758
39	0xbbf3059e	-0.007416441
40	0xba6c6100	-0.00090171397
41	0x3925861a	0.00015785583
42	0xbba29dbf	-0.0049626525
43	0xbba86ff1	-0.0051402976
44	0xbbefd55f	-0.007319137
45	0xbbbcb688	-0.005759064
46	0xbbd82208	-0.0065958537
47	0xbbe84d50	-0.0070892945
48	0x3a38b606	0.00070461666
49	0x3a020b86	0.00049608236
50	0xbaf35374	-0.00185643
51	0xbbd434ce	-0.0064760214
52	0xbb090320	-0.0020906404
53	0x3a6b6749	0.0008979929
54	0xbbca8803	-0.0061807646
55	0xbb7ec904	-0.003887714
56	0xbb06360e	-0.0020478996
57	0x39eb9cee	0.00044939615
58	0xbbed364c	-0.0072391387
59	0xbb308506	-0.0026934757
60	0xbbc504df	-0.0060125436
61	0xba988e92	-0.0011639169
62	0xbb81c51e	-0.003960266
63	0xbbede937	-0.0072604674
64	0x3b411317	0.0029460841
65	0xbb0fe76a	-0.0021958002
66	0xbbc656e0	-0.006052837
67	0xb9918ab4	-0.00027759897
68	0x3aa2e0b9	0.0012426592
69	0xba82402a	-0.0009937335
70	0xbb673b45	-0.003528313
71	0x3acb525f	0.0015512219
72	0xbb324ee1	-0.002720766
73	0x3a86e40a	0.001029135
74	0xbb9f5119	-0.0048619625
75	0xbbcdf03c	-0.0062847417
76	0xbb9d949e	-0.0048089763
77	0xbbf135f2	-0.007361167
78	0xbb94eaf5	-0.0045446106
79	0xbb092a63	-0.0020929805
80	0xba65318d	-0.00087430404
81	0xbb9841dd	-0.0046465234
82	0xbb996142	-0.0046807835
83	0xbbe0e4c3	-0.006863208
84	0xb9fd7c00	-0.00048348308
85	0xbbdb9bbb	-0.006701914
86	0xbbda6eac	-0.006666025
87	0xbb8dc49f	-0.0043264176
88	0xbb9ae624	-0.004727142
89	0xbbee75e2	-0.0072772363
90	0xbbdf15ad	-0.006808004
91	0xbb51caaf	-0.0032011678
92	0xbbefd786	-0.0073193936
93	0xbb9c9512	-0.0047785128
94	0xba9ae55c	-0.0011817622
95	0xbbdc5080	-0.0067234635
96	0xba9a02b8	-0.0011750078
97	0xbbaa850c	-0.0052038487
98	0x3b0a7bf7	0.0021131018
99	0x3a99d70d	0.0011737064
100	0xbac454b7	-0.001497886
101	0xba07fb08	-0.0005187248
102	0xbbac6c49	-0.005261932
103	0xbb83cb9f	-0.0040220763
104	0xbafa2a24	-0.0019086045
105	0x3944dfcd	0.00018775389
106	0xbb174655	-0.0023082693
107	0x39ee0bbe	0.00045403646
108	0xbb672615	-0.0035270501
109	0xbb85fa7a	-0.004088697
110	0xba52bca0	-0.00080389716
111	0xbba806ba	-0.005127755
112	0xbb80cc50	-0.003930606
113	0xbbb2f132	-0.0054608816
114	0xbabce7e3	-0.0014412369
115	0xbb3a73cd	-0.002845037
116	0xbb936840	-0.0044985116
117	0xbac98ea0	-0.0015377589
118	0xbb68b33b	-0.003550722
119	0xbad33936	-0.0016115073
120	0xbab05913	-0.001345428
121	0xbb1bfe04	-0.0023802528
122	0x3a1a0c58	0.0005876473
123	0xbb7c670d	-0.0038513571
124	0xb9fbcb25	-0.00048025805
125	0xb88a82c0	-6.604707e-05
126	0xbbcca776	-0.006245549
127	0xbadee87e	-0.0017006544
128	0xbb828d21	-0.003984109
129	0xbbab9fc6	-0.0052375523
130	0x3a3fbad5	0.0007313912
131	0xbb4e0217	-0.003143435
132	0xbbf03fc8	-0.007331822
133	0xbb13264a	-0.0022453242
134	0xbaab6f65	-0.0013079463
135	0xba413e6d	-0.0007371668
136	0xbb6f11dd	-0.0036479153
137	0xbbc6d214	-0.0060675237
138	0xbaf7a015	-0.0018892313
139	0xbb72bcae	-0.0037038731
140	0xbbbe4e27	-0.0058076563
141	0x39735ea5	0.00023209544
142	0xbb070aaa	-0.0020605722
143	0xbbd4ec4c	-0.0064978953
144	0xbb8ced06	-0.0043007163
145	0x3a202e35	0.0006110401
146	0xbb7f44e4	-0.0038950974
147	0x3a374219	0.00069907453
148	0x3967a65b	0.00022091849
149	0xbb9793ae	-0.004625759
150	0xbbe73fbf	-0.0070571597
151	0xbb1e9c1e	-0.002420194
152	0xbb4fb641	-0.0031694325
153	0x3923ac7e	0.0001560915
154	0xba0d4560	-0.0005389061
155	0xbbb71485	-0.005587163
156	0xbbefdb10	-0.0073198155
157	0xbace04aa	-0.0015717943
158	0xbae03570	-0.0017105769
159	0xb99fd96d	-0.00030488838
160	0xbb9fcf45	-0.0048770034
161	0xbb9fe18d	-0.0048791827
162	0x3a84682f	0.001010185
163	0xbb8ca554	-0.0042921696
164	0xba3fb417	-0.0007312907
165	0xbb5e6d62	-0.003393971
166	0xbb14a125	-0.0022679057
167	0x3a0af6fc	0.0005301086
168	0xbad67438	-0.001636154
169	0xbb28adba	-0.0025738315
170	0xbb951e48	-0.004550729
171	0xbbd40839	-0.006470707
172	0x39c34aa4	0.0003724891
173	0xbbaa0a35	-0.005189205
174	0x3ac62d5c	0.0015119719
175	0xbbc94db5	-0.0061432966
176	0xbb8833eb	-0.0041565797
177	0x3a9bffe4	0.0011901823
178	0xbbd987b5	-0.006638492
179	0xbb6f43a5	-0.0036508825
180	0xbbc3e0d7	-0.0059777307
181	0xbbe16b15	-0.0068792203
182	0xbb912f08	-0.0044306554
183	0xbb2f3e44	-0.0026739994
184	0xba67aba6	-0.00088375283
185	0xbbf165c0	-0.007366866
186	0xbbbb8d0f	-0.0057236026
187	0xbb92fc7d	-0.0044856654
188	0xbbd87549	-0.0066057784
189	0xbbbb693f	-0.0057193334
190	0xbbb34e44	-0.0054719765
191	0xbbbe4739	-0.0058068302
192	0xbba57604	-0.005049469
193	0xbbc1e174	-0.0059167687
194	0xbbd77070	-0.006574683
195	0x39d9b6b4	0.0004152559
196	0x391b58a6	0.00014814976
197	0xbbc8706c	-0.0061169174
198	0xbbbe2904	-0.0058032293
199	0xbbd7c236	-0.006584431
200	0xbbb8c95a	-0.0056392374
201	0xbb632e38	-0.0034665
202	0xbbdfca03	-0.0068295016
203	0x3a233265	0.0006225466
204	0xbb8b3d2f	-0.004249237
205	0x3a95ae88	0.0011419812
206	0xbb1e1a1a	-0.0024124444
207	0xbbe791ad	-0.0070669265
208	0xbb71c280	-0.0036889613
209	0xbbd77d65	-0.0065762275
210	0xbb0c1f21	-0.002138086
211	0xbbf014ca	-0.007326697
212	0xbbf7f7d4	-0.007567385
213	0xbbb726fe	-0.005589365
214	0xbbc63286	-0.0060485033
215	0xbbcfc2d1	-0.0063403626
216	0xbb04dae1	-0.0020272064
217	0xbb1f8e73	-0.002434638
218	0xbb87c8bc	-0.0041438024
219	0xba7b0904	-0.00095762336
220	0x3a99ca6a	0.0011733298
221	0xba6b05c1	-0.0008965396
222	0xbb36e57a	-0.0027907775
223	0xbb6cc25e	-0.0036126594
224	0xbba1dc4f	-0.004939593
225	0xbbbaaabd	-0.005696623
226	0xbb9d96ac	-0.0048092213
227	0xbbc3a0f8	-0.0059701167
228	0xbb81909d	-0.003954007
229	0xbbe78815	-0.007065783
230	0xbb91a1cf	-0.004444338
231	0xbaa7feb0	-0.0012816992
232	0xbb06f4d8	-0.0020592716
233	0x3ac41bcd	0.0014961899
234	0xbbd22206	-0.0064127473
235	0xbbc3b77b	-0.0059728003
236	0xbb129ef4	-0.0022372575
237	0xbb10bec2	-0.0022086357
238	0xbb1061b0	-0.0022030883
239	0xbb5bc965	-0.0033536789
240	0xbb5d52c7	-0.0033771263
241	0xbab5c401	-0.0013867618
242	0xbbdbaca9	-0.0067039323
243	0xbbbef6a4	-0.0058277417
244	0xbbb4780a	-0.005507474
245	0xbbda2d50	-0.0066582337
246	0xbbaf99c6	-0.0053589074
247	0xbbcdec81	-0.006284297
248	0xbbb4b020	-0.00551416
249	0xbbe4de48	-0.006984506
250	0xbafbb825	-0.001920466
251	0xbbf35b20	-0.0074266344
252	0xbbd03cce	-0.0063549047
253	0xbb1b675e	-0.0023712735
254	0xbbe10bab	-0.006867846
255	0xbaf057a1	-0.0018336662

fc3.bias f4 [2]
0	0x3d4ae0af	0.04953068
1	0xbcb3a59e	-0.021929558
